{"nodes": [{"op": "null", "name": "input_11", "attrs": {"num_outputs": "1", "num_inputs": "5", "data_layout": "NCHW", "kernel_layout": "OIHW", "hash": "ff20e2a56dbabe28", "func_name": "tvmgen_default_fused_nn_conv2d_add_multiply_add_multiply_round_clip_cast", "out_layout": "", "flatten_data": "0"}, "inputs": []}, {"op": "null", "name": "input_115", "attrs": {"num_outputs": "1", "num_inputs": "5", "data_layout": "NCHW", "kernel_layout": "OIHW", "hash": "1e4cb4ae3537446b", "func_name": "tvmgen_default_fused_nn_conv2d_add_multiply_add_nn_leaky_relu_multiply_round_clip_cast_7", "out_layout": "", "flatten_data": "0"}, "inputs": []}, {"op": "tvm_op", "name": "tvmgen_default_fused_cast_divide1", "attrs": {"num_outputs": "1", "num_inputs": "1", "flatten_data": "0", "hash": "fa27adaace0bfe80", "func_name": "tvmgen_default_fused_cast_divide"}, "inputs": [[0, 0, 0]]}, {"op": "tvm_op", "name": "tvmgen_default_fused_cast_divide_22", "attrs": {"num_outputs": "1", "num_inputs": "1", "flatten_data": "0", "hash": "124e1fbf92ab5a82", "func_name": "tvmgen_default_fused_cast_divide_2"}, "inputs": [[1, 0, 0]]}, {"op": "null", "name": "p72", "inputs": []}, {"op": "null", "name": "p73", "inputs": []}, {"op": "null", "name": "p74", "inputs": []}, {"op": "null", "name": "p75", "inputs": []}, {"op": "tvm_op", "name": "tvmgen_default_fused_nn_conv2d_add_multiply_add_3", "attrs": {"num_outputs": "1", "num_inputs": "5", "data_layout": "NCHW", "kernel_layout": "OIHW", "hash": "efe980a7db7571fe", "func_name": "tvmgen_default_fused_nn_conv2d_add_multiply_add_3", "out_layout": "", "flatten_data": "0"}, "inputs": [[3, 0, 0], [4, 0, 0], [5, 0, 0], [6, 0, 0], [7, 0, 0]]}, {"op": "null", "name": "p76", "inputs": []}, {"op": "null", "name": "p77", "inputs": []}, {"op": "null", "name": "p78", "inputs": []}, {"op": "null", "name": "p79", "inputs": []}, {"op": "tvm_op", "name": "tvmgen_default_fused_nn_conv2d_transpose_add_multiply_add_nn_leaky_relu_multiply_round_clip_cas_14150951870605584942__3", "attrs": {"num_outputs": "1", "num_inputs": "5", "data_layout": "NCHW", "kernel_layout": "IOHW", "hash": "6be3dd27938895d6", "func_name": "tvmgen_default_fused_nn_conv2d_transpose_add_multiply_add_nn_leaky_relu_multiply_round_clip_cas_14150951870605584942__3", "out_layout": "", "flatten_data": "0"}, "inputs": [[8, 0, 0], [9, 0, 0], [10, 0, 0], [11, 0, 0], [12, 0, 0]]}, {"op": "tvm_op", "name": "tvmgen_default_fused_cast_divide_concatenate_multiply_round_clip_cast_3", "attrs": {"num_outputs": "1", "num_inputs": "2", "flatten_data": "0", "hash": "250743da2f90f064", "func_name": "tvmgen_default_fused_cast_divide_concatenate_multiply_round_clip_cast_3"}, "inputs": [[13, 0, 0], [2, 0, 0]]}, {"op": "tvm_op", "name": "tvmgen_default_fused_cast_divide_12", "attrs": {"num_outputs": "1", "num_inputs": "1", "flatten_data": "0", "hash": "0139745e8504b7d9", "func_name": "tvmgen_default_fused_cast_divide_12"}, "inputs": [[14, 0, 0]]}, {"op": "null", "name": "p80", "inputs": []}, {"op": "null", "name": "p81", "inputs": []}, {"op": "null", "name": "p82", "inputs": []}, {"op": "null", "name": "p83", "inputs": []}, {"op": "tvm_op", "name": "tvmgen_default_fused_nn_conv2d_add_multiply_add_nn_leaky_relu_multiply_round_clip_cast_8", "attrs": {"num_outputs": "1", "num_inputs": "5", "data_layout": "NCHW", "kernel_layout": "OIHW", "hash": "58317b54a6058016", "func_name": "tvmgen_default_fused_nn_conv2d_add_multiply_add_nn_leaky_relu_multiply_round_clip_cast_8", "out_layout": "", "flatten_data": "0"}, "inputs": [[15, 0, 0], [16, 0, 0], [17, 0, 0], [18, 0, 0], [19, 0, 0]]}, {"op": "tvm_op", "name": "tvmgen_default_fused_cast_divide2", "attrs": {"num_outputs": "1", "num_inputs": "1", "flatten_data": "0", "hash": "fa27adaace0bfe80", "func_name": "tvmgen_default_fused_cast_divide"}, "inputs": [[20, 0, 0]]}, {"op": "null", "name": "p84", "inputs": []}, {"op": "null", "name": "p85", "inputs": []}, {"op": "null", "name": "p86", "inputs": []}, {"op": "tvm_op", "name": "tvmgen_default_fused_nn_conv2d_add_add", "attrs": {"num_outputs": "1", "num_inputs": "4", "data_layout": "NCHW", "kernel_layout": "OIHW", "hash": "77de8dba2b8736c1", "func_name": "tvmgen_default_fused_nn_conv2d_add_add", "out_layout": "", "flatten_data": "0"}, "inputs": [[21, 0, 0], [22, 0, 0], [23, 0, 0], [24, 0, 0]]}, {"op": "null", "name": "p87", "inputs": []}, {"op": "null", "name": "p88", "inputs": []}, {"op": "tvm_op", "name": "tvmgen_default_fused_nn_conv2d_add_sigmoid", "attrs": {"num_outputs": "1", "num_inputs": "3", "out_layout": "", "kernel_layout": "OIHW", "hash": "a8d52321c749ea24", "func_name": "tvmgen_default_fused_nn_conv2d_add_sigmoid", "data_layout": "NCHW", "flatten_data": "0"}, "inputs": [[25, 0, 0], [26, 0, 0], [27, 0, 0]]}], "arg_nodes": [0, 1, 4, 5, 6, 7, 9, 10, 11, 12, 16, 17, 18, 19, 22, 23, 24, 26, 27], "heads": [[28, 0, 0]], "attrs": {"dltype": ["list_str", ["int8", "int8", "float32", "float32", "float32", "float32", "float32", "float32", "float32", "float32", "float32", "float32", "float32", "int8", "int8", "float32", "float32", "float32", "float32", "float32", "int8", "float32", "float32", "float32", "float32", "float32", "float32", "float32", "float32"]], "device_index": ["list_int", [2, 2, 2, 2, 2, 2, 2, 2, 2, 2, 2, 2, 2, 2, 2, 2, 2, 2, 2, 2, 2, 2, 2, 2, 2, 2, 2, 2, 2]], "storage_id": ["list_int", [11, 96, 6, 13, 97, 98, 99, 100, 101, 102, 103, 104, 105, 13, 101, 6, 106, 107, 108, 109, 110, 6, 111, 112, 113, 114, 115, 116, 117]], "shape": ["list_shape", [[1, 64, 256, 256], [1, 128, 128, 128], [1, 64, 256, 256], [1, 128, 128, 128], [128, 128, 3, 3], [1, 128, 1, 1], [1, 128, 1, 1], [1, 128, 1, 1], [1, 128, 128, 128], [128, 64, 3, 3], [1, 64, 1, 1], [1, 64, 1, 1], [1, 64, 1, 1], [1, 64, 256, 256], [1, 128, 256, 256], [1, 128, 256, 256], [64, 128, 3, 3], [1, 64, 1, 1], [1, 64, 1, 1], [1, 64, 1, 1], [1, 64, 256, 256], [1, 64, 256, 256], [64, 64, 3, 3], [1, 64, 1, 1], [1, 64, 1, 1], [1, 64, 256, 256], [1, 64, 3, 3], [1, 1, 1], [1, 1, 256, 256]]]}, "node_row_ptr": [0, 1, 2, 3, 4, 5, 6, 7, 8, 9, 10, 11, 12, 13, 14, 15, 16, 17, 18, 19, 20, 21, 22, 23, 24, 25, 26, 27, 28, 29], "extra": {"inputs": [11, 115], "outputs": [141]}}