{"nodes": [{"op": "null", "name": "input_5", "attrs": {"num_outputs": "1", "num_inputs": "5", "data_layout": "NCHW", "kernel_layout": "OIHW", "hash": "65bf599b700ecd13", "func_name": "tvmgen_default_fused_nn_conv2d_add_multiply_add_nn_leaky_relu", "out_layout": "", "flatten_data": "0"}, "inputs": []}, {"op": "null", "name": "p4", "inputs": []}, {"op": "null", "name": "p5", "inputs": []}, {"op": "null", "name": "p6", "inputs": []}, {"op": "null", "name": "p7", "inputs": []}, {"op": "tvm_op", "name": "tvmgen_default_fused_nn_conv2d_add_multiply_add", "attrs": {"num_outputs": "1", "num_inputs": "5", "data_layout": "NCHW", "kernel_layout": "OIHW", "hash": "f14094ce170e4d7e", "func_name": "tvmgen_default_fused_nn_conv2d_add_multiply_add", "out_layout": "", "flatten_data": "0"}, "inputs": [[0, 0, 0], [1, 0, 0], [2, 0, 0], [3, 0, 0], [4, 0, 0]]}, {"op": "tvm_op", "name": "tvmgen_default_fused_nn_max_pool2d", "attrs": {"num_outputs": "1", "out_layout": "", "hash": "5368d86f3206266c", "func_name": "tvmgen_default_fused_nn_max_pool2d", "layout": "NCHW", "flatten_data": "0", "num_inputs": "1"}, "inputs": [[5, 0, 0]]}, {"op": "null", "name": "p8", "inputs": []}, {"op": "null", "name": "p9", "inputs": []}, {"op": "null", "name": "p10", "inputs": []}, {"op": "null", "name": "p11", "inputs": []}, {"op": "tvm_op", "name": "tvmgen_default_fused_nn_conv2d_add_multiply_add_nn_leaky_relu_1", "attrs": {"num_outputs": "1", "num_inputs": "5", "data_layout": "NCHW", "kernel_layout": "OIHW", "hash": "516eb78e6173765c", "func_name": "tvmgen_default_fused_nn_conv2d_add_multiply_add_nn_leaky_relu_1", "out_layout": "", "flatten_data": "0"}, "inputs": [[6, 0, 0], [7, 0, 0], [8, 0, 0], [9, 0, 0], [10, 0, 0]]}, {"op": "null", "name": "p12", "inputs": []}, {"op": "null", "name": "p13", "inputs": []}, {"op": "null", "name": "p14", "inputs": []}, {"op": "null", "name": "p15", "inputs": []}, {"op": "tvm_op", "name": "tvmgen_default_fused_nn_conv2d_add_multiply_add_1", "attrs": {"num_outputs": "1", "num_inputs": "5", "data_layout": "NCHW", "kernel_layout": "OIHW", "hash": "efe980a7db7571fe", "func_name": "tvmgen_default_fused_nn_conv2d_add_multiply_add_1", "out_layout": "", "flatten_data": "0"}, "inputs": [[11, 0, 0], [12, 0, 0], [13, 0, 0], [14, 0, 0], [15, 0, 0]]}, {"op": "tvm_op", "name": "tvmgen_default_fused_nn_max_pool2d_1", "attrs": {"num_outputs": "1", "out_layout": "", "hash": "101671e5f706ed74", "func_name": "tvmgen_default_fused_nn_max_pool2d_1", "layout": "NCHW", "flatten_data": "0", "num_inputs": "1"}, "inputs": [[16, 0, 0]]}, {"op": "null", "name": "p16", "inputs": []}, {"op": "null", "name": "p17", "inputs": []}, {"op": "null", "name": "p18", "inputs": []}, {"op": "null", "name": "p19", "inputs": []}, {"op": "tvm_op", "name": "tvmgen_default_fused_nn_conv2d_add_multiply_add_nn_leaky_relu_2", "attrs": {"num_outputs": "1", "num_inputs": "5", "data_layout": "NCHW", "kernel_layout": "OIHW", "hash": "ae918f86f9d5c9a1", "func_name": "tvmgen_default_fused_nn_conv2d_add_multiply_add_nn_leaky_relu_2", "out_layout": "", "flatten_data": "0"}, "inputs": [[17, 0, 0], [18, 0, 0], [19, 0, 0], [20, 0, 0], [21, 0, 0]]}, {"op": "null", "name": "p20", "inputs": []}, {"op": "null", "name": "p21", "inputs": []}, {"op": "null", "name": "p22", "inputs": []}, {"op": "null", "name": "p23", "inputs": []}, {"op": "tvm_op", "name": "tvmgen_default_fused_nn_conv2d_add_multiply_add_2", "attrs": {"num_outputs": "1", "num_inputs": "5", "data_layout": "NCHW", "kernel_layout": "OIHW", "hash": "67b92c04ebdb3941", "func_name": "tvmgen_default_fused_nn_conv2d_add_multiply_add_2", "out_layout": "", "flatten_data": "0"}, "inputs": [[22, 0, 0], [23, 0, 0], [24, 0, 0], [25, 0, 0], [26, 0, 0]]}, {"op": "tvm_op", "name": "tvmgen_default_fused_nn_max_pool2d_2", "attrs": {"num_outputs": "1", "out_layout": "", "hash": "6cf9d9884889295b", "func_name": "tvmgen_default_fused_nn_max_pool2d_2", "layout": "NCHW", "flatten_data": "0", "num_inputs": "1"}, "inputs": [[27, 0, 0]]}, {"op": "null", "name": "p24", "inputs": []}, {"op": "null", "name": "p25", "inputs": []}, {"op": "null", "name": "p26", "inputs": []}, {"op": "null", "name": "p27", "inputs": []}, {"op": "tvm_op", "name": "tvmgen_default_fused_nn_conv2d_add_multiply_add_nn_leaky_relu_3", "attrs": {"num_outputs": "1", "num_inputs": "5", "data_layout": "NCHW", "kernel_layout": "OIHW", "hash": "e55169dd290373e6", "func_name": "tvmgen_default_fused_nn_conv2d_add_multiply_add_nn_leaky_relu_3", "out_layout": "", "flatten_data": "0"}, "inputs": [[28, 0, 0], [29, 0, 0], [30, 0, 0], [31, 0, 0], [32, 0, 0]]}, {"op": "null", "name": "p28", "inputs": []}, {"op": "null", "name": "p29", "inputs": []}, {"op": "null", "name": "p30", "inputs": []}, {"op": "null", "name": "p31", "inputs": []}, {"op": "tvm_op", "name": "tvmgen_default_fused_nn_conv2d_add_multiply_add_3", "attrs": {"num_outputs": "1", "num_inputs": "5", "data_layout": "NCHW", "kernel_layout": "OIHW", "hash": "f8da97555bd7b4bd", "func_name": "tvmgen_default_fused_nn_conv2d_add_multiply_add_3", "out_layout": "", "flatten_data": "0"}, "inputs": [[33, 0, 0], [34, 0, 0], [35, 0, 0], [36, 0, 0], [37, 0, 0]]}, {"op": "tvm_op", "name": "tvmgen_default_fused_nn_max_pool2d_3", "attrs": {"num_outputs": "1", "out_layout": "", "hash": "00a5e85c638e5217", "func_name": "tvmgen_default_fused_nn_max_pool2d_3", "layout": "NCHW", "flatten_data": "0", "num_inputs": "1"}, "inputs": [[38, 0, 0]]}, {"op": "null", "name": "p32", "inputs": []}, {"op": "null", "name": "p33", "inputs": []}, {"op": "null", "name": "p34", "inputs": []}, {"op": "null", "name": "p35", "inputs": []}, {"op": "tvm_op", "name": "tvmgen_default_fused_nn_conv2d_add_multiply_add_nn_leaky_relu_4", "attrs": {"num_outputs": "1", "num_inputs": "5", "data_layout": "NCHW", "kernel_layout": "OIHW", "hash": "fbb2dc895d6c0b26", "func_name": "tvmgen_default_fused_nn_conv2d_add_multiply_add_nn_leaky_relu_4", "out_layout": "", "flatten_data": "0"}, "inputs": [[39, 0, 0], [40, 0, 0], [41, 0, 0], [42, 0, 0], [43, 0, 0]]}, {"op": "null", "name": "p36", "inputs": []}, {"op": "null", "name": "p37", "inputs": []}, {"op": "null", "name": "p38", "inputs": []}, {"op": "null", "name": "p39", "inputs": []}, {"op": "tvm_op", "name": "tvmgen_default_fused_nn_conv2d_add_multiply_add_4", "attrs": {"num_outputs": "1", "num_inputs": "5", "data_layout": "NCHW", "kernel_layout": "OIHW", "hash": "b662759e5f655fca", "func_name": "tvmgen_default_fused_nn_conv2d_add_multiply_add_4", "out_layout": "", "flatten_data": "0"}, "inputs": [[44, 0, 0], [45, 0, 0], [46, 0, 0], [47, 0, 0], [48, 0, 0]]}, {"op": "null", "name": "p40", "inputs": []}, {"op": "null", "name": "p41", "inputs": []}, {"op": "null", "name": "p42", "inputs": []}, {"op": "null", "name": "p43", "inputs": []}, {"op": "tvm_op", "name": "tvmgen_default_fused_nn_conv2d_transpose_add_multiply_add_nn_leaky_relu", "attrs": {"num_outputs": "1", "num_inputs": "5", "data_layout": "NCHW", "kernel_layout": "IOHW", "hash": "e7ab89f60ff3a977", "func_name": "tvmgen_default_fused_nn_conv2d_transpose_add_multiply_add_nn_leaky_relu", "out_layout": "", "flatten_data": "0"}, "inputs": [[49, 0, 0], [50, 0, 0], [51, 0, 0], [52, 0, 0], [53, 0, 0]]}, {"op": "tvm_op", "name": "tvmgen_default_fused_concatenate", "attrs": {"num_outputs": "1", "num_inputs": "2", "flatten_data": "0", "hash": "959ced0b6372f5f8", "func_name": "tvmgen_default_fused_concatenate"}, "inputs": [[54, 0, 0], [38, 0, 0]]}, {"op": "null", "name": "p44", "inputs": []}, {"op": "null", "name": "p45", "inputs": []}, {"op": "null", "name": "p46", "inputs": []}, {"op": "null", "name": "p47", "inputs": []}, {"op": "tvm_op", "name": "tvmgen_default_fused_nn_conv2d_add_multiply_add_nn_leaky_relu_5", "attrs": {"num_outputs": "1", "num_inputs": "5", "data_layout": "NCHW", "kernel_layout": "OIHW", "hash": "16acd0a60869b43d", "func_name": "tvmgen_default_fused_nn_conv2d_add_multiply_add_nn_leaky_relu_5", "out_layout": "", "flatten_data": "0"}, "inputs": [[55, 0, 0], [56, 0, 0], [57, 0, 0], [58, 0, 0], [59, 0, 0]]}, {"op": "null", "name": "p48", "inputs": []}, {"op": "null", "name": "p49", "inputs": []}, {"op": "null", "name": "p50", "inputs": []}, {"op": "null", "name": "p51", "inputs": []}, {"op": "tvm_op", "name": "tvmgen_default_fused_nn_conv2d_add_multiply_add_31", "attrs": {"num_outputs": "1", "num_inputs": "5", "data_layout": "NCHW", "kernel_layout": "OIHW", "hash": "f8da97555bd7b4bd", "func_name": "tvmgen_default_fused_nn_conv2d_add_multiply_add_3", "out_layout": "", "flatten_data": "0"}, "inputs": [[60, 0, 0], [61, 0, 0], [62, 0, 0], [63, 0, 0], [64, 0, 0]]}, {"op": "null", "name": "p52", "inputs": []}, {"op": "null", "name": "p53", "inputs": []}, {"op": "null", "name": "p54", "inputs": []}, {"op": "null", "name": "p55", "inputs": []}, {"op": "tvm_op", "name": "tvmgen_default_fused_nn_conv2d_transpose_add_multiply_add_nn_leaky_relu_1", "attrs": {"num_outputs": "1", "num_inputs": "5", "data_layout": "NCHW", "kernel_layout": "IOHW", "hash": "1d308a22b335e77b", "func_name": "tvmgen_default_fused_nn_conv2d_transpose_add_multiply_add_nn_leaky_relu_1", "out_layout": "", "flatten_data": "0"}, "inputs": [[65, 0, 0], [66, 0, 0], [67, 0, 0], [68, 0, 0], [69, 0, 0]]}, {"op": "tvm_op", "name": "tvmgen_default_fused_concatenate_1", "attrs": {"num_outputs": "1", "num_inputs": "2", "flatten_data": "0", "hash": "f227f8e2e0c693a0", "func_name": "tvmgen_default_fused_concatenate_1"}, "inputs": [[70, 0, 0], [27, 0, 0]]}, {"op": "null", "name": "p56", "inputs": []}, {"op": "null", "name": "p57", "inputs": []}, {"op": "null", "name": "p58", "inputs": []}, {"op": "null", "name": "p59", "inputs": []}, {"op": "tvm_op", "name": "tvmgen_default_fused_nn_conv2d_add_multiply_add_nn_leaky_relu_6", "attrs": {"num_outputs": "1", "num_inputs": "5", "data_layout": "NCHW", "kernel_layout": "OIHW", "hash": "3c9c0ebcf53c2972", "func_name": "tvmgen_default_fused_nn_conv2d_add_multiply_add_nn_leaky_relu_6", "out_layout": "", "flatten_data": "0"}, "inputs": [[71, 0, 0], [72, 0, 0], [73, 0, 0], [74, 0, 0], [75, 0, 0]]}, {"op": "null", "name": "p60", "inputs": []}, {"op": "null", "name": "p61", "inputs": []}, {"op": "null", "name": "p62", "inputs": []}, {"op": "null", "name": "p63", "inputs": []}, {"op": "tvm_op", "name": "tvmgen_default_fused_nn_conv2d_add_multiply_add_21", "attrs": {"num_outputs": "1", "num_inputs": "5", "data_layout": "NCHW", "kernel_layout": "OIHW", "hash": "67b92c04ebdb3941", "func_name": "tvmgen_default_fused_nn_conv2d_add_multiply_add_2", "out_layout": "", "flatten_data": "0"}, "inputs": [[76, 0, 0], [77, 0, 0], [78, 0, 0], [79, 0, 0], [80, 0, 0]]}, {"op": "null", "name": "p64", "inputs": []}, {"op": "null", "name": "p65", "inputs": []}, {"op": "null", "name": "p66", "inputs": []}, {"op": "null", "name": "p67", "inputs": []}, {"op": "tvm_op", "name": "tvmgen_default_fused_nn_conv2d_transpose_add_multiply_add_nn_leaky_relu_2", "attrs": {"num_outputs": "1", "num_inputs": "5", "data_layout": "NCHW", "kernel_layout": "IOHW", "hash": "22fb79a98a07fc11", "func_name": "tvmgen_default_fused_nn_conv2d_transpose_add_multiply_add_nn_leaky_relu_2", "out_layout": "", "flatten_data": "0"}, "inputs": [[81, 0, 0], [82, 0, 0], [83, 0, 0], [84, 0, 0], [85, 0, 0]]}, {"op": "tvm_op", "name": "tvmgen_default_fused_concatenate_2", "attrs": {"num_outputs": "1", "num_inputs": "2", "flatten_data": "0", "hash": "622b977360816399", "func_name": "tvmgen_default_fused_concatenate_2"}, "inputs": [[86, 0, 0], [16, 0, 0]]}, {"op": "null", "name": "p68", "inputs": []}, {"op": "null", "name": "p69", "inputs": []}, {"op": "null", "name": "p70", "inputs": []}, {"op": "null", "name": "p71", "inputs": []}, {"op": "tvm_op", "name": "tvmgen_default_fused_nn_conv2d_add_multiply_add_nn_leaky_relu_7", "attrs": {"num_outputs": "1", "num_inputs": "5", "data_layout": "NCHW", "kernel_layout": "OIHW", "hash": "2cd0b079d4aa4d7c", "func_name": "tvmgen_default_fused_nn_conv2d_add_multiply_add_nn_leaky_relu_7", "out_layout": "", "flatten_data": "0"}, "inputs": [[87, 0, 0], [88, 0, 0], [89, 0, 0], [90, 0, 0], [91, 0, 0]]}, {"op": "null", "name": "p72", "inputs": []}, {"op": "null", "name": "p73", "inputs": []}, {"op": "null", "name": "p74", "inputs": []}, {"op": "null", "name": "p75", "inputs": []}, {"op": "tvm_op", "name": "tvmgen_default_fused_nn_conv2d_add_multiply_add_11", "attrs": {"num_outputs": "1", "num_inputs": "5", "data_layout": "NCHW", "kernel_layout": "OIHW", "hash": "efe980a7db7571fe", "func_name": "tvmgen_default_fused_nn_conv2d_add_multiply_add_1", "out_layout": "", "flatten_data": "0"}, "inputs": [[92, 0, 0], [93, 0, 0], [94, 0, 0], [95, 0, 0], [96, 0, 0]]}, {"op": "null", "name": "p76", "inputs": []}, {"op": "null", "name": "p77", "inputs": []}, {"op": "null", "name": "p78", "inputs": []}, {"op": "null", "name": "p79", "inputs": []}, {"op": "tvm_op", "name": "tvmgen_default_fused_nn_conv2d_transpose_add_multiply_add_nn_leaky_relu_3", "attrs": {"num_outputs": "1", "num_inputs": "5", "data_layout": "NCHW", "kernel_layout": "IOHW", "hash": "90265124936940e1", "func_name": "tvmgen_default_fused_nn_conv2d_transpose_add_multiply_add_nn_leaky_relu_3", "out_layout": "", "flatten_data": "0"}, "inputs": [[97, 0, 0], [98, 0, 0], [99, 0, 0], [100, 0, 0], [101, 0, 0]]}, {"op": "null", "name": "p80", "inputs": []}, {"op": "null", "name": "p81", "inputs": []}, {"op": "null", "name": "p82", "inputs": []}, {"op": "null", "name": "p83", "inputs": []}, {"op": "tvm_op", "name": "tvmgen_default_fused_nn_conv2d_add_multiply_add_nn_leaky_relu_8", "attrs": {"num_outputs": "1", "num_inputs": "5", "data_layout": "NCHW", "kernel_layout": "OIHW", "hash": "24d2e0290102969f", "func_name": "tvmgen_default_fused_nn_conv2d_add_multiply_add_nn_leaky_relu_8", "out_layout": "", "flatten_data": "0"}, "inputs": [[6, 0, 0], [103, 0, 0], [104, 0, 0], [105, 0, 0], [106, 0, 0]]}, {"op": "tvm_op", "name": "tvmgen_default_fused_nn_max_pool2d_4", "attrs": {"num_outputs": "1", "out_layout": "", "hash": "0b8f56d6e185e11a", "func_name": "tvmgen_default_fused_nn_max_pool2d_4", "layout": "NCHW", "flatten_data": "0", "num_inputs": "1"}, "inputs": [[107, 0, 0]]}, {"op": "null", "name": "p84", "inputs": []}, {"op": "null", "name": "p85", "inputs": []}, {"op": "null", "name": "p86", "inputs": []}, {"op": "null", "name": "p87", "inputs": []}, {"op": "tvm_op", "name": "tvmgen_default_fused_nn_conv2d_add_multiply_add_nn_leaky_relu_9", "attrs": {"num_outputs": "1", "num_inputs": "5", "data_layout": "NCHW", "kernel_layout": "OIHW", "hash": "03c8afcffcd734a8", "func_name": "tvmgen_default_fused_nn_conv2d_add_multiply_add_nn_leaky_relu_9", "out_layout": "", "flatten_data": "0"}, "inputs": [[108, 0, 0], [109, 0, 0], [110, 0, 0], [111, 0, 0], [112, 0, 0]]}, {"op": "null", "name": "p88", "inputs": []}, {"op": "null", "name": "p89", "inputs": []}, {"op": "null", "name": "p90", "inputs": []}, {"op": "null", "name": "p91", "inputs": []}, {"op": "tvm_op", "name": "tvmgen_default_fused_nn_conv2d_transpose_add_multiply_add_nn_leaky_relu_4", "attrs": {"num_outputs": "1", "num_inputs": "5", "data_layout": "NCHW", "kernel_layout": "IOHW", "hash": "7535f18c8a0b8684", "func_name": "tvmgen_default_fused_nn_conv2d_transpose_add_multiply_add_nn_leaky_relu_4", "out_layout": "", "flatten_data": "0"}, "inputs": [[113, 0, 0], [114, 0, 0], [115, 0, 0], [116, 0, 0], [117, 0, 0]]}, {"op": "null", "name": "p92", "inputs": []}, {"op": "null", "name": "p93", "inputs": []}, {"op": "null", "name": "p94", "inputs": []}, {"op": "null", "name": "p95", "inputs": []}, {"op": "tvm_op", "name": "tvmgen_default_fused_nn_conv2d_transpose_add_multiply_add_nn_leaky_relu_5", "attrs": {"num_outputs": "1", "num_inputs": "5", "data_layout": "NCHW", "kernel_layout": "IOHW", "hash": "67f93fb298c56451", "func_name": "tvmgen_default_fused_nn_conv2d_transpose_add_multiply_add_nn_leaky_relu_5", "out_layout": "", "flatten_data": "0"}, "inputs": [[118, 0, 0], [119, 0, 0], [120, 0, 0], [121, 0, 0], [122, 0, 0]]}, {"op": "tvm_op", "name": "tvmgen_default_fused_concatenate_3", "attrs": {"num_outputs": "1", "num_inputs": "2", "flatten_data": "0", "hash": "c758e490219af2fa", "func_name": "tvmgen_default_fused_concatenate_3"}, "inputs": [[102, 0, 0], [123, 0, 0]]}, {"op": "null", "name": "p96", "inputs": []}, {"op": "null", "name": "p97", "inputs": []}, {"op": "null", "name": "p98", "inputs": []}, {"op": "null", "name": "p99", "inputs": []}, {"op": "tvm_op", "name": "tvmgen_default_fused_nn_conv2d_add_multiply_add_nn_leaky_relu_10", "attrs": {"num_outputs": "1", "num_inputs": "5", "data_layout": "NCHW", "kernel_layout": "OIHW", "hash": "c70be536c4853fe1", "func_name": "tvmgen_default_fused_nn_conv2d_add_multiply_add_nn_leaky_relu_10", "out_layout": "", "flatten_data": "0"}, "inputs": [[124, 0, 0], [125, 0, 0], [126, 0, 0], [127, 0, 0], [128, 0, 0]]}], "arg_nodes": [0, 1, 2, 3, 4, 7, 8, 9, 10, 12, 13, 14, 15, 18, 19, 20, 21, 23, 24, 25, 26, 29, 30, 31, 32, 34, 35, 36, 37, 40, 41, 42, 43, 45, 46, 47, 48, 50, 51, 52, 53, 56, 57, 58, 59, 61, 62, 63, 64, 66, 67, 68, 69, 72, 73, 74, 75, 77, 78, 79, 80, 82, 83, 84, 85, 88, 89, 90, 91, 93, 94, 95, 96, 98, 99, 100, 101, 103, 104, 105, 106, 109, 110, 111, 112, 114, 115, 116, 117, 119, 120, 121, 122, 125, 126, 127, 128], "heads": [[129, 0, 0]], "attrs": {"dltype": ["list_str", ["float32", "float32", "float32", "float32", "float32", "float32", "float32", "float32", "float32", "float32", "float32", "float32", "float32", "float32", "float32", "float32", "float32", "float32", "float32", "float32", "float32", "float32", "float32", "float32", "float32", "float32", "float32", "float32", "float32", "float32", "float32", "float32", "float32", "float32", "float32", "float32", "float32", "float32", "float32", "float32", "float32", "float32", "float32", "float32", "float32", "float32", "float32", "float32", "float32", "float32", "float32", "float32", "float32", "float32", "float32", "float32", "float32", "float32", "float32", "float32", "float32", "float32", "float32", "float32", "float32", "float32", "float32", "float32", "float32", "float32", "float32", "float32", "float32", "float32", "float32", "float32", "float32", "float32", "float32", "float32", "float32", "float32", "float32", "float32", "float32", "float32", "float32", "float32", "float32", "float32", "float32", "float32", "float32", "float32", "float32", "float32", "float32", "float32", "float32", "float32", "float32", "float32", "float32", "float32", "float32", "float32", "float32", "float32", "float32", "float32", "float32", "float32", "float32", "float32", "float32", "float32", "float32", "float32", "float32", "float32", "float32", "float32", "float32", "float32", "float32", "float32", "float32", "float32", "float32", "float32"]], "device_index": ["list_int", [2, 2, 2, 2, 2, 2, 2, 2, 2, 2, 2, 2, 2, 2, 2, 2, 2, 2, 2, 2, 2, 2, 2, 2, 2, 2, 2, 2, 2, 2, 2, 2, 2, 2, 2, 2, 2, 2, 2, 2, 2, 2, 2, 2, 2, 2, 2, 2, 2, 2, 2, 2, 2, 2, 2, 2, 2, 2, 2, 2, 2, 2, 2, 2, 2, 2, 2, 2, 2, 2, 2, 2, 2, 2, 2, 2, 2, 2, 2, 2, 2, 2, 2, 2, 2, 2, 2, 2, 2, 2, 2, 2, 2, 2, 2, 2, 2, 2, 2, 2, 2, 2, 2, 2, 2, 2, 2, 2, 2, 2, 2, 2, 2, 2, 2, 2, 2, 2, 2, 2, 2, 2, 2, 2, 2, 2, 2, 2, 2, 2]], "storage_id": ["list_int", [5, 6, 7, 8, 9, 10, 11, 12, 13, 14, 15, 10, 16, 17, 18, 19, 20, 21, 22, 23, 24, 25, 26, 27, 28, 29, 30, 31, 32, 33, 34, 35, 36, 37, 38, 39, 40, 41, 42, 43, 44, 45, 46, 47, 48, 49, 50, 51, 52, 53, 54, 55, 56, 57, 58, 53, 59, 60, 61, 62, 63, 64, 65, 66, 67, 68, 69, 70, 71, 72, 73, 68, 74, 75, 76, 77, 78, 79, 80, 81, 82, 83, 84, 85, 86, 87, 88, 83, 89, 90, 91, 92, 93, 94, 95, 96, 97, 98, 99, 100, 101, 102, 103, 104, 105, 106, 107, 98, 108, 109, 110, 111, 112, 113, 114, 115, 116, 117, 118, 119, 120, 121, 122, 123, 124, 125, 126, 127, 128, 129]], "shape": ["list_shape", [[1, 64, 256, 256], [64, 64, 3, 3], [1, 64, 1, 1], [1, 64, 1, 1], [1, 64, 1, 1], [1, 64, 256, 256], [1, 64, 128, 128], [128, 64, 3, 3], [1, 128, 1, 1], [1, 128, 1, 1], [1, 128, 1, 1], [1, 128, 128, 128], [128, 128, 3, 3], [1, 128, 1, 1], [1, 128, 1, 1], [1, 128, 1, 1], [1, 128, 128, 128], [1, 128, 64, 64], [256, 128, 3, 3], [1, 256, 1, 1], [1, 256, 1, 1], [1, 256, 1, 1], [1, 256, 64, 64], [256, 256, 3, 3], [1, 256, 1, 1], [1, 256, 1, 1], [1, 256, 1, 1], [1, 256, 64, 64], [1, 256, 32, 32], [512, 256, 3, 3], [1, 512, 1, 1], [1, 512, 1, 1], [1, 512, 1, 1], [1, 512, 32, 32], [512, 512, 3, 3], [1, 512, 1, 1], [1, 512, 1, 1], [1, 512, 1, 1], [1, 512, 32, 32], [1, 512, 16, 16], [1024, 512, 3, 3], [1, 1024, 1, 1], [1, 1024, 1, 1], [1, 1024, 1, 1], [1, 1024, 16, 16], [1024, 1024, 3, 3], [1, 1024, 1, 1], [1, 1024, 1, 1], [1, 1024, 1, 1], [1, 1024, 16, 16], [1024, 512, 3, 3], [1, 512, 1, 1], [1, 512, 1, 1], [1, 512, 1, 1], [1, 512, 32, 32], [1, 1024, 32, 32], [512, 1024, 3, 3], [1, 512, 1, 1], [1, 512, 1, 1], [1, 512, 1, 1], [1, 512, 32, 32], [512, 512, 3, 3], [1, 512, 1, 1], [1, 512, 1, 1], [1, 512, 1, 1], [1, 512, 32, 32], [512, 256, 3, 3], [1, 256, 1, 1], [1, 256, 1, 1], [1, 256, 1, 1], [1, 256, 64, 64], [1, 512, 64, 64], [256, 512, 3, 3], [1, 256, 1, 1], [1, 256, 1, 1], [1, 256, 1, 1], [1, 256, 64, 64], [256, 256, 3, 3], [1, 256, 1, 1], [1, 256, 1, 1], [1, 256, 1, 1], [1, 256, 64, 64], [256, 128, 3, 3], [1, 128, 1, 1], [1, 128, 1, 1], [1, 128, 1, 1], [1, 128, 128, 128], [1, 256, 128, 128], [128, 256, 3, 3], [1, 128, 1, 1], [1, 128, 1, 1], [1, 128, 1, 1], [1, 128, 128, 128], [128, 128, 3, 3], [1, 128, 1, 1], [1, 128, 1, 1], [1, 128, 1, 1], [1, 128, 128, 128], [128, 64, 3, 3], [1, 64, 1, 1], [1, 64, 1, 1], [1, 64, 1, 1], [1, 64, 256, 256], [32, 64, 3, 3], [1, 32, 1, 1], [1, 32, 1, 1], [1, 32, 1, 1], [1, 32, 128, 128], [1, 32, 64, 64], [16, 32, 3, 3], [1, 16, 1, 1], [1, 16, 1, 1], [1, 16, 1, 1], [1, 16, 64, 64], [16, 64, 3, 3], [1, 64, 1, 1], [1, 64, 1, 1], [1, 64, 1, 1], [1, 64, 128, 128], [64, 128, 3, 3], [1, 128, 1, 1], [1, 128, 1, 1], [1, 128, 1, 1], [1, 128, 256, 256], [1, 192, 256, 256], [64, 192, 3, 3], [1, 64, 1, 1], [1, 64, 1, 1], [1, 64, 1, 1], [1, 64, 256, 256]]]}, "node_row_ptr": [0, 1, 2, 3, 4, 5, 6, 7, 8, 9, 10, 11, 12, 13, 14, 15, 16, 17, 18, 19, 20, 21, 22, 23, 24, 25, 26, 27, 28, 29, 30, 31, 32, 33, 34, 35, 36, 37, 38, 39, 40, 41, 42, 43, 44, 45, 46, 47, 48, 49, 50, 51, 52, 53, 54, 55, 56, 57, 58, 59, 60, 61, 62, 63, 64, 65, 66, 67, 68, 69, 70, 71, 72, 73, 74, 75, 76, 77, 78, 79, 80, 81, 82, 83, 84, 85, 86, 87, 88, 89, 90, 91, 92, 93, 94, 95, 96, 97, 98, 99, 100, 101, 102, 103, 104, 105, 106, 107, 108, 109, 110, 111, 112, 113, 114, 115, 116, 117, 118, 119, 120, 121, 122, 123, 124, 125, 126, 127, 128, 129, 130], "extra": {"inputs": [5], "outputs": [134]}}