{"nodes": [{"op": "null", "name": "input_11", "attrs": {"num_outputs": "1", "out_layout": "", "hash": "5368d86f3206266c", "func_name": "tvmgen_default_fused_nn_max_pool2d", "layout": "NCHW", "flatten_data": "0", "num_inputs": "1"}, "inputs": []}, {"op": "null", "name": "input_92", "attrs": {"num_outputs": "1", "num_inputs": "2", "flatten_data": "0", "hash": "622b977360816399", "func_name": "tvmgen_default_fused_concatenate_2"}, "inputs": []}, {"op": "null", "name": "p68", "inputs": []}, {"op": "null", "name": "p69", "inputs": []}, {"op": "null", "name": "p70", "inputs": []}, {"op": "null", "name": "p71", "inputs": []}, {"op": "tvm_op", "name": "tvmgen_default_fused_nn_conv2d_add_multiply_add_nn_leaky_relu_7", "attrs": {"num_outputs": "1", "num_inputs": "5", "data_layout": "NCHW", "kernel_layout": "OIHW", "hash": "2cd0b079d4aa4d7c", "func_name": "tvmgen_default_fused_nn_conv2d_add_multiply_add_nn_leaky_relu_7", "out_layout": "", "flatten_data": "0"}, "inputs": [[1, 0, 0], [2, 0, 0], [3, 0, 0], [4, 0, 0], [5, 0, 0]]}, {"op": "null", "name": "p72", "inputs": []}, {"op": "null", "name": "p73", "inputs": []}, {"op": "null", "name": "p74", "inputs": []}, {"op": "null", "name": "p75", "inputs": []}, {"op": "tvm_op", "name": "tvmgen_default_fused_nn_conv2d_add_multiply_add_11", "attrs": {"num_outputs": "1", "num_inputs": "5", "data_layout": "NCHW", "kernel_layout": "OIHW", "hash": "efe980a7db7571fe", "func_name": "tvmgen_default_fused_nn_conv2d_add_multiply_add_1", "out_layout": "", "flatten_data": "0"}, "inputs": [[6, 0, 0], [7, 0, 0], [8, 0, 0], [9, 0, 0], [10, 0, 0]]}, {"op": "null", "name": "p76", "inputs": []}, {"op": "null", "name": "p77", "inputs": []}, {"op": "null", "name": "p78", "inputs": []}, {"op": "null", "name": "p79", "inputs": []}, {"op": "tvm_op", "name": "tvmgen_default_fused_nn_conv2d_transpose_add_multiply_add_nn_leaky_relu_3", "attrs": {"num_outputs": "1", "num_inputs": "5", "data_layout": "NCHW", "kernel_layout": "IOHW", "hash": "90265124936940e1", "func_name": "tvmgen_default_fused_nn_conv2d_transpose_add_multiply_add_nn_leaky_relu_3", "out_layout": "", "flatten_data": "0"}, "inputs": [[11, 0, 0], [12, 0, 0], [13, 0, 0], [14, 0, 0], [15, 0, 0]]}, {"op": "null", "name": "p80", "inputs": []}, {"op": "null", "name": "p81", "inputs": []}, {"op": "null", "name": "p82", "inputs": []}, {"op": "null", "name": "p83", "inputs": []}, {"op": "tvm_op", "name": "tvmgen_default_fused_nn_conv2d_add_multiply_add_nn_leaky_relu_8", "attrs": {"num_outputs": "1", "num_inputs": "5", "data_layout": "NCHW", "kernel_layout": "OIHW", "hash": "24d2e0290102969f", "func_name": "tvmgen_default_fused_nn_conv2d_add_multiply_add_nn_leaky_relu_8", "out_layout": "", "flatten_data": "0"}, "inputs": [[0, 0, 0], [17, 0, 0], [18, 0, 0], [19, 0, 0], [20, 0, 0]]}, {"op": "tvm_op", "name": "tvmgen_default_fused_nn_max_pool2d_4", "attrs": {"num_outputs": "1", "out_layout": "", "hash": "0b8f56d6e185e11a", "func_name": "tvmgen_default_fused_nn_max_pool2d_4", "layout": "NCHW", "flatten_data": "0", "num_inputs": "1"}, "inputs": [[21, 0, 0]]}, {"op": "null", "name": "p84", "inputs": []}, {"op": "null", "name": "p85", "inputs": []}, {"op": "null", "name": "p86", "inputs": []}, {"op": "null", "name": "p87", "inputs": []}, {"op": "tvm_op", "name": "tvmgen_default_fused_nn_conv2d_add_multiply_add_nn_leaky_relu_9", "attrs": {"num_outputs": "1", "num_inputs": "5", "data_layout": "NCHW", "kernel_layout": "OIHW", "hash": "03c8afcffcd734a8", "func_name": "tvmgen_default_fused_nn_conv2d_add_multiply_add_nn_leaky_relu_9", "out_layout": "", "flatten_data": "0"}, "inputs": [[22, 0, 0], [23, 0, 0], [24, 0, 0], [25, 0, 0], [26, 0, 0]]}, {"op": "null", "name": "p88", "inputs": []}, {"op": "null", "name": "p89", "inputs": []}, {"op": "null", "name": "p90", "inputs": []}, {"op": "null", "name": "p91", "inputs": []}, {"op": "tvm_op", "name": "tvmgen_default_fused_nn_conv2d_transpose_add_multiply_add_nn_leaky_relu_4", "attrs": {"num_outputs": "1", "num_inputs": "5", "data_layout": "NCHW", "kernel_layout": "IOHW", "hash": "7535f18c8a0b8684", "func_name": "tvmgen_default_fused_nn_conv2d_transpose_add_multiply_add_nn_leaky_relu_4", "out_layout": "", "flatten_data": "0"}, "inputs": [[27, 0, 0], [28, 0, 0], [29, 0, 0], [30, 0, 0], [31, 0, 0]]}, {"op": "null", "name": "p92", "inputs": []}, {"op": "null", "name": "p93", "inputs": []}, {"op": "null", "name": "p94", "inputs": []}, {"op": "null", "name": "p95", "inputs": []}, {"op": "tvm_op", "name": "tvmgen_default_fused_nn_conv2d_transpose_add_multiply_add_nn_leaky_relu_5", "attrs": {"num_outputs": "1", "num_inputs": "5", "data_layout": "NCHW", "kernel_layout": "IOHW", "hash": "67f93fb298c56451", "func_name": "tvmgen_default_fused_nn_conv2d_transpose_add_multiply_add_nn_leaky_relu_5", "out_layout": "", "flatten_data": "0"}, "inputs": [[32, 0, 0], [33, 0, 0], [34, 0, 0], [35, 0, 0], [36, 0, 0]]}, {"op": "tvm_op", "name": "tvmgen_default_fused_concatenate_3", "attrs": {"num_outputs": "1", "num_inputs": "2", "flatten_data": "0", "hash": "c758e490219af2fa", "func_name": "tvmgen_default_fused_concatenate_3"}, "inputs": [[16, 0, 0], [37, 0, 0]]}, {"op": "null", "name": "p96", "inputs": []}, {"op": "null", "name": "p97", "inputs": []}, {"op": "null", "name": "p98", "inputs": []}, {"op": "null", "name": "p99", "inputs": []}, {"op": "tvm_op", "name": "tvmgen_default_fused_nn_conv2d_add_multiply_add_nn_leaky_relu_10", "attrs": {"num_outputs": "1", "num_inputs": "5", "data_layout": "NCHW", "kernel_layout": "OIHW", "hash": "c70be536c4853fe1", "func_name": "tvmgen_default_fused_nn_conv2d_add_multiply_add_nn_leaky_relu_10", "out_layout": "", "flatten_data": "0"}, "inputs": [[38, 0, 0], [39, 0, 0], [40, 0, 0], [41, 0, 0], [42, 0, 0]]}, {"op": "null", "name": "p100", "inputs": []}, {"op": "null", "name": "p101", "inputs": []}, {"op": "null", "name": "p102", "inputs": []}, {"op": "tvm_op", "name": "tvmgen_default_fused_nn_conv2d_add_add", "attrs": {"num_outputs": "1", "num_inputs": "4", "data_layout": "NCHW", "kernel_layout": "OIHW", "hash": "77de8dba2b8736c1", "func_name": "tvmgen_default_fused_nn_conv2d_add_add", "out_layout": "", "flatten_data": "0"}, "inputs": [[43, 0, 0], [44, 0, 0], [45, 0, 0], [46, 0, 0]]}, {"op": "null", "name": "p103", "inputs": []}, {"op": "null", "name": "p104", "inputs": []}, {"op": "tvm_op", "name": "tvmgen_default_fused_nn_conv2d_add_sigmoid", "attrs": {"num_outputs": "1", "num_inputs": "3", "out_layout": "", "kernel_layout": "OIHW", "hash": "a8d52321c749ea24", "func_name": "tvmgen_default_fused_nn_conv2d_add_sigmoid", "data_layout": "NCHW", "flatten_data": "0"}, "inputs": [[47, 0, 0], [48, 0, 0], [49, 0, 0]]}], "arg_nodes": [0, 1, 2, 3, 4, 5, 7, 8, 9, 10, 12, 13, 14, 15, 17, 18, 19, 20, 23, 24, 25, 26, 28, 29, 30, 31, 33, 34, 35, 36, 39, 40, 41, 42, 44, 45, 46, 48, 49], "heads": [[50, 0, 0]], "attrs": {"dltype": ["list_str", ["float32", "float32", "float32", "float32", "float32", "float32", "float32", "float32", "float32", "float32", "float32", "float32", "float32", "float32", "float32", "float32", "float32", "float32", "float32", "float32", "float32", "float32", "float32", "float32", "float32", "float32", "float32", "float32", "float32", "float32", "float32", "float32", "float32", "float32", "float32", "float32", "float32", "float32", "float32", "float32", "float32", "float32", "float32", "float32", "float32", "float32", "float32", "float32", "float32", "float32", "float32"]], "device_index": ["list_int", [2, 2, 2, 2, 2, 2, 2, 2, 2, 2, 2, 2, 2, 2, 2, 2, 2, 2, 2, 2, 2, 2, 2, 2, 2, 2, 2, 2, 2, 2, 2, 2, 2, 2, 2, 2, 2, 2, 2, 2, 2, 2, 2, 2, 2, 2, 2, 2, 2, 2, 2]], "storage_id": ["list_int", [11, 83, 89, 90, 91, 92, 93, 94, 95, 96, 97, 98, 99, 100, 101, 102, 103, 104, 105, 106, 107, 98, 108, 109, 110, 111, 112, 113, 114, 115, 116, 117, 118, 119, 120, 121, 122, 123, 124, 125, 126, 127, 128, 129, 130, 131, 132, 133, 134, 135, 136]], "shape": ["list_shape", [[1, 64, 128, 128], [1, 256, 128, 128], [128, 256, 3, 3], [1, 128, 1, 1], [1, 128, 1, 1], [1, 128, 1, 1], [1, 128, 128, 128], [128, 128, 3, 3], [1, 128, 1, 1], [1, 128, 1, 1], [1, 128, 1, 1], [1, 128, 128, 128], [128, 64, 3, 3], [1, 64, 1, 1], [1, 64, 1, 1], [1, 64, 1, 1], [1, 64, 256, 256], [32, 64, 3, 3], [1, 32, 1, 1], [1, 32, 1, 1], [1, 32, 1, 1], [1, 32, 128, 128], [1, 32, 64, 64], [16, 32, 3, 3], [1, 16, 1, 1], [1, 16, 1, 1], [1, 16, 1, 1], [1, 16, 64, 64], [16, 64, 3, 3], [1, 64, 1, 1], [1, 64, 1, 1], [1, 64, 1, 1], [1, 64, 128, 128], [64, 128, 3, 3], [1, 128, 1, 1], [1, 128, 1, 1], [1, 128, 1, 1], [1, 128, 256, 256], [1, 192, 256, 256], [64, 192, 3, 3], [1, 64, 1, 1], [1, 64, 1, 1], [1, 64, 1, 1], [1, 64, 256, 256], [64, 64, 3, 3], [1, 64, 1, 1], [1, 64, 1, 1], [1, 64, 256, 256], [1, 64, 3, 3], [1, 1, 1], [1, 1, 256, 256]]]}, "node_row_ptr": [0, 1, 2, 3, 4, 5, 6, 7, 8, 9, 10, 11, 12, 13, 14, 15, 16, 17, 18, 19, 20, 21, 22, 23, 24, 25, 26, 27, 28, 29, 30, 31, 32, 33, 34, 35, 36, 37, 38, 39, 40, 41, 42, 43, 44, 45, 46, 47, 48, 49, 50, 51], "extra": {"inputs": [11, 92], "outputs": [141]}}