****************************
Model: "model"
__________________________________________________________________________________________________
Layer (type)                    Output Shape         Param #     Connected to                     
==================================================================================================
input_1 (InputLayer)            [(None, 256, 256, 3) 0                                            
__________________________________________________________________________________________________
conv2d (Conv2D)                 (None, 256, 256, 64) 1792        input_1[0][0]                    
__________________________________________________________________________________________________
batch_normalization (BatchNorma (None, 256, 256, 64) 256         conv2d[0][0]                     
__________________________________________________________________________________________________
leaky_re_lu (LeakyReLU)         (None, 256, 256, 64) 0           batch_normalization[0][0]        
__________________________________________________________________________________________________
conv2d_1 (Conv2D)               (None, 256, 256, 64) 36928       leaky_re_lu[0][0]                
__________________________________________________________________________________________________
batch_normalization_1 (BatchNor (None, 256, 256, 64) 256         conv2d_1[0][0]                   
__________________________________________________________________________________________________
max_pooling2d (MaxPooling2D)    (None, 128, 128, 64) 0           batch_normalization_1[0][0]      
__________________________________________________________________________________________________
conv2d_2 (Conv2D)               (None, 128, 128, 128 73856       max_pooling2d[0][0]              
__________________________________________________________________________________________________
batch_normalization_2 (BatchNor (None, 128, 128, 128 512         conv2d_2[0][0]                   
…
leaky_re_lu_1 (LeakyReLU)       (None, 128, 128, 128 0           batch_normalization_2[0][0]      
__________________________________________________________________________________________________
conv2d_3 (Conv2D)               (None, 128, 128, 128 147584      leaky_re_lu_1[0][0]              
__________________________________________________________________________________________________
batch_normalization_3 (BatchNor (None, 128, 128, 128 512         conv2d_3[0][0]                   
__________________________________________________________________________________________________
max_pooling2d_1 (MaxPooling2D)  (None, 64, 64, 128)  0           batch_normalization_3[0][0]      
__________________________________________________________________________________________________
conv2d_4 (Conv2D)               (None, 64, 64, 256)  295168      max_pooling2d_1[0][0]            
__________________________________________________________________________________________________
batch_normalization_4 (BatchNor (None, 64, 64, 256)  1024        conv2d_4[0][0]                   
__________________________________________________________________________________________________
leaky_re_lu_2 (LeakyReLU)       (None, 64, 64, 256)  0           batch_normalization_4[0][0]      
__________________________________________________________________________________________________
conv2d_5 (Conv2D)               (None, 64, 64, 256)  590080      leaky_re_lu_2[0][0]              
__________________________________________________________________________________________________
batch_normalization_5 (BatchNor (None, 64, 64, 256)  1024        conv2d_5[0][0]                   
__________________________________________________________________________________________________
max_pooling2d_2 (MaxPooling2D)  (None, 32, 32, 256)  0           batch_normalization_5[0][0]      
__________________________________________________________________________________________________
conv2d_6 (Conv2D)               (None, 32, 32, 512)  1180160     max_pooling2d_2[0][0]            
__________________________________________________________________________________________________
batch_normalization_6 (BatchNor (None, 32, 32, 512)  2048        conv2d_6[0][0]                   
__________________________________________________________________________________________________
leaky_re_lu_3 (LeakyReLU)       (None, 32, 32, 512)  0           batch_normalization_6[0][0]      
__________________________________________________________________________________________________
conv2d_7 (Conv2D)               (None, 32, 32, 512)  2359808     leaky_re_lu_3[0][0]              
__________________________________________________________________________________________________
batch_normalization_7 (BatchNor (None, 32, 32, 512)  2048        conv2d_7[0][0]                   
__________________________________________________________________________________________________
max_pooling2d_3 (MaxPooling2D)  (None, 16, 16, 512)  0           batch_normalization_7[0][0]      
__________________________________________________________________________________________________
conv2d_8 (Conv2D)               (None, 16, 16, 1024) 4719616     max_pooling2d_3[0][0]            
__________________________________________________________________________________________________
batch_normalization_8 (BatchNor (None, 16, 16, 1024) 4096        conv2d_8[0][0]                   
__________________________________________________________________________________________________
leaky_re_lu_4 (LeakyReLU)       (None, 16, 16, 1024) 0           batch_normalization_8[0][0]      
__________________________________________________________________________________________________
conv2d_9 (Conv2D)               (None, 16, 16, 1024) 9438208     leaky_re_lu_4[0][0]              
__________________________________________________________________________________________________
batch_normalization_9 (BatchNor (None, 16, 16, 1024) 4096        conv2d_9[0][0]                   
__________________________________________________________________________________________________
conv2d_transpose (Conv2DTranspo (None, 32, 32, 512)  4719104     batch_normalization_9[0][0]      
__________________________________________________________________________________________________
batch_normalization_10 (BatchNo (None, 32, 32, 512)  2048        conv2d_transpose[0][0]           
__________________________________________________________________________________________________
leaky_re_lu_5 (LeakyReLU)       (None, 32, 32, 512)  0           batch_normalization_10[0][0]     
__________________________________________________________________________________________________
concatenate (Concatenate)       (None, 32, 32, 1024) 0           leaky_re_lu_5[0][0]              
                                                                 batch_normalization_7[0][0]      
__________________________________________________________________________________________________
conv2d_10 (Conv2D)              (None, 32, 32, 512)  4719104     concatenate[0][0]                
__________________________________________________________________________________________________
batch_normalization_11 (BatchNo (None, 32, 32, 512)  2048        conv2d_10[0][0]                  
__________________________________________________________________________________________________
leaky_re_lu_6 (LeakyReLU)       (None, 32, 32, 512)  0           batch_normalization_11[0][0]     
__________________________________________________________________________________________________
conv2d_11 (Conv2D)              (None, 32, 32, 512)  2359808     leaky_re_lu_6[0][0]              
__________________________________________________________________________________________________
batch_normalization_12 (BatchNo (None, 32, 32, 512)  2048        conv2d_11[0][0]                  
__________________________________________________________________________________________________
conv2d_transpose_1 (Conv2DTrans (None, 64, 64, 256)  1179904     batch_normalization_12[0][0]     
__________________________________________________________________________________________________
batch_normalization_13 (BatchNo (None, 64, 64, 256)  1024        conv2d_transpose_1[0][0]         
__________________________________________________________________________________________________
leaky_re_lu_7 (LeakyReLU)       (None, 64, 64, 256)  0           batch_normalization_13[0][0]     
__________________________________________________________________________________________________
concatenate_1 (Concatenate)     (None, 64, 64, 512)  0           leaky_re_lu_7[0][0]              
                                                                 batch_normalization_5[0][0]      
__________________________________________________________________________________________________
conv2d_12 (Conv2D)              (None, 64, 64, 256)  1179904     concatenate_1[0][0]              
__________________________________________________________________________________________________
batch_normalization_14 (BatchNo (None, 64, 64, 256)  1024        conv2d_12[0][0]                  
__________________________________________________________________________________________________
leaky_re_lu_8 (LeakyReLU)       (None, 64, 64, 256)  0           batch_normalization_14[0][0]     
__________________________________________________________________________________________________
conv2d_13 (Conv2D)              (None, 64, 64, 256)  590080      leaky_re_lu_8[0][0]              
__________________________________________________________________________________________________
batch_normalization_15 (BatchNo (None, 64, 64, 256)  1024        conv2d_13[0][0]                  
__________________________________________________________________________________________________
conv2d_transpose_2 (Conv2DTrans (None, 128, 128, 128 295040      batch_normalization_15[0][0]     
__________________________________________________________________________________________________
batch_normalization_16 (BatchNo (None, 128, 128, 128 512         conv2d_transpose_2[0][0]         
…
leaky_re_lu_10 (LeakyReLU)      (None, 128, 128, 128 0           batch_normalization_17[0][0]     
__________________________________________________________________________________________________
conv2d_15 (Conv2D)              (None, 128, 128, 128 147584      leaky_re_lu_10[0][0]             
__________________________________________________________________________________________________
batch_normalization_18 (BatchNo (None, 128, 128, 128 512         conv2d_15[0][0]                  
__________________________________________________________________________________________________
conv2d_transpose_3 (Conv2DTrans (None, 256, 256, 64) 73792       batch_normalization_18[0][0]     
__________________________________________________________________________________________________
batch_normalization_19 (BatchNo (None, 256, 256, 64) 256         conv2d_transpose_3[0][0]         
__________________________________________________________________________________________________
leaky_re_lu_11 (LeakyReLU)      (None, 256, 256, 64) 0           batch_normalization_19[0][0]     
__________________________________________________________________________________________________
concatenate_3 (Concatenate)     (None, 256, 256, 128 0           leaky_re_lu_11[0][0]             
                                                                 batch_normalization_1[0][0]      
__________________________________________________________________________________________________
conv2d_16 (Conv2D)              (None, 256, 256, 64) 73792       concatenate_3[0][0]              
__________________________________________________________________________________________________
batch_normalization_20 (BatchNo (None, 256, 256, 64) 256         conv2d_16[0][0]                  
__________________________________________________________________________________________________
leaky_re_lu_12 (LeakyReLU)      (None, 256, 256, 64) 0           batch_normalization_20[0][0]     
__________________________________________________________________________________________________
conv2d_17 (Conv2D)              (None, 256, 256, 64) 36928       leaky_re_lu_12[0][0]             
__________________________________________________________________________________________________
batch_normalization_21 (BatchNo (None, 256, 256, 64) 256         conv2d_17[0][0]                  
__________________________________________________________________________________________________
conv2d_18 (Conv2D)              (None, 256, 256, 1)  577         batch_normalization_21[0][0]     
==================================================================================================
Total params: 34,541,249
Trainable params: 34,527,553
Non-trainable params: 13,696
__________________________________________________________________________________________________
None
****************************
Model: "model"
__________________________________________________________________________________________________
Layer (type)                    Output Shape         Param #     Connected to                     
==================================================================================================
input_1 (InputLayer)            [(None, 256, 256, 3) 0                                            
__________________________________________________________________________________________________
conv2d (Conv2D)                 (None, 256, 256, 64) 1792        input_1[0][0]                    
__________________________________________________________________________________________________
batch_normalization (BatchNorma (None, 256, 256, 64) 256         conv2d[0][0]                     
__________________________________________________________________________________________________
leaky_re_lu (LeakyReLU)         (None, 256, 256, 64) 0           batch_normalization[0][0]        
__________________________________________________________________________________________________
conv2d_1 (Conv2D)               (None, 256, 256, 64) 36928       leaky_re_lu[0][0]                
__________________________________________________________________________________________________
batch_normalization_1 (BatchNor (None, 256, 256, 64) 256         conv2d_1[0][0]                   
__________________________________________________________________________________________________
max_pooling2d (MaxPooling2D)    (None, 128, 128, 64) 0           batch_normalization_1[0][0]      
__________________________________________________________________________________________________
conv2d_2 (Conv2D)               (None, 128, 128, 32) 18464       max_pooling2d[0][0]              
__________________________________________________________________________________________________
batch_normalization_2 (BatchNor (None, 128, 128, 32) 128         conv2d_2[0][0]                   
__________________________________________________________________________________________________
leaky_re_lu_1 (LeakyReLU)       (None, 128, 128, 32) 0           batch_normalization_2[0][0]      
__________________________________________________________________________________________________
max_pooling2d_1 (MaxPooling2D)  (None, 64, 64, 32)   0           leaky_re_lu_1[0][0]              
__________________________________________________________________________________________________
conv2d_transpose (Conv2DTranspo (None, 128, 128, 32) 9248        max_pooling2d_1[0][0]            
__________________________________________________________________________________________________
batch_normalization_3 (BatchNor (None, 128, 128, 32) 128         conv2d_transpose[0][0]           
__________________________________________________________________________________________________
leaky_re_lu_2 (LeakyReLU)       (None, 128, 128, 32) 0           batch_normalization_3[0][0]      
__________________________________________________________________________________________________
conv2d_3 (Conv2D)               (None, 128, 128, 128 36992       leaky_re_lu_2[0][0]              
__________________________________________________________________________________________________
batch_normalization_4 (BatchNor (None, 128, 128, 128 512         conv2d_3[0][0]                   
…
leaky_re_lu_12 (LeakyReLU)      (None, 128, 128, 128 0           batch_normalization_19[0][0]     
__________________________________________________________________________________________________
conv2d_16 (Conv2D)              (None, 128, 128, 128 147584      leaky_re_lu_12[0][0]             
__________________________________________________________________________________________________
batch_normalization_20 (BatchNo (None, 128, 128, 128 512         conv2d_16[0][0]                  
__________________________________________________________________________________________________
conv2d_transpose_4 (Conv2DTrans (None, 256, 256, 64) 73792       batch_normalization_20[0][0]     
__________________________________________________________________________________________________
conv2d_transpose_5 (Conv2DTrans (None, 256, 256, 64) 18496       leaky_re_lu_1[0][0]              
__________________________________________________________________________________________________
batch_normalization_21 (BatchNo (None, 256, 256, 64) 256         conv2d_transpose_4[0][0]         
__________________________________________________________________________________________________
batch_normalization_22 (BatchNo (None, 256, 256, 64) 256         conv2d_transpose_5[0][0]         
__________________________________________________________________________________________________
leaky_re_lu_13 (LeakyReLU)      (None, 256, 256, 64) 0           batch_normalization_21[0][0]     
__________________________________________________________________________________________________
leaky_re_lu_14 (LeakyReLU)      (None, 256, 256, 64) 0           batch_normalization_22[0][0]     
__________________________________________________________________________________________________
concatenate_3 (Concatenate)     (None, 256, 256, 128 0           leaky_re_lu_13[0][0]             
                                                                 leaky_re_lu_14[0][0]             
__________________________________________________________________________________________________
…
leaky_re_lu_15 (LeakyReLU)      (None, 256, 256, 128 0           batch_normalization_23[0][0]     
__________________________________________________________________________________________________
conv2d_18 (Conv2D)              (None, 256, 256, 128 147584      leaky_re_lu_15[0][0]             
__________________________________________________________________________________________________
batch_normalization_24 (BatchNo (None, 256, 256, 128 512         conv2d_18[0][0]                  
__________________________________________________________________________________________________
conv2d_19 (Conv2D)              (None, 256, 256, 1)  1153        batch_normalization_24[0][0]     
==================================================================================================
Total params: 34,736,641
Trainable params: 34,722,433
Non-trainable params: 14,208
__________________________________________________________________________________________________
None
****************************
Model: "model"
__________________________________________________________________________________________________
Layer (type)                    Output Shape         Param #     Connected to                     
==================================================================================================
input_1 (InputLayer)            [(None, 256, 256, 3) 0                                            
__________________________________________________________________________________________________
conv2d (Conv2D)                 (None, 256, 256, 64) 1792        input_1[0][0]                    
__________________________________________________________________________________________________
batch_normalization (BatchNorma (None, 256, 256, 64) 256         conv2d[0][0]                     
__________________________________________________________________________________________________
leaky_re_lu (LeakyReLU)         (None, 256, 256, 64) 0           batch_normalization[0][0]        
__________________________________________________________________________________________________
conv2d_1 (Conv2D)               (None, 256, 256, 64) 36928       leaky_re_lu[0][0]                
__________________________________________________________________________________________________
batch_normalization_1 (BatchNor (None, 256, 256, 64) 256         conv2d_1[0][0]                   
__________________________________________________________________________________________________
max_pooling2d (MaxPooling2D)    (None, 128, 128, 64) 0           batch_normalization_1[0][0]      
__________________________________________________________________________________________________
conv2d_2 (Conv2D)               (None, 128, 128, 32) 18464       max_pooling2d[0][0]              
__________________________________________________________________________________________________
batch_normalization_2 (BatchNor (None, 128, 128, 32) 128         conv2d_2[0][0]                   
__________________________________________________________________________________________________
leaky_re_lu_1 (LeakyReLU)       (None, 128, 128, 32) 0           batch_normalization_2[0][0]      
__________________________________________________________________________________________________
max_pooling2d_1 (MaxPooling2D)  (None, 64, 64, 32)   0           leaky_re_lu_1[0][0]              
__________________________________________________________________________________________________
conv2d_3 (Conv2D)               (None, 64, 64, 16)   4624        max_pooling2d_1[0][0]            
__________________________________________________________________________________________________
batch_normalization_3 (BatchNor (None, 64, 64, 16)   64          conv2d_3[0][0]                   
__________________________________________________________________________________________________
leaky_re_lu_2 (LeakyReLU)       (None, 64, 64, 16)   0           batch_normalization_3[0][0]      
__________________________________________________________________________________________________
max_pooling2d_2 (MaxPooling2D)  (None, 32, 32, 16)   0           leaky_re_lu_2[0][0]              
__________________________________________________________________________________________________
conv2d_transpose (Conv2DTranspo (None, 64, 64, 16)   2320        max_pooling2d_2[0][0]            
__________________________________________________________________________________________________
batch_normalization_4 (BatchNor (None, 64, 64, 16)   64          conv2d_transpose[0][0]           
__________________________________________________________________________________________________
leaky_re_lu_3 (LeakyReLU)       (None, 64, 64, 16)   0           batch_normalization_4[0][0]      
__________________________________________________________________________________________________
conv2d_transpose_1 (Conv2DTrans (None, 128, 128, 32) 4640        leaky_re_lu_3[0][0]              
__________________________________________________________________________________________________
batch_normalization_5 (BatchNor (None, 128, 128, 32) 128         conv2d_transpose_1[0][0]         
__________________________________________________________________________________________________
leaky_re_lu_4 (LeakyReLU)       (None, 128, 128, 32) 0           batch_normalization_5[0][0]      
__________________________________________________________________________________________________
conv2d_4 (Conv2D)               (None, 128, 128, 128 36992       leaky_re_lu_4[0][0]              
__________________________________________________________________________________________________
batch_normalization_6 (BatchNor (None, 128, 128, 128 512         conv2d_4[0][0]                   
…
conv2d_16 (Conv2D)              (None, 128, 128, 128 295040      concatenate_2[0][0]              
__________________________________________________________________________________________________
batch_normalization_21 (BatchNo (None, 128, 128, 128 512         conv2d_16[0][0]                  
__________________________________________________________________________________________________
leaky_re_lu_14 (LeakyReLU)      (None, 128, 128, 128 0           batch_normalization_21[0][0]     
__________________________________________________________________________________________________
conv2d_transpose_6 (Conv2DTrans (None, 128, 128, 64) 9280        leaky_re_lu_2[0][0]              
__________________________________________________________________________________________________
conv2d_17 (Conv2D)              (None, 128, 128, 128 147584      leaky_re_lu_14[0][0]             
__________________________________________________________________________________________________
batch_normalization_24 (BatchNo (None, 128, 128, 64) 256         conv2d_transpose_6[0][0]         
__________________________________________________________________________________________________
batch_normalization_22 (BatchNo (None, 128, 128, 128 512         conv2d_17[0][0]                  
__________________________________________________________________________________________________
leaky_re_lu_16 (LeakyReLU)      (None, 128, 128, 64) 0           batch_normalization_24[0][0]     
__________________________________________________________________________________________________
conv2d_transpose_5 (Conv2DTrans (None, 256, 256, 64) 73792       batch_normalization_22[0][0]     
__________________________________________________________________________________________________
conv2d_transpose_7 (Conv2DTrans (None, 256, 256, 128 73856       leaky_re_lu_16[0][0]             
__________________________________________________________________________________________________
batch_normalization_23 (BatchNo (None, 256, 256, 64) 256         conv2d_transpose_5[0][0]         
__________________________________________________________________________________________________
batch_normalization_25 (BatchNo (None, 256, 256, 128 512         conv2d_transpose_7[0][0]         
__________________________________________________________________________________________________
leaky_re_lu_15 (LeakyReLU)      (None, 256, 256, 64) 0           batch_normalization_23[0][0]     
__________________________________________________________________________________________________
leaky_re_lu_17 (LeakyReLU)      (None, 256, 256, 128 0           batch_normalization_25[0][0]     
__________________________________________________________________________________________________
concatenate_3 (Concatenate)     (None, 256, 256, 192 0           leaky_re_lu_15[0][0]             
…
