{"nodes": [{"op": "null", "name": "input_66", "attrs": {"num_outputs": "1", "num_inputs": "4", "data_layout": "NCHW", "kernel_layout": "OIHW", "hash": "4a7612bf260c4695", "func_name": "tvmgen_default_fused_nn_conv2d_add_add_nn_leaky_relu_6", "out_layout": "", "flatten_data": "0"}, "inputs": []}, {"op": "null", "name": "input_126", "attrs": {"num_outputs": "1", "num_inputs": "4", "data_layout": "NCHW", "kernel_layout": "OIHW", "hash": "30ea7236af4f2f56", "func_name": "tvmgen_default_fused_nn_conv2d_add_add_nn_leaky_relu_10", "out_layout": "", "flatten_data": "0"}, "inputs": []}, {"op": "null", "name": "p48", "inputs": []}, {"op": "null", "name": "p49", "inputs": []}, {"op": "null", "name": "p50", "inputs": []}, {"op": "null", "name": "p51", "inputs": []}, {"op": "tvm_op", "name": "tvmgen_default_fused_nn_conv2d_add_multiply_add_6", "attrs": {"num_outputs": "1", "num_inputs": "5", "data_layout": "NCHW", "kernel_layout": "OIHW", "hash": "8cb240c20c9a61e5", "func_name": "tvmgen_default_fused_nn_conv2d_add_multiply_add_6", "out_layout": "", "flatten_data": "0"}, "inputs": [[0, 0, 0], [2, 0, 0], [3, 0, 0], [4, 0, 0], [5, 0, 0]]}, {"op": "null", "name": "p52", "inputs": []}, {"op": "null", "name": "p53", "inputs": []}, {"op": "null", "name": "p54", "inputs": []}, {"op": "null", "name": "p55", "inputs": []}, {"op": "tvm_op", "name": "tvmgen_default_fused_nn_conv2d_transpose_add_multiply_add_nn_leaky_relu", "attrs": {"num_outputs": "1", "num_inputs": "5", "data_layout": "NCHW", "kernel_layout": "IOHW", "hash": "b3fe5ad0ee408cdb", "func_name": "tvmgen_default_fused_nn_conv2d_transpose_add_multiply_add_nn_leaky_relu", "out_layout": "", "flatten_data": "0"}, "inputs": [[6, 0, 0], [7, 0, 0], [8, 0, 0], [9, 0, 0], [10, 0, 0]]}, {"op": "null", "name": "p92", "inputs": []}, {"op": "null", "name": "p93", "inputs": []}, {"op": "null", "name": "p94", "inputs": []}, {"op": "null", "name": "p95", "inputs": []}, {"op": "tvm_op", "name": "tvmgen_default_fused_nn_conv2d_add_multiply_add_31", "attrs": {"num_outputs": "1", "num_inputs": "5", "data_layout": "NCHW", "kernel_layout": "OIHW", "hash": "efe980a7db7571fe", "func_name": "tvmgen_default_fused_nn_conv2d_add_multiply_add_3", "out_layout": "", "flatten_data": "0"}, "inputs": [[1, 0, 0], [12, 0, 0], [13, 0, 0], [14, 0, 0], [15, 0, 0]]}, {"op": "null", "name": "p96", "inputs": []}, {"op": "null", "name": "p97", "inputs": []}, {"op": "null", "name": "p98", "inputs": []}, {"op": "null", "name": "p99", "inputs": []}, {"op": "tvm_op", "name": "tvmgen_default_fused_nn_conv2d_transpose_add_multiply_add_nn_leaky_relu_4", "attrs": {"num_outputs": "1", "num_inputs": "5", "data_layout": "NCHW", "kernel_layout": "IOHW", "hash": "90265124936940e1", "func_name": "tvmgen_default_fused_nn_conv2d_transpose_add_multiply_add_nn_leaky_relu_4", "out_layout": "", "flatten_data": "0"}, "inputs": [[16, 0, 0], [17, 0, 0], [18, 0, 0], [19, 0, 0], [20, 0, 0]]}, {"op": "tvm_op", "name": "tvmgen_default_fused_concatenate_3", "attrs": {"num_outputs": "1", "num_inputs": "2", "flatten_data": "0", "hash": "43d7b7201cb1af81", "func_name": "tvmgen_default_fused_concatenate_3"}, "inputs": [[21, 0, 0], [11, 0, 0]]}, {"op": "null", "name": "p100", "inputs": []}, {"op": "null", "name": "p101", "inputs": []}, {"op": "null", "name": "p102", "inputs": []}, {"op": "tvm_op", "name": "tvmgen_default_fused_nn_conv2d_add_add_nn_leaky_relu_11", "attrs": {"num_outputs": "1", "num_inputs": "4", "data_layout": "NCHW", "kernel_layout": "OIHW", "hash": "068f6445e3371a4e", "func_name": "tvmgen_default_fused_nn_conv2d_add_add_nn_leaky_relu_11", "out_layout": "", "flatten_data": "0"}, "inputs": [[22, 0, 0], [23, 0, 0], [24, 0, 0], [25, 0, 0]]}, {"op": "null", "name": "p103", "inputs": []}, {"op": "null", "name": "p104", "inputs": []}, {"op": "null", "name": "p105", "inputs": []}, {"op": "tvm_op", "name": "tvmgen_default_fused_nn_conv2d_add_add", "attrs": {"num_outputs": "1", "num_inputs": "4", "data_layout": "NCHW", "kernel_layout": "OIHW", "hash": "103c85ec2e9a1610", "func_name": "tvmgen_default_fused_nn_conv2d_add_add", "out_layout": "", "flatten_data": "0"}, "inputs": [[26, 0, 0], [27, 0, 0], [28, 0, 0], [29, 0, 0]]}, {"op": "null", "name": "p106", "inputs": []}, {"op": "null", "name": "p107", "inputs": []}, {"op": "tvm_op", "name": "tvmgen_default_fused_nn_conv2d_add_sigmoid", "attrs": {"num_outputs": "1", "num_inputs": "3", "data_layout": "NCHW", "kernel_layout": "OIHW", "hash": "f730448a8f07b332", "func_name": "tvmgen_default_fused_nn_conv2d_add_sigmoid", "out_layout": "", "flatten_data": "0"}, "inputs": [[30, 0, 0], [31, 0, 0], [32, 0, 0]]}], "arg_nodes": [0, 1, 2, 3, 4, 5, 7, 8, 9, 10, 12, 13, 14, 15, 17, 18, 19, 20, 23, 24, 25, 27, 28, 29, 31, 32], "heads": [[33, 0, 0]], "attrs": {"dltype": ["list_str", ["float32", "float32", "float32", "float32", "float32", "float32", "float32", "float32", "float32", "float32", "float32", "float32", "float32", "float32", "float32", "float32", "float32", "float32", "float32", "float32", "float32", "float32", "float32", "float32", "float32", "float32", "float32", "float32", "float32", "float32", "float32", "float32", "float32", "float32"]], "device_index": ["list_int", [2, 2, 2, 2, 2, 2, 2, 2, 2, 2, 2, 2, 2, 2, 2, 2, 2, 2, 2, 2, 2, 2, 2, 2, 2, 2, 2, 2, 2, 2, 2, 2, 2, 2]], "storage_id": ["list_int", [46, 4, 54, 55, 56, 57, 4, 58, 59, 60, 61, 46, 99, 100, 101, 102, 62, 103, 104, 105, 106, 4, 62, 107, 108, 109, 4, 110, 111, 112, 62, 113, 114, 115]], "shape": ["list_shape", [[1, 64, 128, 128], [1, 128, 128, 128], [64, 64, 3, 3], [1, 64, 1, 1], [1, 64, 1, 1], [1, 64, 1, 1], [1, 64, 128, 128], [64, 64, 3, 3], [1, 64, 1, 1], [1, 64, 1, 1], [1, 64, 1, 1], [1, 64, 256, 256], [128, 128, 3, 3], [1, 128, 1, 1], [1, 128, 1, 1], [1, 128, 1, 1], [1, 128, 128, 128], [128, 64, 3, 3], [1, 64, 1, 1], [1, 64, 1, 1], [1, 64, 1, 1], [1, 64, 256, 256], [1, 128, 256, 256], [128, 128, 3, 3], [1, 128, 1, 1], [1, 128, 1, 1], [1, 128, 256, 256], [128, 128, 3, 3], [1, 128, 1, 1], [1, 128, 1, 1], [1, 128, 256, 256], [1, 128, 3, 3], [1, 1, 1], [1, 1, 256, 256]]]}, "node_row_ptr": [0, 1, 2, 3, 4, 5, 6, 7, 8, 9, 10, 11, 12, 13, 14, 15, 16, 17, 18, 19, 20, 21, 22, 23, 24, 25, 26, 27, 28, 29, 30, 31, 32, 33, 34], "extra": {"inputs": [66, 126], "outputs": [148]}}