{"nodes": [{"op": "null", "name": "input_0", "inputs": []}, {"op": "null", "name": "p0", "inputs": []}, {"op": "null", "name": "p1", "inputs": []}, {"op": "null", "name": "p2", "inputs": []}, {"op": "tvm_op", "name": "tvmgen_default_fused_nn_conv2d_add_add_nn_leaky_relu", "attrs": {"num_outputs": "1", "num_inputs": "4", "data_layout": "NCHW", "kernel_layout": "OIHW", "hash": "2e70d6195df7b1a3", "func_name": "tvmgen_default_fused_nn_conv2d_add_add_nn_leaky_relu", "out_layout": "", "flatten_data": "0"}, "inputs": [[0, 0, 0], [1, 0, 0], [2, 0, 0], [3, 0, 0]]}, {"op": "null", "name": "p3", "inputs": []}, {"op": "null", "name": "p4", "inputs": []}, {"op": "null", "name": "p5", "inputs": []}, {"op": "null", "name": "p6", "inputs": []}, {"op": "tvm_op", "name": "tvmgen_default_fused_nn_conv2d_add_multiply_add", "attrs": {"num_outputs": "1", "num_inputs": "5", "data_layout": "NCHW", "kernel_layout": "OIHW", "hash": "f14094ce170e4d7e", "func_name": "tvmgen_default_fused_nn_conv2d_add_multiply_add", "out_layout": "", "flatten_data": "0"}, "inputs": [[4, 0, 0], [5, 0, 0], [6, 0, 0], [7, 0, 0], [8, 0, 0]]}, {"op": "tvm_op", "name": "tvmgen_default_fused_nn_max_pool2d", "attrs": {"num_outputs": "1", "out_layout": "", "hash": "5368d86f3206266c", "func_name": "tvmgen_default_fused_nn_max_pool2d", "layout": "NCHW", "flatten_data": "0", "num_inputs": "1"}, "inputs": [[9, 0, 0]]}, {"op": "null", "name": "p7", "inputs": []}, {"op": "null", "name": "p8", "inputs": []}, {"op": "null", "name": "p9", "inputs": []}, {"op": "tvm_op", "name": "tvmgen_default_fused_nn_conv2d_add_add_nn_leaky_relu_1", "attrs": {"num_outputs": "1", "num_inputs": "4", "data_layout": "NCHW", "kernel_layout": "OIHW", "hash": "794d299717bf5337", "func_name": "tvmgen_default_fused_nn_conv2d_add_add_nn_leaky_relu_1", "out_layout": "", "flatten_data": "0"}, "inputs": [[10, 0, 0], [11, 0, 0], [12, 0, 0], [13, 0, 0]]}, {"op": "null", "name": "p10", "inputs": []}, {"op": "null", "name": "p11", "inputs": []}, {"op": "null", "name": "p12", "inputs": []}, {"op": "null", "name": "p13", "inputs": []}, {"op": "tvm_op", "name": "tvmgen_default_fused_nn_conv2d_add_multiply_add_multiply_round_clip_cast", "attrs": {"num_outputs": "1", "num_inputs": "5", "out_layout": "", "kernel_layout": "OIHW", "hash": "2469213505852f4a", "func_name": "tvmgen_default_fused_nn_conv2d_add_multiply_add_multiply_round_clip_cast", "data_layout": "NCHW", "flatten_data": "0"}, "inputs": [[14, 0, 0], [15, 0, 0], [16, 0, 0], [17, 0, 0], [18, 0, 0]]}, {"op": "tvm_op", "name": "tvmgen_default_fused_cast_divide", "attrs": {"num_outputs": "1", "num_inputs": "1", "flatten_data": "0", "hash": "8d9857381559bffe", "func_name": "tvmgen_default_fused_cast_divide"}, "inputs": [[19, 0, 0]]}, {"op": "tvm_op", "name": "tvmgen_default_fused_nn_max_pool2d_1", "attrs": {"num_outputs": "1", "out_layout": "", "hash": "0b8f56d6e185e11a", "func_name": "tvmgen_default_fused_nn_max_pool2d_1", "layout": "NCHW", "flatten_data": "0", "num_inputs": "1"}, "inputs": [[20, 0, 0]]}, {"op": "null", "name": "p14", "inputs": []}, {"op": "null", "name": "p15", "inputs": []}, {"op": "null", "name": "p16", "inputs": []}, {"op": "tvm_op", "name": "tvmgen_default_fused_nn_conv2d_add_add_nn_leaky_relu_2", "attrs": {"num_outputs": "1", "num_inputs": "4", "data_layout": "NCHW", "kernel_layout": "OIHW", "hash": "a35b129c7b6cd35e", "func_name": "tvmgen_default_fused_nn_conv2d_add_add_nn_leaky_relu_2", "out_layout": "", "flatten_data": "0"}, "inputs": [[21, 0, 0], [22, 0, 0], [23, 0, 0], [24, 0, 0]]}, {"op": "null", "name": "p17", "inputs": []}, {"op": "null", "name": "p18", "inputs": []}, {"op": "null", "name": "p19", "inputs": []}, {"op": "null", "name": "p20", "inputs": []}, {"op": "tvm_op", "name": "tvmgen_default_fused_nn_conv2d_add_multiply_add_multiply_round_clip_cast_1", "attrs": {"num_outputs": "1", "num_inputs": "5", "data_layout": "NCHW", "kernel_layout": "OIHW", "hash": "a0ac3590ea32e11c", "func_name": "tvmgen_default_fused_nn_conv2d_add_multiply_add_multiply_round_clip_cast_1", "out_layout": "", "flatten_data": "0"}, "inputs": [[25, 0, 0], [26, 0, 0], [27, 0, 0], [28, 0, 0], [29, 0, 0]]}, {"op": "tvm_op", "name": "tvmgen_default_fused_cast_divide_1", "attrs": {"num_outputs": "1", "num_inputs": "1", "flatten_data": "0", "hash": "2671da4b32d0b376", "func_name": "tvmgen_default_fused_cast_divide_1"}, "inputs": [[30, 0, 0]]}, {"op": "tvm_op", "name": "tvmgen_default_fused_nn_max_pool2d_2", "attrs": {"num_outputs": "1", "out_layout": "", "hash": "006aac33b2422393", "func_name": "tvmgen_default_fused_nn_max_pool2d_2", "layout": "NCHW", "flatten_data": "0", "num_inputs": "1"}, "inputs": [[31, 0, 0]]}, {"op": "null", "name": "p21", "inputs": []}, {"op": "null", "name": "p22", "inputs": []}, {"op": "null", "name": "p23", "inputs": []}, {"op": "tvm_op", "name": "tvmgen_default_fused_nn_conv2d_add_add_nn_leaky_relu_3", "attrs": {"num_outputs": "1", "num_inputs": "4", "data_layout": "NCHW", "kernel_layout": "OIHW", "hash": "b589678ba605f85d", "func_name": "tvmgen_default_fused_nn_conv2d_add_add_nn_leaky_relu_3", "out_layout": "", "flatten_data": "0"}, "inputs": [[32, 0, 0], [33, 0, 0], [34, 0, 0], [35, 0, 0]]}, {"op": "null", "name": "p24", "inputs": []}, {"op": "null", "name": "p25", "inputs": []}, {"op": "null", "name": "p26", "inputs": []}, {"op": "null", "name": "p27", "inputs": []}, {"op": "tvm_op", "name": "tvmgen_default_fused_nn_conv2d_add_multiply_add_multiply_round_clip_cast_2", "attrs": {"num_outputs": "1", "num_inputs": "5", "data_layout": "NCHW", "kernel_layout": "OIHW", "hash": "cb797ac78982211b", "func_name": "tvmgen_default_fused_nn_conv2d_add_multiply_add_multiply_round_clip_cast_2", "out_layout": "", "flatten_data": "0"}, "inputs": [[36, 0, 0], [37, 0, 0], [38, 0, 0], [39, 0, 0], [40, 0, 0]]}, {"op": "tvm_op", "name": "tvmgen_default_fused_cast_divide_2", "attrs": {"num_outputs": "1", "num_inputs": "1", "flatten_data": "0", "hash": "61936ac1605612d0", "func_name": "tvmgen_default_fused_cast_divide_2"}, "inputs": [[41, 0, 0]]}, {"op": "tvm_op", "name": "tvmgen_default_fused_nn_max_pool2d_3", "attrs": {"num_outputs": "1", "out_layout": "", "hash": "90294f5c278e8890", "func_name": "tvmgen_default_fused_nn_max_pool2d_3", "layout": "NCHW", "flatten_data": "0", "num_inputs": "1"}, "inputs": [[42, 0, 0]]}, {"op": "null", "name": "p28", "inputs": []}, {"op": "null", "name": "p29", "inputs": []}, {"op": "null", "name": "p30", "inputs": []}, {"op": "tvm_op", "name": "tvmgen_default_fused_nn_conv2d_add_add_nn_leaky_relu_4", "attrs": {"num_outputs": "1", "num_inputs": "4", "data_layout": "NCHW", "kernel_layout": "OIHW", "hash": "a51899339a3fc351", "func_name": "tvmgen_default_fused_nn_conv2d_add_add_nn_leaky_relu_4", "out_layout": "", "flatten_data": "0"}, "inputs": [[43, 0, 0], [44, 0, 0], [45, 0, 0], [46, 0, 0]]}, {"op": "null", "name": "p31", "inputs": []}, {"op": "null", "name": "p32", "inputs": []}, {"op": "null", "name": "p33", "inputs": []}, {"op": "null", "name": "p34", "inputs": []}, {"op": "tvm_op", "name": "tvmgen_default_fused_nn_conv2d_add_multiply_add_multiply_round_clip_cast_3", "attrs": {"num_outputs": "1", "num_inputs": "5", "data_layout": "NCHW", "kernel_layout": "OIHW", "hash": "dac70adb50319a60", "func_name": "tvmgen_default_fused_nn_conv2d_add_multiply_add_multiply_round_clip_cast_3", "out_layout": "", "flatten_data": "0"}, "inputs": [[47, 0, 0], [48, 0, 0], [49, 0, 0], [50, 0, 0], [51, 0, 0]]}, {"op": "tvm_op", "name": "tvmgen_default_fused_cast_divide_3", "attrs": {"num_outputs": "1", "num_inputs": "1", "flatten_data": "0", "hash": "0615b8b7451279fa", "func_name": "tvmgen_default_fused_cast_divide_3"}, "inputs": [[52, 0, 0]]}, {"op": "tvm_op", "name": "tvmgen_default_fused_nn_max_pool2d_4", "attrs": {"num_outputs": "1", "out_layout": "", "hash": "6bc537366576f9ac", "func_name": "tvmgen_default_fused_nn_max_pool2d_4", "layout": "NCHW", "flatten_data": "0", "num_inputs": "1"}, "inputs": [[53, 0, 0]]}, {"op": "null", "name": "p35", "inputs": []}, {"op": "null", "name": "p36", "inputs": []}, {"op": "null", "name": "p37", "inputs": []}, {"op": "tvm_op", "name": "tvmgen_default_fused_nn_conv2d_add_add_nn_leaky_relu_5", "attrs": {"num_outputs": "1", "num_inputs": "4", "data_layout": "NCHW", "kernel_layout": "OIHW", "hash": "0d40c4a8e2693b9b", "func_name": "tvmgen_default_fused_nn_conv2d_add_add_nn_leaky_relu_5", "out_layout": "", "flatten_data": "0"}, "inputs": [[54, 0, 0], [55, 0, 0], [56, 0, 0], [57, 0, 0]]}, {"op": "null", "name": "p38", "inputs": []}, {"op": "null", "name": "p39", "inputs": []}, {"op": "null", "name": "p40", "inputs": []}, {"op": "null", "name": "p41", "inputs": []}, {"op": "tvm_op", "name": "tvmgen_default_fused_nn_conv2d_add_multiply_add_1", "attrs": {"num_outputs": "1", "num_inputs": "5", "data_layout": "NCHW", "kernel_layout": "OIHW", "hash": "0ec8ea53323afe9e", "func_name": "tvmgen_default_fused_nn_conv2d_add_multiply_add_1", "out_layout": "", "flatten_data": "0"}, "inputs": [[58, 0, 0], [59, 0, 0], [60, 0, 0], [61, 0, 0], [62, 0, 0]]}, {"op": "null", "name": "p42", "inputs": []}, {"op": "null", "name": "p43", "inputs": []}, {"op": "null", "name": "p44", "inputs": []}, {"op": "null", "name": "p45", "inputs": []}, {"op": "tvm_op", "name": "tvmgen_default_fused_nn_conv2d_transpose_add_multiply_add_nn_leaky_relu", "attrs": {"num_outputs": "1", "num_inputs": "5", "data_layout": "NCHW", "kernel_layout": "IOHW", "hash": "bae00022c93d6498", "func_name": "tvmgen_default_fused_nn_conv2d_transpose_add_multiply_add_nn_leaky_relu", "out_layout": "", "flatten_data": "0"}, "inputs": [[63, 0, 0], [64, 0, 0], [65, 0, 0], [66, 0, 0], [67, 0, 0]]}, {"op": "tvm_op", "name": "tvmgen_default_fused_concatenate_multiply_round_clip_cast", "attrs": {"num_outputs": "1", "num_inputs": "2", "flatten_data": "0", "hash": "45ae86297e22192a", "func_name": "tvmgen_default_fused_concatenate_multiply_round_clip_cast"}, "inputs": [[68, 0, 0], [53, 0, 0]]}, {"op": "tvm_op", "name": "tvmgen_default_fused_cast_divide_4", "attrs": {"num_outputs": "1", "num_inputs": "1", "flatten_data": "0", "hash": "420693980bab160a", "func_name": "tvmgen_default_fused_cast_divide_4"}, "inputs": [[69, 0, 0]]}, {"op": "null", "name": "p46", "inputs": []}, {"op": "null", "name": "p47", "inputs": []}, {"op": "null", "name": "p48", "inputs": []}, {"op": "tvm_op", "name": "tvmgen_default_fused_nn_conv2d_add_add_nn_leaky_relu_6", "attrs": {"num_outputs": "1", "num_inputs": "4", "data_layout": "NCHW", "kernel_layout": "OIHW", "hash": "66a7bb62e36af87d", "func_name": "tvmgen_default_fused_nn_conv2d_add_add_nn_leaky_relu_6", "out_layout": "", "flatten_data": "0"}, "inputs": [[70, 0, 0], [71, 0, 0], [72, 0, 0], [73, 0, 0]]}, {"op": "null", "name": "p49", "inputs": []}, {"op": "null", "name": "p50", "inputs": []}, {"op": "null", "name": "p51", "inputs": []}, {"op": "null", "name": "p52", "inputs": []}, {"op": "tvm_op", "name": "tvmgen_default_fused_nn_conv2d_add_multiply_add_2", "attrs": {"num_outputs": "1", "num_inputs": "5", "data_layout": "NCHW", "kernel_layout": "OIHW", "hash": "a30d144553788275", "func_name": "tvmgen_default_fused_nn_conv2d_add_multiply_add_2", "out_layout": "", "flatten_data": "0"}, "inputs": [[74, 0, 0], [75, 0, 0], [76, 0, 0], [77, 0, 0], [78, 0, 0]]}, {"op": "null", "name": "p53", "inputs": []}, {"op": "null", "name": "p54", "inputs": []}, {"op": "null", "name": "p55", "inputs": []}, {"op": "null", "name": "p56", "inputs": []}, {"op": "tvm_op", "name": "tvmgen_default_fused_nn_conv2d_transpose_add_multiply_add_nn_leaky_relu_1", "attrs": {"num_outputs": "1", "num_inputs": "5", "data_layout": "NCHW", "kernel_layout": "IOHW", "hash": "eb2adb736af11d56", "func_name": "tvmgen_default_fused_nn_conv2d_transpose_add_multiply_add_nn_leaky_relu_1", "out_layout": "", "flatten_data": "0"}, "inputs": [[79, 0, 0], [80, 0, 0], [81, 0, 0], [82, 0, 0], [83, 0, 0]]}, {"op": "tvm_op", "name": "tvmgen_default_fused_concatenate_multiply_round_clip_cast_1", "attrs": {"num_outputs": "1", "num_inputs": "2", "flatten_data": "0", "hash": "aaa580d06e063b87", "func_name": "tvmgen_default_fused_concatenate_multiply_round_clip_cast_1"}, "inputs": [[84, 0, 0], [42, 0, 0]]}, {"op": "tvm_op", "name": "tvmgen_default_fused_cast_divide_5", "attrs": {"num_outputs": "1", "num_inputs": "1", "flatten_data": "0", "hash": "eef8dacc5d543f0d", "func_name": "tvmgen_default_fused_cast_divide_5"}, "inputs": [[85, 0, 0]]}, {"op": "null", "name": "p57", "inputs": []}, {"op": "null", "name": "p58", "inputs": []}, {"op": "null", "name": "p59", "inputs": []}, {"op": "tvm_op", "name": "tvmgen_default_fused_nn_conv2d_add_add_nn_leaky_relu_7", "attrs": {"num_outputs": "1", "num_inputs": "4", "data_layout": "NCHW", "kernel_layout": "OIHW", "hash": "92a55bafbe111770", "func_name": "tvmgen_default_fused_nn_conv2d_add_add_nn_leaky_relu_7", "out_layout": "", "flatten_data": "0"}, "inputs": [[86, 0, 0], [87, 0, 0], [88, 0, 0], [89, 0, 0]]}, {"op": "null", "name": "p60", "inputs": []}, {"op": "null", "name": "p61", "inputs": []}, {"op": "null", "name": "p62", "inputs": []}, {"op": "null", "name": "p63", "inputs": []}, {"op": "tvm_op", "name": "tvmgen_default_fused_nn_conv2d_add_multiply_add_3", "attrs": {"num_outputs": "1", "num_inputs": "5", "data_layout": "NCHW", "kernel_layout": "OIHW", "hash": "1e46325e086a6e13", "func_name": "tvmgen_default_fused_nn_conv2d_add_multiply_add_3", "out_layout": "", "flatten_data": "0"}, "inputs": [[90, 0, 0], [91, 0, 0], [92, 0, 0], [93, 0, 0], [94, 0, 0]]}, {"op": "null", "name": "p64", "inputs": []}, {"op": "null", "name": "p65", "inputs": []}, {"op": "null", "name": "p66", "inputs": []}, {"op": "null", "name": "p67", "inputs": []}, {"op": "tvm_op", "name": "tvmgen_default_fused_nn_conv2d_transpose_add_multiply_add_nn_leaky_relu_2", "attrs": {"num_outputs": "1", "num_inputs": "5", "data_layout": "NCHW", "kernel_layout": "IOHW", "hash": "bdc1a283298a5e33", "func_name": "tvmgen_default_fused_nn_conv2d_transpose_add_multiply_add_nn_leaky_relu_2", "out_layout": "", "flatten_data": "0"}, "inputs": [[95, 0, 0], [96, 0, 0], [97, 0, 0], [98, 0, 0], [99, 0, 0]]}, {"op": "tvm_op", "name": "tvmgen_default_fused_concatenate_multiply_round_clip_cast_2", "attrs": {"num_outputs": "1", "num_inputs": "2", "flatten_data": "0", "hash": "d52f711169a71199", "func_name": "tvmgen_default_fused_concatenate_multiply_round_clip_cast_2"}, "inputs": [[100, 0, 0], [31, 0, 0]]}, {"op": "tvm_op", "name": "tvmgen_default_fused_cast_divide_6", "attrs": {"num_outputs": "1", "num_inputs": "1", "flatten_data": "0", "hash": "6bd59b3449230bf3", "func_name": "tvmgen_default_fused_cast_divide_6"}, "inputs": [[101, 0, 0]]}, {"op": "null", "name": "p68", "inputs": []}, {"op": "null", "name": "p69", "inputs": []}, {"op": "null", "name": "p70", "inputs": []}, {"op": "tvm_op", "name": "tvmgen_default_fused_nn_conv2d_add_add_nn_leaky_relu_8", "attrs": {"num_outputs": "1", "num_inputs": "4", "data_layout": "NCHW", "kernel_layout": "OIHW", "hash": "a525390ee0d423d5", "func_name": "tvmgen_default_fused_nn_conv2d_add_add_nn_leaky_relu_8", "out_layout": "", "flatten_data": "0"}, "inputs": [[102, 0, 0], [103, 0, 0], [104, 0, 0], [105, 0, 0]]}, {"op": "null", "name": "p71", "inputs": []}, {"op": "null", "name": "p72", "inputs": []}, {"op": "null", "name": "p73", "inputs": []}, {"op": "null", "name": "p74", "inputs": []}, {"op": "tvm_op", "name": "tvmgen_default_fused_nn_conv2d_add_multiply_add_4", "attrs": {"num_outputs": "1", "num_inputs": "5", "data_layout": "NCHW", "kernel_layout": "OIHW", "hash": "c09ba6cc46ab4e84", "func_name": "tvmgen_default_fused_nn_conv2d_add_multiply_add_4", "out_layout": "", "flatten_data": "0"}, "inputs": [[106, 0, 0], [107, 0, 0], [108, 0, 0], [109, 0, 0], [110, 0, 0]]}, {"op": "null", "name": "p75", "inputs": []}, {"op": "null", "name": "p76", "inputs": []}, {"op": "null", "name": "p77", "inputs": []}, {"op": "null", "name": "p78", "inputs": []}, {"op": "tvm_op", "name": "tvmgen_default_fused_nn_conv2d_transpose_add_multiply_add_nn_leaky_relu_3", "attrs": {"num_outputs": "1", "num_inputs": "5", "data_layout": "NCHW", "kernel_layout": "IOHW", "hash": "c1464e804198c7fb", "func_name": "tvmgen_default_fused_nn_conv2d_transpose_add_multiply_add_nn_leaky_relu_3", "out_layout": "", "flatten_data": "0"}, "inputs": [[111, 0, 0], [112, 0, 0], [113, 0, 0], [114, 0, 0], [115, 0, 0]]}, {"op": "tvm_op", "name": "tvmgen_default_fused_concatenate_multiply_round_clip_cast_3", "attrs": {"num_outputs": "1", "num_inputs": "2", "flatten_data": "0", "hash": "819b4f1448703a97", "func_name": "tvmgen_default_fused_concatenate_multiply_round_clip_cast_3"}, "inputs": [[116, 0, 0], [20, 0, 0]]}, {"op": "tvm_op", "name": "tvmgen_default_fused_cast_divide_7", "attrs": {"num_outputs": "1", "num_inputs": "1", "flatten_data": "0", "hash": "264e358d1dbf32bc", "func_name": "tvmgen_default_fused_cast_divide_7"}, "inputs": [[117, 0, 0]]}, {"op": "null", "name": "p79", "inputs": []}, {"op": "null", "name": "p80", "inputs": []}, {"op": "null", "name": "p81", "inputs": []}, {"op": "tvm_op", "name": "tvmgen_default_fused_nn_conv2d_add_add_nn_leaky_relu_11", "attrs": {"num_outputs": "1", "num_inputs": "4", "data_layout": "NCHW", "kernel_layout": "OIHW", "hash": "794d299717bf5337", "func_name": "tvmgen_default_fused_nn_conv2d_add_add_nn_leaky_relu_1", "out_layout": "", "flatten_data": "0"}, "inputs": [[118, 0, 0], [119, 0, 0], [120, 0, 0], [121, 0, 0]]}, {"op": "null", "name": "p82", "inputs": []}, {"op": "null", "name": "p83", "inputs": []}, {"op": "null", "name": "p84", "inputs": []}, {"op": "null", "name": "p85", "inputs": []}, {"op": "tvm_op", "name": "tvmgen_default_fused_nn_conv2d_add_multiply_add_5", "attrs": {"num_outputs": "1", "num_inputs": "5", "data_layout": "NCHW", "kernel_layout": "OIHW", "hash": "2151d35501e1be7a", "func_name": "tvmgen_default_fused_nn_conv2d_add_multiply_add_5", "out_layout": "", "flatten_data": "0"}, "inputs": [[122, 0, 0], [123, 0, 0], [124, 0, 0], [125, 0, 0], [126, 0, 0]]}, {"op": "null", "name": "p86", "inputs": []}, {"op": "null", "name": "p87", "inputs": []}, {"op": "null", "name": "p88", "inputs": []}, {"op": "tvm_op", "name": "tvmgen_default_fused_nn_conv2d_transpose_add_add_nn_leaky_relu", "attrs": {"num_outputs": "1", "num_inputs": "4", "data_layout": "NCHW", "kernel_layout": "IOHW", "hash": "a29b9c848576bb1d", "func_name": "tvmgen_default_fused_nn_conv2d_transpose_add_add_nn_leaky_relu", "out_layout": "", "flatten_data": "0"}, "inputs": [[127, 0, 0], [128, 0, 0], [129, 0, 0], [130, 0, 0]]}, {"op": "null", "name": "p89", "inputs": []}, {"op": "null", "name": "p90", "inputs": []}, {"op": "tvm_op", "name": "tvmgen_default_fused_nn_conv2d_add_sigmoid", "attrs": {"num_outputs": "1", "num_inputs": "3", "data_layout": "NCHW", "kernel_layout": "OIHW", "hash": "576913726b3cda3d", "func_name": "tvmgen_default_fused_nn_conv2d_add_sigmoid", "out_layout": "", "flatten_data": "0"}, "inputs": [[131, 0, 0], [132, 0, 0], [133, 0, 0]]}], "arg_nodes": [0, 1, 2, 3, 5, 6, 7, 8, 11, 12, 13, 15, 16, 17, 18, 22, 23, 24, 26, 27, 28, 29, 33, 34, 35, 37, 38, 39, 40, 44, 45, 46, 48, 49, 50, 51, 55, 56, 57, 59, 60, 61, 62, 64, 65, 66, 67, 71, 72, 73, 75, 76, 77, 78, 80, 81, 82, 83, 87, 88, 89, 91, 92, 93, 94, 96, 97, 98, 99, 103, 104, 105, 107, 108, 109, 110, 112, 113, 114, 115, 119, 120, 121, 123, 124, 125, 126, 128, 129, 130, 132, 133], "heads": [[134, 0, 0]], "attrs": {"dltype": ["list_str", ["float32", "float32", "float32", "float32", "float32", "float32", "float32", "float32", "float32", "float32", "float32", "float32", "float32", "float32", "float32", "float32", "float32", "float32", "float32", "int8", "float32", "float32", "float32", "float32", "float32", "float32", "float32", "float32", "float32", "float32", "int8", "float32", "float32", "float32", "float32", "float32", "float32", "float32", "float32", "float32", "float32", "int8", "float32", "float32", "float32", "float32", "float32", "float32", "float32", "float32", "float32", "float32", "int8", "float32", "float32", "float32", "float32", "float32", "float32", "float32", "float32", "float32", "float32", "float32", "float32", "float32", "float32", "float32", "float32", "int8", "float32", "float32", "float32", "float32", "float32", "float32", "float32", "float32", "float32", "float32", "float32", "float32", "float32", "float32", "float32", "int8", "float32", "float32", "float32", "float32", "float32", "float32", "float32", "float32", "float32", "float32", "float32", "float32", "float32", "float32", "float32", "int8", "float32", "float32", "float32", "float32", "float32", "float32", "float32", "float32", "float32", "float32", "float32", "float32", "float32", "float32", "float32", "int8", "float32", "float32", "float32", "float32", "float32", "float32", "float32", "float32", "float32", "float32", "float32", "float32", "float32", "float32", "float32", "float32", "float32"]], "device_index": ["list_int", [2, 2, 2, 2, 2, 2, 2, 2, 2, 2, 2, 2, 2, 2, 2, 2, 2, 2, 2, 2, 2, 2, 2, 2, 2, 2, 2, 2, 2, 2, 2, 2, 2, 2, 2, 2, 2, 2, 2, 2, 2, 2, 2, 2, 2, 2, 2, 2, 2, 2, 2, 2, 2, 2, 2, 2, 2, 2, 2, 2, 2, 2, 2, 2, 2, 2, 2, 2, 2, 2, 2, 2, 2, 2, 2, 2, 2, 2, 2, 2, 2, 2, 2, 2, 2, 2, 2, 2, 2, 2, 2, 2, 2, 2, 2, 2, 2, 2, 2, 2, 2, 2, 2, 2, 2, 2, 2, 2, 2, 2, 2, 2, 2, 2, 2, 2, 2, 2, 2, 2, 2, 2, 2, 2, 2, 2, 2, 2, 2, 2, 2, 2, 2, 2, 2]], "storage_id": ["list_int", [0, 1, 2, 3, 4, 5, 6, 7, 8, 9, 4, 10, 11, 12, 9, 13, 14, 15, 16, 17, 4, 18, 19, 20, 21, 9, 22, 23, 24, 25, 18, 9, 26, 27, 28, 29, 30, 31, 32, 33, 34, 26, 30, 35, 36, 37, 38, 39, 40, 41, 42, 43, 35, 39, 44, 45, 46, 47, 48, 49, 50, 51, 52, 44, 53, 54, 55, 56, 48, 44, 39, 57, 58, 59, 48, 60, 61, 62, 63, 39, 64, 65, 66, 67, 48, 39, 30, 68, 69, 70, 48, 71, 72, 73, 74, 39, 75, 76, 77, 78, 30, 48, 9, 79, 80, 81, 30, 82, 83, 84, 85, 9, 86, 87, 88, 89, 30, 9, 4, 90, 91, 92, 30, 93, 94, 95, 96, 9, 97, 98, 99, 4, 100, 101, 39]], "shape": ["list_shape", [[1, 3, 256, 256], [64, 3, 3, 3], [1, 64, 1, 1], [1, 64, 1, 1], [1, 64, 256, 256], [64, 64, 3, 3], [1, 64, 1, 1], [1, 64, 1, 1], [1, 64, 1, 1], [1, 64, 256, 256], [1, 64, 128, 128], [32, 64, 3, 3], [1, 32, 1, 1], [1, 32, 1, 1], [1, 32, 128, 128], [32, 32, 3, 3], [1, 32, 1, 1], [1, 32, 1, 1], [1, 32, 1, 1], [1, 32, 128, 128], [1, 32, 128, 128], [1, 32, 64, 64], [64, 32, 3, 3], [1, 64, 1, 1], [1, 64, 1, 1], [1, 64, 64, 64], [64, 64, 3, 3], [1, 64, 1, 1], [1, 64, 1, 1], [1, 64, 1, 1], [1, 64, 64, 64], [1, 64, 64, 64], [1, 64, 32, 32], [128, 64, 3, 3], [1, 128, 1, 1], [1, 128, 1, 1], [1, 128, 32, 32], [128, 128, 3, 3], [1, 128, 1, 1], [1, 128, 1, 1], [1, 128, 1, 1], [1, 128, 32, 32], [1, 128, 32, 32], [1, 128, 16, 16], [256, 128, 3, 3], [1, 256, 1, 1], [1, 256, 1, 1], [1, 256, 16, 16], [256, 256, 3, 3], [1, 256, 1, 1], [1, 256, 1, 1], [1, 256, 1, 1], [1, 256, 16, 16], [1, 256, 16, 16], [1, 256, 8, 8], [512, 256, 3, 3], [1, 512, 1, 1], [1, 512, 1, 1], [1, 512, 8, 8], [512, 512, 3, 3], [1, 512, 1, 1], [1, 512, 1, 1], [1, 512, 1, 1], [1, 512, 8, 8], [512, 256, 3, 3], [1, 256, 1, 1], [1, 256, 1, 1], [1, 256, 1, 1], [1, 256, 16, 16], [1, 512, 16, 16], [1, 512, 16, 16], [256, 512, 3, 3], [1, 256, 1, 1], [1, 256, 1, 1], [1, 256, 16, 16], [256, 256, 3, 3], [1, 256, 1, 1], [1, 256, 1, 1], [1, 256, 1, 1], [1, 256, 16, 16], [256, 128, 3, 3], [1, 128, 1, 1], [1, 128, 1, 1], [1, 128, 1, 1], [1, 128, 32, 32], [1, 256, 32, 32], [1, 256, 32, 32], [128, 256, 3, 3], [1, 128, 1, 1], [1, 128, 1, 1], [1, 128, 32, 32], [128, 128, 3, 3], [1, 128, 1, 1], [1, 128, 1, 1], [1, 128, 1, 1], [1, 128, 32, 32], [128, 64, 3, 3], [1, 64, 1, 1], [1, 64, 1, 1], [1, 64, 1, 1], [1, 64, 64, 64], [1, 128, 64, 64], [1, 128, 64, 64], [64, 128, 3, 3], [1, 64, 1, 1], [1, 64, 1, 1], [1, 64, 64, 64], [64, 64, 3, 3], [1, 64, 1, 1], [1, 64, 1, 1], [1, 64, 1, 1], [1, 64, 64, 64], [64, 32, 3, 3], [1, 32, 1, 1], [1, 32, 1, 1], [1, 32, 1, 1], [1, 32, 128, 128], [1, 64, 128, 128], [1, 64, 128, 128], [32, 64, 3, 3], [1, 32, 1, 1], [1, 32, 1, 1], [1, 32, 128, 128], [32, 32, 3, 3], [1, 32, 1, 1], [1, 32, 1, 1], [1, 32, 1, 1], [1, 32, 128, 128], [32, 32, 3, 3], [1, 32, 1, 1], [1, 32, 1, 1], [1, 32, 256, 256], [1, 32, 3, 3], [1, 1, 1], [1, 1, 256, 256]]]}, "node_row_ptr": [0, 1, 2, 3, 4, 5, 6, 7, 8, 9, 10, 11, 12, 13, 14, 15, 16, 17, 18, 19, 20, 21, 22, 23, 24, 25, 26, 27, 28, 29, 30, 31, 32, 33, 34, 35, 36, 37, 38, 39, 40, 41, 42, 43, 44, 45, 46, 47, 48, 49, 50, 51, 52, 53, 54, 55, 56, 57, 58, 59, 60, 61, 62, 63, 64, 65, 66, 67, 68, 69, 70, 71, 72, 73, 74, 75, 76, 77, 78, 79, 80, 81, 82, 83, 84, 85, 86, 87, 88, 89, 90, 91, 92, 93, 94, 95, 96, 97, 98, 99, 100, 101, 102, 103, 104, 105, 106, 107, 108, 109, 110, 111, 112, 113, 114, 115, 116, 117, 118, 119, 120, 121, 122, 123, 124, 125, 126, 127, 128, 129, 130, 131, 132, 133, 134, 135], "extra": {"inputs": [0], "outputs": [134]}}