{"nodes": [{"op": "null", "name": "input_0", "inputs": []}, {"op": "null", "name": "p0", "inputs": []}, {"op": "null", "name": "p1", "inputs": []}, {"op": "null", "name": "p2", "inputs": []}, {"op": "tvm_op", "name": "tvmgen_default_fused_nn_conv2d_add_add_nn_leaky_relu", "attrs": {"num_outputs": "1", "num_inputs": "4", "data_layout": "NCHW", "kernel_layout": "OIHW", "hash": "2e70d6195df7b1a3", "func_name": "tvmgen_default_fused_nn_conv2d_add_add_nn_leaky_relu", "out_layout": "", "flatten_data": "0"}, "inputs": [[0, 0, 0], [1, 0, 0], [2, 0, 0], [3, 0, 0]]}, {"op": "null", "name": "p3", "inputs": []}, {"op": "null", "name": "p4", "inputs": []}, {"op": "null", "name": "p5", "inputs": []}, {"op": "null", "name": "p6", "inputs": []}, {"op": "tvm_op", "name": "tvmgen_default_fused_nn_conv2d_add_multiply_add", "attrs": {"num_outputs": "1", "num_inputs": "5", "data_layout": "NCHW", "kernel_layout": "OIHW", "hash": "f14094ce170e4d7e", "func_name": "tvmgen_default_fused_nn_conv2d_add_multiply_add", "out_layout": "", "flatten_data": "0"}, "inputs": [[4, 0, 0], [5, 0, 0], [6, 0, 0], [7, 0, 0], [8, 0, 0]]}, {"op": "tvm_op", "name": "tvmgen_default_fused_nn_max_pool2d", "attrs": {"num_outputs": "1", "out_layout": "", "hash": "5368d86f3206266c", "func_name": "tvmgen_default_fused_nn_max_pool2d", "layout": "NCHW", "flatten_data": "0", "num_inputs": "1"}, "inputs": [[9, 0, 0]]}, {"op": "null", "name": "p7", "inputs": []}, {"op": "null", "name": "p8", "inputs": []}, {"op": "null", "name": "p9", "inputs": []}, {"op": "null", "name": "p10", "inputs": []}, {"op": "tvm_op", "name": "tvmgen_default_fused_nn_conv2d_add_multiply_add_nn_leaky_relu", "attrs": {"num_outputs": "1", "num_inputs": "5", "data_layout": "NCHW", "kernel_layout": "OIHW", "hash": "24d2e0290102969f", "func_name": "tvmgen_default_fused_nn_conv2d_add_multiply_add_nn_leaky_relu", "out_layout": "", "flatten_data": "0"}, "inputs": [[10, 0, 0], [11, 0, 0], [12, 0, 0], [13, 0, 0], [14, 0, 0]]}, {"op": "tvm_op", "name": "tvmgen_default_fused_nn_max_pool2d_1", "attrs": {"num_outputs": "1", "out_layout": "", "hash": "0b8f56d6e185e11a", "func_name": "tvmgen_default_fused_nn_max_pool2d_1", "layout": "NCHW", "flatten_data": "0", "num_inputs": "1"}, "inputs": [[15, 0, 0]]}, {"op": "null", "name": "p35", "inputs": []}, {"op": "null", "name": "p36", "inputs": []}, {"op": "null", "name": "p37", "inputs": []}, {"op": "null", "name": "p38", "inputs": []}, {"op": "tvm_op", "name": "tvmgen_default_fused_nn_conv2d_transpose_add_multiply_add_nn_leaky_relu", "attrs": {"num_outputs": "1", "num_inputs": "5", "data_layout": "NCHW", "kernel_layout": "IOHW", "hash": "89512a9170d0e454", "func_name": "tvmgen_default_fused_nn_conv2d_transpose_add_multiply_add_nn_leaky_relu", "out_layout": "", "flatten_data": "0"}, "inputs": [[15, 0, 0], [17, 0, 0], [18, 0, 0], [19, 0, 0], [20, 0, 0]]}], "arg_nodes": [0, 1, 2, 3, 5, 6, 7, 8, 11, 12, 13, 14, 17, 18, 19, 20], "heads": [[16, 0, 0], [21, 0, 0]], "attrs": {"dltype": ["list_str", ["float32", "float32", "float32", "float32", "float32", "float32", "float32", "float32", "float32", "float32", "float32", "float32", "float32", "float32", "float32", "float32", "float32", "float32", "float32", "float32", "float32", "float32"]], "device_index": ["list_int", [2, 2, 2, 2, 2, 2, 2, 2, 2, 2, 2, 2, 2, 2, 2, 2, 2, 2, 2, 2, 2, 2]], "storage_id": ["list_int", [0, 1, 2, 3, 4, 5, 6, 7, 8, 9, 4, 10, 11, 12, 13, 9, 14, 41, 42, 43, 44, 36]], "shape": ["list_shape", [[1, 3, 256, 256], [64, 3, 3, 3], [1, 64, 1, 1], [1, 64, 1, 1], [1, 64, 256, 256], [64, 64, 3, 3], [1, 64, 1, 1], [1, 64, 1, 1], [1, 64, 1, 1], [1, 64, 256, 256], [1, 64, 128, 128], [32, 64, 3, 3], [1, 32, 1, 1], [1, 32, 1, 1], [1, 32, 1, 1], [1, 32, 128, 128], [1, 32, 64, 64], [32, 64, 3, 3], [1, 64, 1, 1], [1, 64, 1, 1], [1, 64, 1, 1], [1, 64, 256, 256]]]}, "node_row_ptr": [0, 1, 2, 3, 4, 5, 6, 7, 8, 9, 10, 11, 12, 13, 14, 15, 16, 17, 18, 19, 20, 21, 22], "extra": {"inputs": [0], "outputs": [16, 54]}}