{"nodes": [{"op": "null", "name": "input_38", "attrs": {"num_outputs": "1", "num_inputs": "5", "data_layout": "NCHW", "kernel_layout": "OIHW", "hash": "a0ac3590ea32e11c", "func_name": "tvmgen_default_fused_nn_conv2d_add_multiply_add_multiply_round_clip_cast_1", "out_layout": "", "flatten_data": "0"}, "inputs": []}, {"op": "tvm_op", "name": "tvmgen_default_fused_cast_divide_41", "attrs": {"num_outputs": "1", "num_inputs": "1", "flatten_data": "0", "hash": "2671da4b32d0b376", "func_name": "tvmgen_default_fused_cast_divide_4"}, "inputs": [[0, 0, 0]]}, {"op": "tvm_op", "name": "tvmgen_default_fused_nn_max_pool2d_multiply_round_clip_cast_2", "attrs": {"num_outputs": "1", "out_layout": "", "hash": "a43d2e41b7deb3a0", "func_name": "tvmgen_default_fused_nn_max_pool2d_multiply_round_clip_cast_2", "layout": "NCHW", "flatten_data": "0", "num_inputs": "1"}, "inputs": [[1, 0, 0]]}, {"op": "tvm_op", "name": "tvmgen_default_fused_cast_divide_5", "attrs": {"num_outputs": "1", "num_inputs": "1", "flatten_data": "0", "hash": "b453805ab30bcbb7", "func_name": "tvmgen_default_fused_cast_divide_5"}, "inputs": [[2, 0, 0]]}, {"op": "null", "name": "p24", "inputs": []}, {"op": "null", "name": "p25", "inputs": []}, {"op": "null", "name": "p26", "inputs": []}, {"op": "null", "name": "p27", "inputs": []}, {"op": "tvm_op", "name": "tvmgen_default_fused_nn_conv2d_add_multiply_add_nn_leaky_relu_multiply_round_clip_cast_3", "attrs": {"num_outputs": "1", "num_inputs": "5", "data_layout": "NCHW", "kernel_layout": "OIHW", "hash": "e889ba9dd73bd765", "func_name": "tvmgen_default_fused_nn_conv2d_add_multiply_add_nn_leaky_relu_multiply_round_clip_cast_3", "out_layout": "", "flatten_data": "0"}, "inputs": [[3, 0, 0], [4, 0, 0], [5, 0, 0], [6, 0, 0], [7, 0, 0]]}, {"op": "tvm_op", "name": "tvmgen_default_fused_cast_divide_6", "attrs": {"num_outputs": "1", "num_inputs": "1", "flatten_data": "0", "hash": "61936ac1605612d0", "func_name": "tvmgen_default_fused_cast_divide_6"}, "inputs": [[8, 0, 0]]}, {"op": "null", "name": "p28", "inputs": []}, {"op": "null", "name": "p29", "inputs": []}, {"op": "null", "name": "p30", "inputs": []}, {"op": "null", "name": "p31", "inputs": []}, {"op": "tvm_op", "name": "tvmgen_default_fused_nn_conv2d_add_multiply_add_multiply_round_clip_cast_2", "attrs": {"num_outputs": "1", "num_inputs": "5", "data_layout": "NCHW", "kernel_layout": "OIHW", "hash": "cb797ac78982211b", "func_name": "tvmgen_default_fused_nn_conv2d_add_multiply_add_multiply_round_clip_cast_2", "out_layout": "", "flatten_data": "0"}, "inputs": [[9, 0, 0], [10, 0, 0], [11, 0, 0], [12, 0, 0], [13, 0, 0]]}, {"op": "tvm_op", "name": "tvmgen_default_fused_cast_divide_61", "attrs": {"num_outputs": "1", "num_inputs": "1", "flatten_data": "0", "hash": "61936ac1605612d0", "func_name": "tvmgen_default_fused_cast_divide_6"}, "inputs": [[14, 0, 0]]}, {"op": "tvm_op", "name": "tvmgen_default_fused_nn_max_pool2d_multiply_round_clip_cast_3", "attrs": {"num_outputs": "1", "out_layout": "", "hash": "2099cf51bae5e7bd", "func_name": "tvmgen_default_fused_nn_max_pool2d_multiply_round_clip_cast_3", "layout": "NCHW", "flatten_data": "0", "num_inputs": "1"}, "inputs": [[15, 0, 0]]}, {"op": "tvm_op", "name": "tvmgen_default_fused_cast_divide_7", "attrs": {"num_outputs": "1", "num_inputs": "1", "flatten_data": "0", "hash": "c129c06a6c572c9e", "func_name": "tvmgen_default_fused_cast_divide_7"}, "inputs": [[16, 0, 0]]}, {"op": "null", "name": "p32", "inputs": []}, {"op": "null", "name": "p33", "inputs": []}, {"op": "null", "name": "p34", "inputs": []}, {"op": "null", "name": "p35", "inputs": []}, {"op": "tvm_op", "name": "tvmgen_default_fused_nn_conv2d_add_multiply_add_nn_leaky_relu_multiply_round_clip_cast_4", "attrs": {"num_outputs": "1", "num_inputs": "5", "data_layout": "NCHW", "kernel_layout": "OIHW", "hash": "0838c452932e1265", "func_name": "tvmgen_default_fused_nn_conv2d_add_multiply_add_nn_leaky_relu_multiply_round_clip_cast_4", "out_layout": "", "flatten_data": "0"}, "inputs": [[17, 0, 0], [18, 0, 0], [19, 0, 0], [20, 0, 0], [21, 0, 0]]}, {"op": "tvm_op", "name": "tvmgen_default_fused_cast_divide_8", "attrs": {"num_outputs": "1", "num_inputs": "1", "flatten_data": "0", "hash": "0615b8b7451279fa", "func_name": "tvmgen_default_fused_cast_divide_8"}, "inputs": [[22, 0, 0]]}, {"op": "null", "name": "p36", "inputs": []}, {"op": "null", "name": "p37", "inputs": []}, {"op": "null", "name": "p38", "inputs": []}, {"op": "null", "name": "p39", "inputs": []}, {"op": "tvm_op", "name": "tvmgen_default_fused_nn_conv2d_add_multiply_add_multiply_round_clip_cast_3", "attrs": {"num_outputs": "1", "num_inputs": "5", "data_layout": "NCHW", "kernel_layout": "OIHW", "hash": "dac70adb50319a60", "func_name": "tvmgen_default_fused_nn_conv2d_add_multiply_add_multiply_round_clip_cast_3", "out_layout": "", "flatten_data": "0"}, "inputs": [[23, 0, 0], [24, 0, 0], [25, 0, 0], [26, 0, 0], [27, 0, 0]]}, {"op": "tvm_op", "name": "tvmgen_default_fused_cast_divide_81", "attrs": {"num_outputs": "1", "num_inputs": "1", "flatten_data": "0", "hash": "0615b8b7451279fa", "func_name": "tvmgen_default_fused_cast_divide_8"}, "inputs": [[28, 0, 0]]}, {"op": "tvm_op", "name": "tvmgen_default_fused_nn_max_pool2d_multiply_round_clip_cast_4", "attrs": {"num_outputs": "1", "out_layout": "", "hash": "3da4b6912efdd982", "func_name": "tvmgen_default_fused_nn_max_pool2d_multiply_round_clip_cast_4", "layout": "NCHW", "flatten_data": "0", "num_inputs": "1"}, "inputs": [[29, 0, 0]]}, {"op": "tvm_op", "name": "tvmgen_default_fused_cast_divide_9", "attrs": {"num_outputs": "1", "num_inputs": "1", "flatten_data": "0", "hash": "f3dbb5f88bf2f717", "func_name": "tvmgen_default_fused_cast_divide_9"}, "inputs": [[30, 0, 0]]}, {"op": "null", "name": "p40", "inputs": []}, {"op": "null", "name": "p41", "inputs": []}, {"op": "null", "name": "p42", "inputs": []}, {"op": "null", "name": "p43", "inputs": []}, {"op": "tvm_op", "name": "tvmgen_default_fused_nn_conv2d_add_multiply_add_nn_leaky_relu_multiply_round_clip_cast_5", "attrs": {"num_outputs": "1", "num_inputs": "5", "data_layout": "NCHW", "kernel_layout": "OIHW", "hash": "1104df6c3aeb801d", "func_name": "tvmgen_default_fused_nn_conv2d_add_multiply_add_nn_leaky_relu_multiply_round_clip_cast_5", "out_layout": "", "flatten_data": "0"}, "inputs": [[31, 0, 0], [32, 0, 0], [33, 0, 0], [34, 0, 0], [35, 0, 0]]}, {"op": "tvm_op", "name": "tvmgen_default_fused_cast_divide_10", "attrs": {"num_outputs": "1", "num_inputs": "1", "flatten_data": "0", "hash": "5a164d5790e2832a", "func_name": "tvmgen_default_fused_cast_divide_10"}, "inputs": [[36, 0, 0]]}, {"op": "null", "name": "p44", "inputs": []}, {"op": "null", "name": "p45", "inputs": []}, {"op": "null", "name": "p46", "inputs": []}, {"op": "null", "name": "p47", "inputs": []}, {"op": "tvm_op", "name": "tvmgen_default_fused_nn_conv2d_add_multiply_add_1", "attrs": {"num_outputs": "1", "num_inputs": "5", "data_layout": "NCHW", "kernel_layout": "OIHW", "hash": "0ec8ea53323afe9e", "func_name": "tvmgen_default_fused_nn_conv2d_add_multiply_add_1", "out_layout": "", "flatten_data": "0"}, "inputs": [[37, 0, 0], [38, 0, 0], [39, 0, 0], [40, 0, 0], [41, 0, 0]]}, {"op": "null", "name": "p48", "inputs": []}, {"op": "null", "name": "p49", "inputs": []}, {"op": "null", "name": "p50", "inputs": []}, {"op": "null", "name": "p51", "inputs": []}, {"op": "tvm_op", "name": "tvmgen_default_fused_nn_conv2d_transpose_add_multiply_add_nn_leaky_relu_multiply_round_clip_cas_14150951870605584942_", "attrs": {"num_outputs": "1", "num_inputs": "5", "data_layout": "NCHW", "kernel_layout": "IOHW", "hash": "c214b3a80cc3d3ba", "func_name": "tvmgen_default_fused_nn_conv2d_transpose_add_multiply_add_nn_leaky_relu_multiply_round_clip_cas_14150951870605584942_", "out_layout": "", "flatten_data": "0"}, "inputs": [[42, 0, 0], [43, 0, 0], [44, 0, 0], [45, 0, 0], [46, 0, 0]]}, {"op": "tvm_op", "name": "tvmgen_default_fused_cast_divide_concatenate_multiply_round_clip_cast", "attrs": {"num_outputs": "1", "num_inputs": "2", "flatten_data": "0", "hash": "84e7a15f4ad5fb25", "func_name": "tvmgen_default_fused_cast_divide_concatenate_multiply_round_clip_cast"}, "inputs": [[47, 0, 0], [29, 0, 0]]}, {"op": "tvm_op", "name": "tvmgen_default_fused_cast_divide_11", "attrs": {"num_outputs": "1", "num_inputs": "1", "flatten_data": "0", "hash": "420693980bab160a", "func_name": "tvmgen_default_fused_cast_divide_11"}, "inputs": [[48, 0, 0]]}, {"op": "null", "name": "p52", "inputs": []}, {"op": "null", "name": "p53", "inputs": []}, {"op": "null", "name": "p54", "inputs": []}, {"op": "null", "name": "p55", "inputs": []}, {"op": "tvm_op", "name": "tvmgen_default_fused_nn_conv2d_add_multiply_add_nn_leaky_relu_multiply_round_clip_cast_6", "attrs": {"num_outputs": "1", "num_inputs": "5", "data_layout": "NCHW", "kernel_layout": "OIHW", "hash": "47fea81bfbfc250d", "func_name": "tvmgen_default_fused_nn_conv2d_add_multiply_add_nn_leaky_relu_multiply_round_clip_cast_6", "out_layout": "", "flatten_data": "0"}, "inputs": [[49, 0, 0], [50, 0, 0], [51, 0, 0], [52, 0, 0], [53, 0, 0]]}, {"op": "tvm_op", "name": "tvmgen_default_fused_cast_divide_82", "attrs": {"num_outputs": "1", "num_inputs": "1", "flatten_data": "0", "hash": "0615b8b7451279fa", "func_name": "tvmgen_default_fused_cast_divide_8"}, "inputs": [[54, 0, 0]]}, {"op": "null", "name": "p56", "inputs": []}, {"op": "null", "name": "p57", "inputs": []}, {"op": "null", "name": "p58", "inputs": []}, {"op": "null", "name": "p59", "inputs": []}, {"op": "tvm_op", "name": "tvmgen_default_fused_nn_conv2d_add_multiply_add_2", "attrs": {"num_outputs": "1", "num_inputs": "5", "data_layout": "NCHW", "kernel_layout": "OIHW", "hash": "a30d144553788275", "func_name": "tvmgen_default_fused_nn_conv2d_add_multiply_add_2", "out_layout": "", "flatten_data": "0"}, "inputs": [[55, 0, 0], [56, 0, 0], [57, 0, 0], [58, 0, 0], [59, 0, 0]]}, {"op": "null", "name": "p60", "inputs": []}, {"op": "null", "name": "p61", "inputs": []}, {"op": "null", "name": "p62", "inputs": []}, {"op": "null", "name": "p63", "inputs": []}, {"op": "tvm_op", "name": "tvmgen_default_fused_nn_conv2d_transpose_add_multiply_add_nn_leaky_relu_multiply_round_clip_cas_14150951870605584942__1", "attrs": {"num_outputs": "1", "num_inputs": "5", "data_layout": "NCHW", "kernel_layout": "IOHW", "hash": "b540521556959b65", "func_name": "tvmgen_default_fused_nn_conv2d_transpose_add_multiply_add_nn_leaky_relu_multiply_round_clip_cas_14150951870605584942__1", "out_layout": "", "flatten_data": "0"}, "inputs": [[60, 0, 0], [61, 0, 0], [62, 0, 0], [63, 0, 0], [64, 0, 0]]}, {"op": "tvm_op", "name": "tvmgen_default_fused_cast_divide_concatenate_multiply_round_clip_cast_1", "attrs": {"num_outputs": "1", "num_inputs": "2", "flatten_data": "0", "hash": "43ed99de5a72207b", "func_name": "tvmgen_default_fused_cast_divide_concatenate_multiply_round_clip_cast_1"}, "inputs": [[65, 0, 0], [15, 0, 0]]}, {"op": "tvm_op", "name": "tvmgen_default_fused_cast_divide_12", "attrs": {"num_outputs": "1", "num_inputs": "1", "flatten_data": "0", "hash": "eef8dacc5d543f0d", "func_name": "tvmgen_default_fused_cast_divide_12"}, "inputs": [[66, 0, 0]]}, {"op": "null", "name": "p64", "inputs": []}, {"op": "null", "name": "p65", "inputs": []}, {"op": "null", "name": "p66", "inputs": []}, {"op": "null", "name": "p67", "inputs": []}, {"op": "tvm_op", "name": "tvmgen_default_fused_nn_conv2d_add_multiply_add_nn_leaky_relu_multiply_round_clip_cast_7", "attrs": {"num_outputs": "1", "num_inputs": "5", "data_layout": "NCHW", "kernel_layout": "OIHW", "hash": "94378134008d85f5", "func_name": "tvmgen_default_fused_nn_conv2d_add_multiply_add_nn_leaky_relu_multiply_round_clip_cast_7", "out_layout": "", "flatten_data": "0"}, "inputs": [[67, 0, 0], [68, 0, 0], [69, 0, 0], [70, 0, 0], [71, 0, 0]]}, {"op": "tvm_op", "name": "tvmgen_default_fused_cast_divide_62", "attrs": {"num_outputs": "1", "num_inputs": "1", "flatten_data": "0", "hash": "61936ac1605612d0", "func_name": "tvmgen_default_fused_cast_divide_6"}, "inputs": [[72, 0, 0]]}, {"op": "null", "name": "p68", "inputs": []}, {"op": "null", "name": "p69", "inputs": []}, {"op": "null", "name": "p70", "inputs": []}, {"op": "null", "name": "p71", "inputs": []}, {"op": "tvm_op", "name": "tvmgen_default_fused_nn_conv2d_add_multiply_add_3", "attrs": {"num_outputs": "1", "num_inputs": "5", "data_layout": "NCHW", "kernel_layout": "OIHW", "hash": "1e46325e086a6e13", "func_name": "tvmgen_default_fused_nn_conv2d_add_multiply_add_3", "out_layout": "", "flatten_data": "0"}, "inputs": [[73, 0, 0], [74, 0, 0], [75, 0, 0], [76, 0, 0], [77, 0, 0]]}, {"op": "null", "name": "p72", "inputs": []}, {"op": "null", "name": "p73", "inputs": []}, {"op": "null", "name": "p74", "inputs": []}, {"op": "null", "name": "p75", "inputs": []}, {"op": "tvm_op", "name": "tvmgen_default_fused_nn_conv2d_transpose_add_multiply_add_nn_leaky_relu_multiply_round_clip_cas_14150951870605584942__2", "attrs": {"num_outputs": "1", "num_inputs": "5", "data_layout": "NCHW", "kernel_layout": "IOHW", "hash": "057560f06c71e08d", "func_name": "tvmgen_default_fused_nn_conv2d_transpose_add_multiply_add_nn_leaky_relu_multiply_round_clip_cas_14150951870605584942__2", "out_layout": "", "flatten_data": "0"}, "inputs": [[78, 0, 0], [79, 0, 0], [80, 0, 0], [81, 0, 0], [82, 0, 0]]}, {"op": "tvm_op", "name": "tvmgen_default_fused_cast_divide_concatenate_multiply_round_clip_cast_2", "attrs": {"num_outputs": "1", "num_inputs": "2", "flatten_data": "0", "hash": "06917b09e207c696", "func_name": "tvmgen_default_fused_cast_divide_concatenate_multiply_round_clip_cast_2"}, "inputs": [[83, 0, 0], [1, 0, 0]]}, {"op": "tvm_op", "name": "tvmgen_default_fused_cast_divide_13", "attrs": {"num_outputs": "1", "num_inputs": "1", "flatten_data": "0", "hash": "6bd59b3449230bf3", "func_name": "tvmgen_default_fused_cast_divide_13"}, "inputs": [[84, 0, 0]]}, {"op": "null", "name": "p76", "inputs": []}, {"op": "null", "name": "p77", "inputs": []}, {"op": "null", "name": "p78", "inputs": []}, {"op": "null", "name": "p79", "inputs": []}, {"op": "tvm_op", "name": "tvmgen_default_fused_nn_conv2d_add_multiply_add_nn_leaky_relu_multiply_round_clip_cast_8", "attrs": {"num_outputs": "1", "num_inputs": "5", "data_layout": "NCHW", "kernel_layout": "OIHW", "hash": "1c4d5291709b2417", "func_name": "tvmgen_default_fused_nn_conv2d_add_multiply_add_nn_leaky_relu_multiply_round_clip_cast_8", "out_layout": "", "flatten_data": "0"}, "inputs": [[85, 0, 0], [86, 0, 0], [87, 0, 0], [88, 0, 0], [89, 0, 0]]}], "arg_nodes": [0, 4, 5, 6, 7, 10, 11, 12, 13, 18, 19, 20, 21, 24, 25, 26, 27, 32, 33, 34, 35, 38, 39, 40, 41, 43, 44, 45, 46, 50, 51, 52, 53, 56, 57, 58, 59, 61, 62, 63, 64, 68, 69, 70, 71, 74, 75, 76, 77, 79, 80, 81, 82, 86, 87, 88, 89], "heads": [[90, 0, 0]], "attrs": {"dltype": ["list_str", ["int8", "float32", "int8", "float32", "float32", "float32", "float32", "float32", "int8", "float32", "float32", "float32", "float32", "float32", "int8", "float32", "int8", "float32", "float32", "float32", "float32", "float32", "int8", "float32", "float32", "float32", "float32", "float32", "int8", "float32", "int8", "float32", "float32", "float32", "float32", "float32", "int8", "float32", "float32", "float32", "float32", "float32", "float32", "float32", "float32", "float32", "float32", "int8", "int8", "float32", "float32", "float32", "float32", "float32", "int8", "float32", "float32", "float32", "float32", "float32", "float32", "float32", "float32", "float32", "float32", "int8", "int8", "float32", "float32", "float32", "float32", "float32", "int8", "float32", "float32", "float32", "float32", "float32", "float32", "float32", "float32", "float32", "float32", "int8", "int8", "float32", "float32", "float32", "float32", "float32", "int8"]], "device_index": ["list_int", [2, 2, 2, 2, 2, 2, 2, 2, 2, 2, 2, 2, 2, 2, 2, 2, 2, 2, 2, 2, 2, 2, 2, 2, 2, 2, 2, 2, 2, 2, 2, 2, 2, 2, 2, 2, 2, 2, 2, 2, 2, 2, 2, 2, 2, 2, 2, 2, 2, 2, 2, 2, 2, 2, 2, 2, 2, 2, 2, 2, 2, 2, 2, 2, 2, 2, 2, 2, 2, 2, 2, 2, 2, 2, 2, 2, 2, 2, 2, 2, 2, 2, 2, 2, 2, 2, 2, 2, 2, 2, 2]], "storage_id": ["list_int", [33, 23, 34, 35, 36, 37, 38, 39, 40, 35, 41, 42, 43, 44, 45, 35, 46, 47, 48, 49, 50, 51, 52, 47, 53, 54, 55, 56, 57, 47, 58, 59, 60, 61, 62, 63, 64, 59, 65, 66, 67, 68, 69, 70, 71, 72, 73, 59, 69, 47, 74, 75, 76, 77, 78, 47, 79, 80, 81, 82, 83, 84, 85, 86, 87, 47, 83, 35, 88, 89, 90, 91, 92, 35, 93, 94, 95, 96, 97, 98, 99, 100, 101, 35, 97, 23, 102, 103, 104, 105, 106]], "shape": ["list_shape", [[1, 64, 64, 64], [1, 64, 64, 64], [1, 64, 32, 32], [1, 64, 32, 32], [128, 64, 3, 3], [1, 128, 1, 1], [1, 128, 1, 1], [1, 128, 1, 1], [1, 128, 32, 32], [1, 128, 32, 32], [128, 128, 3, 3], [1, 128, 1, 1], [1, 128, 1, 1], [1, 128, 1, 1], [1, 128, 32, 32], [1, 128, 32, 32], [1, 128, 16, 16], [1, 128, 16, 16], [256, 128, 3, 3], [1, 256, 1, 1], [1, 256, 1, 1], [1, 256, 1, 1], [1, 256, 16, 16], [1, 256, 16, 16], [256, 256, 3, 3], [1, 256, 1, 1], [1, 256, 1, 1], [1, 256, 1, 1], [1, 256, 16, 16], [1, 256, 16, 16], [1, 256, 8, 8], [1, 256, 8, 8], [512, 256, 3, 3], [1, 512, 1, 1], [1, 512, 1, 1], [1, 512, 1, 1], [1, 512, 8, 8], [1, 512, 8, 8], [512, 512, 3, 3], [1, 512, 1, 1], [1, 512, 1, 1], [1, 512, 1, 1], [1, 512, 8, 8], [512, 256, 3, 3], [1, 256, 1, 1], [1, 256, 1, 1], [1, 256, 1, 1], [1, 256, 16, 16], [1, 512, 16, 16], [1, 512, 16, 16], [256, 512, 3, 3], [1, 256, 1, 1], [1, 256, 1, 1], [1, 256, 1, 1], [1, 256, 16, 16], [1, 256, 16, 16], [256, 256, 3, 3], [1, 256, 1, 1], [1, 256, 1, 1], [1, 256, 1, 1], [1, 256, 16, 16], [256, 128, 3, 3], [1, 128, 1, 1], [1, 128, 1, 1], [1, 128, 1, 1], [1, 128, 32, 32], [1, 256, 32, 32], [1, 256, 32, 32], [128, 256, 3, 3], [1, 128, 1, 1], [1, 128, 1, 1], [1, 128, 1, 1], [1, 128, 32, 32], [1, 128, 32, 32], [128, 128, 3, 3], [1, 128, 1, 1], [1, 128, 1, 1], [1, 128, 1, 1], [1, 128, 32, 32], [128, 64, 3, 3], [1, 64, 1, 1], [1, 64, 1, 1], [1, 64, 1, 1], [1, 64, 64, 64], [1, 128, 64, 64], [1, 128, 64, 64], [64, 128, 3, 3], [1, 64, 1, 1], [1, 64, 1, 1], [1, 64, 1, 1], [1, 64, 64, 64]]]}, "node_row_ptr": [0, 1, 2, 3, 4, 5, 6, 7, 8, 9, 10, 11, 12, 13, 14, 15, 16, 17, 18, 19, 20, 21, 22, 23, 24, 25, 26, 27, 28, 29, 30, 31, 32, 33, 34, 35, 36, 37, 38, 39, 40, 41, 42, 43, 44, 45, 46, 47, 48, 49, 50, 51, 52, 53, 54, 55, 56, 57, 58, 59, 60, 61, 62, 63, 64, 65, 66, 67, 68, 69, 70, 71, 72, 73, 74, 75, 76, 77, 78, 79, 80, 81, 82, 83, 84, 85, 86, 87, 88, 89, 90, 91], "extra": {"inputs": [38], "outputs": [128]}}