{"nodes": [{"op": "null", "name": "input_146", "attrs": {"num_outputs": "1", "num_inputs": "5", "data_layout": "NCHW", "kernel_layout": "OIHW", "hash": "50431582488a08b8", "func_name": "tvmgen_default_fused_nn_conv2d_add_multiply_add_nn_leaky_relu_multiply_round_clip_cast_1", "out_layout": "", "flatten_data": "0"}, "inputs": []}, {"op": "tvm_op", "name": "tvmgen_default_fused_cast_divide_22", "attrs": {"num_outputs": "1", "num_inputs": "1", "flatten_data": "0", "hash": "8d9857381559bffe", "func_name": "tvmgen_default_fused_cast_divide_2"}, "inputs": [[0, 0, 0]]}, {"op": "null", "name": "p92", "inputs": []}, {"op": "null", "name": "p93", "inputs": []}, {"op": "null", "name": "p94", "inputs": []}, {"op": "null", "name": "p95", "inputs": []}, {"op": "tvm_op", "name": "tvmgen_default_fused_nn_conv2d_add_multiply_add_5", "attrs": {"num_outputs": "1", "num_inputs": "5", "data_layout": "NCHW", "kernel_layout": "OIHW", "hash": "2151d35501e1be7a", "func_name": "tvmgen_default_fused_nn_conv2d_add_multiply_add_5", "out_layout": "", "flatten_data": "0"}, "inputs": [[1, 0, 0], [2, 0, 0], [3, 0, 0], [4, 0, 0], [5, 0, 0]]}, {"op": "null", "name": "p96", "inputs": []}, {"op": "null", "name": "p97", "inputs": []}, {"op": "null", "name": "p98", "inputs": []}, {"op": "null", "name": "p99", "inputs": []}, {"op": "tvm_op", "name": "tvmgen_default_fused_nn_conv2d_transpose_add_multiply_add_nn_leaky_relu_multiply_round_clip_cas_14150951870605584942__4", "attrs": {"num_outputs": "1", "num_inputs": "5", "data_layout": "NCHW", "kernel_layout": "IOHW", "hash": "1f50fc52bc80f26d", "func_name": "tvmgen_default_fused_nn_conv2d_transpose_add_multiply_add_nn_leaky_relu_multiply_round_clip_cas_14150951870605584942__4", "out_layout": "", "flatten_data": "0"}, "inputs": [[6, 0, 0], [7, 0, 0], [8, 0, 0], [9, 0, 0], [10, 0, 0]]}, {"op": "tvm_op", "name": "tvmgen_default_fused_cast_divide_14", "attrs": {"num_outputs": "1", "num_inputs": "1", "flatten_data": "0", "hash": "636a5321792fc858", "func_name": "tvmgen_default_fused_cast_divide_14"}, "inputs": [[11, 0, 0]]}, {"op": "null", "name": "p100", "inputs": []}, {"op": "null", "name": "p101", "inputs": []}, {"op": "tvm_op", "name": "tvmgen_default_fused_nn_conv2d_add_sigmoid", "attrs": {"num_outputs": "1", "num_inputs": "3", "data_layout": "NCHW", "kernel_layout": "OIHW", "hash": "576913726b3cda3d", "func_name": "tvmgen_default_fused_nn_conv2d_add_sigmoid", "out_layout": "", "flatten_data": "0"}, "inputs": [[12, 0, 0], [13, 0, 0], [14, 0, 0]]}], "arg_nodes": [0, 2, 3, 4, 5, 7, 8, 9, 10, 13, 14], "heads": [[15, 0, 0]], "attrs": {"dltype": ["list_str", ["int8", "float32", "float32", "float32", "float32", "float32", "float32", "float32", "float32", "float32", "float32", "int8", "float32", "float32", "float32", "float32"]], "device_index": ["list_int", [2, 2, 2, 2, 2, 2, 2, 2, 2, 2, 2, 2, 2, 2, 2, 2]], "storage_id": ["list_int", [120, 11, 121, 122, 123, 124, 125, 126, 127, 128, 129, 11, 125, 130, 131, 132]], "shape": ["list_shape", [[1, 32, 128, 128], [1, 32, 128, 128], [32, 32, 3, 3], [1, 32, 1, 1], [1, 32, 1, 1], [1, 32, 1, 1], [1, 32, 128, 128], [32, 32, 3, 3], [1, 32, 1, 1], [1, 32, 1, 1], [1, 32, 1, 1], [1, 32, 256, 256], [1, 32, 256, 256], [1, 32, 3, 3], [1, 1, 1], [1, 1, 256, 256]]]}, "node_row_ptr": [0, 1, 2, 3, 4, 5, 6, 7, 8, 9, 10, 11, 12, 13, 14, 15, 16], "extra": {"inputs": [146], "outputs": [161]}}