{"nodes": [{"op": "null", "name": "input_0", "inputs": []}, {"op": "null", "name": "p0", "inputs": []}, {"op": "null", "name": "p1", "inputs": []}, {"op": "null", "name": "p2", "inputs": []}, {"op": "null", "name": "p3", "inputs": []}, {"op": "tvm_op", "name": "tvmgen_default_fused_nn_conv2d_add_multiply_add_nn_leaky_relu_multiply_round_clip_cast", "attrs": {"num_outputs": "1", "num_inputs": "5", "out_layout": "", "kernel_layout": "OIHW", "hash": "3796c78dc6f04748", "func_name": "tvmgen_default_fused_nn_conv2d_add_multiply_add_nn_leaky_relu_multiply_round_clip_cast", "data_layout": "NCHW", "flatten_data": "0"}, "inputs": [[0, 0, 0], [1, 0, 0], [2, 0, 0], [3, 0, 0], [4, 0, 0]]}, {"op": "tvm_op", "name": "tvmgen_default_fused_cast_divide", "attrs": {"num_outputs": "1", "num_inputs": "1", "flatten_data": "0", "hash": "fa27adaace0bfe80", "func_name": "tvmgen_default_fused_cast_divide"}, "inputs": [[5, 0, 0]]}, {"op": "null", "name": "p4", "inputs": []}, {"op": "null", "name": "p5", "inputs": []}, {"op": "null", "name": "p6", "inputs": []}, {"op": "null", "name": "p7", "inputs": []}, {"op": "tvm_op", "name": "tvmgen_default_fused_nn_conv2d_add_multiply_add", "attrs": {"num_outputs": "1", "num_inputs": "5", "data_layout": "NCHW", "kernel_layout": "OIHW", "hash": "f14094ce170e4d7e", "func_name": "tvmgen_default_fused_nn_conv2d_add_multiply_add", "out_layout": "", "flatten_data": "0"}, "inputs": [[6, 0, 0], [7, 0, 0], [8, 0, 0], [9, 0, 0], [10, 0, 0]]}, {"op": "tvm_op", "name": "tvmgen_default_fused_nn_max_pool2d_multiply_round_clip_cast", "attrs": {"num_outputs": "1", "out_layout": "", "hash": "6c7a5728a3b114ee", "func_name": "tvmgen_default_fused_nn_max_pool2d_multiply_round_clip_cast", "layout": "NCHW", "flatten_data": "0", "num_inputs": "1"}, "inputs": [[11, 0, 0]]}, {"op": "tvm_op", "name": "tvmgen_default_fused_cast_divide_1", "attrs": {"num_outputs": "1", "num_inputs": "1", "flatten_data": "0", "hash": "264e358d1dbf32bc", "func_name": "tvmgen_default_fused_cast_divide_1"}, "inputs": [[12, 0, 0]]}, {"op": "null", "name": "p8", "inputs": []}, {"op": "null", "name": "p9", "inputs": []}, {"op": "null", "name": "p10", "inputs": []}, {"op": "null", "name": "p11", "inputs": []}, {"op": "tvm_op", "name": "tvmgen_default_fused_nn_conv2d_add_multiply_add_nn_leaky_relu_multiply_round_clip_cast_1", "attrs": {"num_outputs": "1", "num_inputs": "5", "data_layout": "NCHW", "kernel_layout": "OIHW", "hash": "50431582488a08b8", "func_name": "tvmgen_default_fused_nn_conv2d_add_multiply_add_nn_leaky_relu_multiply_round_clip_cast_1", "out_layout": "", "flatten_data": "0"}, "inputs": [[13, 0, 0], [14, 0, 0], [15, 0, 0], [16, 0, 0], [17, 0, 0]]}, {"op": "tvm_op", "name": "tvmgen_default_fused_cast_divide_2", "attrs": {"num_outputs": "1", "num_inputs": "1", "flatten_data": "0", "hash": "8d9857381559bffe", "func_name": "tvmgen_default_fused_cast_divide_2"}, "inputs": [[18, 0, 0]]}, {"op": "null", "name": "p12", "inputs": []}, {"op": "null", "name": "p13", "inputs": []}, {"op": "null", "name": "p14", "inputs": []}, {"op": "null", "name": "p15", "inputs": []}, {"op": "tvm_op", "name": "tvmgen_default_fused_nn_conv2d_add_multiply_add_1", "attrs": {"num_outputs": "1", "num_inputs": "5", "data_layout": "NCHW", "kernel_layout": "OIHW", "hash": "2151d35501e1be7a", "func_name": "tvmgen_default_fused_nn_conv2d_add_multiply_add_1", "out_layout": "", "flatten_data": "0"}, "inputs": [[19, 0, 0], [20, 0, 0], [21, 0, 0], [22, 0, 0], [23, 0, 0]]}, {"op": "tvm_op", "name": "tvmgen_default_fused_nn_max_pool2d_multiply_round_clip_cast_1", "attrs": {"num_outputs": "1", "out_layout": "", "hash": "caa96616b89797c4", "func_name": "tvmgen_default_fused_nn_max_pool2d_multiply_round_clip_cast_1", "layout": "NCHW", "flatten_data": "0", "num_inputs": "1"}, "inputs": [[24, 0, 0]]}, {"op": "tvm_op", "name": "tvmgen_default_fused_cast_divide_3", "attrs": {"num_outputs": "1", "num_inputs": "1", "flatten_data": "0", "hash": "fb6f82e2d6857769", "func_name": "tvmgen_default_fused_cast_divide_3"}, "inputs": [[25, 0, 0]]}, {"op": "null", "name": "p16", "inputs": []}, {"op": "null", "name": "p17", "inputs": []}, {"op": "null", "name": "p18", "inputs": []}, {"op": "null", "name": "p19", "inputs": []}, {"op": "tvm_op", "name": "tvmgen_default_fused_nn_conv2d_add_multiply_add_nn_leaky_relu_multiply_round_clip_cast_2", "attrs": {"num_outputs": "1", "num_inputs": "5", "data_layout": "NCHW", "kernel_layout": "OIHW", "hash": "7026ae4cebab0833", "func_name": "tvmgen_default_fused_nn_conv2d_add_multiply_add_nn_leaky_relu_multiply_round_clip_cast_2", "out_layout": "", "flatten_data": "0"}, "inputs": [[26, 0, 0], [27, 0, 0], [28, 0, 0], [29, 0, 0], [30, 0, 0]]}, {"op": "tvm_op", "name": "tvmgen_default_fused_cast_divide_4", "attrs": {"num_outputs": "1", "num_inputs": "1", "flatten_data": "0", "hash": "608d7ece6fd8d965", "func_name": "tvmgen_default_fused_cast_divide_4"}, "inputs": [[31, 0, 0]]}, {"op": "null", "name": "p20", "inputs": []}, {"op": "null", "name": "p21", "inputs": []}, {"op": "null", "name": "p22", "inputs": []}, {"op": "null", "name": "p23", "inputs": []}, {"op": "tvm_op", "name": "tvmgen_default_fused_nn_conv2d_add_multiply_add_2", "attrs": {"num_outputs": "1", "num_inputs": "5", "data_layout": "NCHW", "kernel_layout": "OIHW", "hash": "3c5686a750576796", "func_name": "tvmgen_default_fused_nn_conv2d_add_multiply_add_2", "out_layout": "", "flatten_data": "0"}, "inputs": [[32, 0, 0], [33, 0, 0], [34, 0, 0], [35, 0, 0], [36, 0, 0]]}, {"op": "tvm_op", "name": "tvmgen_default_fused_nn_max_pool2d_multiply_round_clip_cast_2", "attrs": {"num_outputs": "1", "out_layout": "", "hash": "523db90a4272de28", "func_name": "tvmgen_default_fused_nn_max_pool2d_multiply_round_clip_cast_2", "layout": "NCHW", "flatten_data": "0", "num_inputs": "1"}, "inputs": [[37, 0, 0]]}, {"op": "tvm_op", "name": "tvmgen_default_fused_cast_divide_5", "attrs": {"num_outputs": "1", "num_inputs": "1", "flatten_data": "0", "hash": "e708c33836fa3949", "func_name": "tvmgen_default_fused_cast_divide_5"}, "inputs": [[38, 0, 0]]}, {"op": "null", "name": "p24", "inputs": []}, {"op": "null", "name": "p25", "inputs": []}, {"op": "null", "name": "p26", "inputs": []}, {"op": "null", "name": "p27", "inputs": []}, {"op": "tvm_op", "name": "tvmgen_default_fused_nn_conv2d_add_multiply_add_nn_leaky_relu_multiply_round_clip_cast_3", "attrs": {"num_outputs": "1", "num_inputs": "5", "data_layout": "NCHW", "kernel_layout": "OIHW", "hash": "97fe4cce5765d9c5", "func_name": "tvmgen_default_fused_nn_conv2d_add_multiply_add_nn_leaky_relu_multiply_round_clip_cast_3", "out_layout": "", "flatten_data": "0"}, "inputs": [[39, 0, 0], [40, 0, 0], [41, 0, 0], [42, 0, 0], [43, 0, 0]]}, {"op": "tvm_op", "name": "tvmgen_default_fused_cast_divide_51", "attrs": {"num_outputs": "1", "num_inputs": "1", "flatten_data": "0", "hash": "e708c33836fa3949", "func_name": "tvmgen_default_fused_cast_divide_5"}, "inputs": [[44, 0, 0]]}, {"op": "null", "name": "p28", "inputs": []}, {"op": "null", "name": "p29", "inputs": []}, {"op": "null", "name": "p30", "inputs": []}, {"op": "null", "name": "p31", "inputs": []}, {"op": "tvm_op", "name": "tvmgen_default_fused_nn_conv2d_add_multiply_add_3", "attrs": {"num_outputs": "1", "num_inputs": "5", "data_layout": "NCHW", "kernel_layout": "OIHW", "hash": "4ba6f5c8c6fab113", "func_name": "tvmgen_default_fused_nn_conv2d_add_multiply_add_3", "out_layout": "", "flatten_data": "0"}, "inputs": [[45, 0, 0], [46, 0, 0], [47, 0, 0], [48, 0, 0], [49, 0, 0]]}, {"op": "null", "name": "p32", "inputs": []}, {"op": "null", "name": "p33", "inputs": []}, {"op": "null", "name": "p34", "inputs": []}, {"op": "null", "name": "p35", "inputs": []}, {"op": "tvm_op", "name": "tvmgen_default_fused_nn_conv2d_transpose_add_multiply_add_nn_leaky_relu_multiply_round_clip_cas_14150951870605584942_", "attrs": {"num_outputs": "1", "num_inputs": "5", "data_layout": "NCHW", "kernel_layout": "IOHW", "hash": "4382d87fba9216ac", "func_name": "tvmgen_default_fused_nn_conv2d_transpose_add_multiply_add_nn_leaky_relu_multiply_round_clip_cas_14150951870605584942_", "out_layout": "", "flatten_data": "0"}, "inputs": [[50, 0, 0], [51, 0, 0], [52, 0, 0], [53, 0, 0], [54, 0, 0]]}, {"op": "tvm_op", "name": "tvmgen_default_fused_cast_divide_41", "attrs": {"num_outputs": "1", "num_inputs": "1", "flatten_data": "0", "hash": "608d7ece6fd8d965", "func_name": "tvmgen_default_fused_cast_divide_4"}, "inputs": [[55, 0, 0]]}, {"op": "null", "name": "p36", "inputs": []}, {"op": "null", "name": "p37", "inputs": []}, {"op": "null", "name": "p38", "inputs": []}, {"op": "null", "name": "p39", "inputs": []}, {"op": "tvm_op", "name": "tvmgen_default_fused_nn_conv2d_add_multiply_add_nn_leaky_relu_multiply_round_clip_cast_4", "attrs": {"num_outputs": "1", "num_inputs": "5", "data_layout": "NCHW", "kernel_layout": "OIHW", "hash": "9b2cce6897ab27b0", "func_name": "tvmgen_default_fused_nn_conv2d_add_multiply_add_nn_leaky_relu_multiply_round_clip_cast_4", "out_layout": "", "flatten_data": "0"}, "inputs": [[56, 0, 0], [57, 0, 0], [58, 0, 0], [59, 0, 0], [60, 0, 0]]}, {"op": "tvm_op", "name": "tvmgen_default_fused_cast_divide_31", "attrs": {"num_outputs": "1", "num_inputs": "1", "flatten_data": "0", "hash": "fb6f82e2d6857769", "func_name": "tvmgen_default_fused_cast_divide_3"}, "inputs": [[61, 0, 0]]}, {"op": "null", "name": "p40", "inputs": []}, {"op": "null", "name": "p41", "inputs": []}, {"op": "null", "name": "p42", "inputs": []}, {"op": "null", "name": "p43", "inputs": []}, {"op": "tvm_op", "name": "tvmgen_default_fused_nn_conv2d_add_multiply_add_4", "attrs": {"num_outputs": "1", "num_inputs": "5", "data_layout": "NCHW", "kernel_layout": "OIHW", "hash": "0e505f02fbbc64e4", "func_name": "tvmgen_default_fused_nn_conv2d_add_multiply_add_4", "out_layout": "", "flatten_data": "0"}, "inputs": [[62, 0, 0], [63, 0, 0], [64, 0, 0], [65, 0, 0], [66, 0, 0]]}, {"op": "null", "name": "p44", "inputs": []}, {"op": "null", "name": "p45", "inputs": []}, {"op": "null", "name": "p46", "inputs": []}, {"op": "null", "name": "p47", "inputs": []}, {"op": "tvm_op", "name": "tvmgen_default_fused_nn_conv2d_transpose_add_multiply_add_nn_leaky_relu_multiply_round_clip_cas_14150951870605584942__1", "attrs": {"num_outputs": "1", "num_inputs": "5", "data_layout": "NCHW", "kernel_layout": "IOHW", "hash": "cd3d4a3805e5cdfb", "func_name": "tvmgen_default_fused_nn_conv2d_transpose_add_multiply_add_nn_leaky_relu_multiply_round_clip_cas_14150951870605584942__1", "out_layout": "", "flatten_data": "0"}, "inputs": [[67, 0, 0], [68, 0, 0], [69, 0, 0], [70, 0, 0], [71, 0, 0]]}, {"op": "tvm_op", "name": "tvmgen_default_fused_cast_divide_21", "attrs": {"num_outputs": "1", "num_inputs": "1", "flatten_data": "0", "hash": "8d9857381559bffe", "func_name": "tvmgen_default_fused_cast_divide_2"}, "inputs": [[72, 0, 0]]}, {"op": "null", "name": "p48", "inputs": []}, {"op": "null", "name": "p49", "inputs": []}, {"op": "null", "name": "p50", "inputs": []}, {"op": "null", "name": "p51", "inputs": []}, {"op": "tvm_op", "name": "tvmgen_default_fused_nn_conv2d_add_multiply_add_nn_leaky_relu_multiply_round_clip_cast_5", "attrs": {"num_outputs": "1", "num_inputs": "5", "data_layout": "NCHW", "kernel_layout": "OIHW", "hash": "69fadfad0f9f77d5", "func_name": "tvmgen_default_fused_nn_conv2d_add_multiply_add_nn_leaky_relu_multiply_round_clip_cast_5", "out_layout": "", "flatten_data": "0"}, "inputs": [[73, 0, 0], [74, 0, 0], [75, 0, 0], [76, 0, 0], [77, 0, 0]]}, {"op": "tvm_op", "name": "tvmgen_default_fused_cast_divide_6", "attrs": {"num_outputs": "1", "num_inputs": "1", "flatten_data": "0", "hash": "124e1fbf92ab5a82", "func_name": "tvmgen_default_fused_cast_divide_6"}, "inputs": [[78, 0, 0]]}, {"op": "null", "name": "p52", "inputs": []}, {"op": "null", "name": "p53", "inputs": []}, {"op": "null", "name": "p54", "inputs": []}, {"op": "null", "name": "p55", "inputs": []}, {"op": "tvm_op", "name": "tvmgen_default_fused_nn_conv2d_add_multiply_add_multiply_round_clip_cast", "attrs": {"num_outputs": "1", "num_inputs": "5", "data_layout": "NCHW", "kernel_layout": "OIHW", "hash": "a8ab9ca42e1e5be4", "func_name": "tvmgen_default_fused_nn_conv2d_add_multiply_add_multiply_round_clip_cast", "out_layout": "", "flatten_data": "0"}, "inputs": [[79, 0, 0], [80, 0, 0], [81, 0, 0], [82, 0, 0], [83, 0, 0]]}, {"op": "tvm_op", "name": "tvmgen_default_fused_cast_divide_61", "attrs": {"num_outputs": "1", "num_inputs": "1", "flatten_data": "0", "hash": "124e1fbf92ab5a82", "func_name": "tvmgen_default_fused_cast_divide_6"}, "inputs": [[84, 0, 0]]}, {"op": "tvm_op", "name": "tvmgen_default_fused_nn_max_pool2d_multiply_round_clip_cast_3", "attrs": {"num_outputs": "1", "out_layout": "", "hash": "5e13995e267e4c7c", "func_name": "tvmgen_default_fused_nn_max_pool2d_multiply_round_clip_cast_3", "layout": "NCHW", "flatten_data": "0", "num_inputs": "1"}, "inputs": [[85, 0, 0]]}, {"op": "tvm_op", "name": "tvmgen_default_fused_cast_divide_7", "attrs": {"num_outputs": "1", "num_inputs": "1", "flatten_data": "0", "hash": "6bd59b3449230bf3", "func_name": "tvmgen_default_fused_cast_divide_7"}, "inputs": [[86, 0, 0]]}, {"op": "null", "name": "p56", "inputs": []}, {"op": "null", "name": "p57", "inputs": []}, {"op": "null", "name": "p58", "inputs": []}, {"op": "null", "name": "p59", "inputs": []}, {"op": "tvm_op", "name": "tvmgen_default_fused_nn_conv2d_add_multiply_add_nn_leaky_relu_multiply_round_clip_cast_6", "attrs": {"num_outputs": "1", "num_inputs": "5", "data_layout": "NCHW", "kernel_layout": "OIHW", "hash": "b77f59809ae822d6", "func_name": "tvmgen_default_fused_nn_conv2d_add_multiply_add_nn_leaky_relu_multiply_round_clip_cast_6", "out_layout": "", "flatten_data": "0"}, "inputs": [[87, 0, 0], [88, 0, 0], [89, 0, 0], [90, 0, 0], [91, 0, 0]]}, {"op": "tvm_op", "name": "tvmgen_default_fused_cast_divide_8", "attrs": {"num_outputs": "1", "num_inputs": "1", "flatten_data": "0", "hash": "67262316d98e1e1f", "func_name": "tvmgen_default_fused_cast_divide_8"}, "inputs": [[92, 0, 0]]}, {"op": "null", "name": "p60", "inputs": []}, {"op": "null", "name": "p61", "inputs": []}, {"op": "null", "name": "p62", "inputs": []}, {"op": "null", "name": "p63", "inputs": []}, {"op": "tvm_op", "name": "tvmgen_default_fused_nn_conv2d_add_multiply_add_multiply_round_clip_cast_1", "attrs": {"num_outputs": "1", "num_inputs": "5", "data_layout": "NCHW", "kernel_layout": "OIHW", "hash": "c1fe77ae81bafcc5", "func_name": "tvmgen_default_fused_nn_conv2d_add_multiply_add_multiply_round_clip_cast_1", "out_layout": "", "flatten_data": "0"}, "inputs": [[93, 0, 0], [94, 0, 0], [95, 0, 0], [96, 0, 0], [97, 0, 0]]}, {"op": "tvm_op", "name": "tvmgen_default_fused_cast_divide_81", "attrs": {"num_outputs": "1", "num_inputs": "1", "flatten_data": "0", "hash": "67262316d98e1e1f", "func_name": "tvmgen_default_fused_cast_divide_8"}, "inputs": [[98, 0, 0]]}, {"op": "tvm_op", "name": "tvmgen_default_fused_nn_max_pool2d_multiply_round_clip_cast_4", "attrs": {"num_outputs": "1", "out_layout": "", "hash": "d86d37fff6b9fe04", "func_name": "tvmgen_default_fused_nn_max_pool2d_multiply_round_clip_cast_4", "layout": "NCHW", "flatten_data": "0", "num_inputs": "1"}, "inputs": [[99, 0, 0]]}, {"op": "tvm_op", "name": "tvmgen_default_fused_cast_divide_9", "attrs": {"num_outputs": "1", "num_inputs": "1", "flatten_data": "0", "hash": "eef8dacc5d543f0d", "func_name": "tvmgen_default_fused_cast_divide_9"}, "inputs": [[100, 0, 0]]}, {"op": "null", "name": "p64", "inputs": []}, {"op": "null", "name": "p65", "inputs": []}, {"op": "null", "name": "p66", "inputs": []}, {"op": "null", "name": "p67", "inputs": []}, {"op": "tvm_op", "name": "tvmgen_default_fused_nn_conv2d_add_multiply_add_nn_leaky_relu_multiply_round_clip_cast_7", "attrs": {"num_outputs": "1", "num_inputs": "5", "data_layout": "NCHW", "kernel_layout": "OIHW", "hash": "9bb6f1f76462f5a2", "func_name": "tvmgen_default_fused_nn_conv2d_add_multiply_add_nn_leaky_relu_multiply_round_clip_cast_7", "out_layout": "", "flatten_data": "0"}, "inputs": [[101, 0, 0], [102, 0, 0], [103, 0, 0], [104, 0, 0], [105, 0, 0]]}, {"op": "tvm_op", "name": "tvmgen_default_fused_cast_divide_10", "attrs": {"num_outputs": "1", "num_inputs": "1", "flatten_data": "0", "hash": "b625d4075e500039", "func_name": "tvmgen_default_fused_cast_divide_10"}, "inputs": [[106, 0, 0]]}, {"op": "null", "name": "p68", "inputs": []}, {"op": "null", "name": "p69", "inputs": []}, {"op": "null", "name": "p70", "inputs": []}, {"op": "null", "name": "p71", "inputs": []}, {"op": "tvm_op", "name": "tvmgen_default_fused_nn_conv2d_add_multiply_add_multiply_round_clip_cast_2", "attrs": {"num_outputs": "1", "num_inputs": "5", "data_layout": "NCHW", "kernel_layout": "OIHW", "hash": "fc3304c37c41d228", "func_name": "tvmgen_default_fused_nn_conv2d_add_multiply_add_multiply_round_clip_cast_2", "out_layout": "", "flatten_data": "0"}, "inputs": [[107, 0, 0], [108, 0, 0], [109, 0, 0], [110, 0, 0], [111, 0, 0]]}, {"op": "tvm_op", "name": "tvmgen_default_fused_cast_divide_101", "attrs": {"num_outputs": "1", "num_inputs": "1", "flatten_data": "0", "hash": "b625d4075e500039", "func_name": "tvmgen_default_fused_cast_divide_10"}, "inputs": [[112, 0, 0]]}, {"op": "tvm_op", "name": "tvmgen_default_fused_nn_max_pool2d_multiply_round_clip_cast_5", "attrs": {"num_outputs": "1", "out_layout": "", "hash": "0b1be94b10a46498", "func_name": "tvmgen_default_fused_nn_max_pool2d_multiply_round_clip_cast_5", "layout": "NCHW", "flatten_data": "0", "num_inputs": "1"}, "inputs": [[113, 0, 0]]}, {"op": "tvm_op", "name": "tvmgen_default_fused_cast_divide_11", "attrs": {"num_outputs": "1", "num_inputs": "1", "flatten_data": "0", "hash": "420693980bab160a", "func_name": "tvmgen_default_fused_cast_divide_11"}, "inputs": [[114, 0, 0]]}, {"op": "null", "name": "p72", "inputs": []}, {"op": "null", "name": "p73", "inputs": []}, {"op": "null", "name": "p74", "inputs": []}, {"op": "null", "name": "p75", "inputs": []}, {"op": "tvm_op", "name": "tvmgen_default_fused_nn_conv2d_add_multiply_add_nn_leaky_relu_multiply_round_clip_cast_8", "attrs": {"num_outputs": "1", "num_inputs": "5", "data_layout": "NCHW", "kernel_layout": "OIHW", "hash": "1889b27198337995", "func_name": "tvmgen_default_fused_nn_conv2d_add_multiply_add_nn_leaky_relu_multiply_round_clip_cast_8", "out_layout": "", "flatten_data": "0"}, "inputs": [[115, 0, 0], [116, 0, 0], [117, 0, 0], [118, 0, 0], [119, 0, 0]]}, {"op": "tvm_op", "name": "tvmgen_default_fused_cast_divide_12", "attrs": {"num_outputs": "1", "num_inputs": "1", "flatten_data": "0", "hash": "0c765cca72133e71", "func_name": "tvmgen_default_fused_cast_divide_12"}, "inputs": [[120, 0, 0]]}, {"op": "null", "name": "p76", "inputs": []}, {"op": "null", "name": "p77", "inputs": []}, {"op": "null", "name": "p78", "inputs": []}, {"op": "null", "name": "p79", "inputs": []}, {"op": "tvm_op", "name": "tvmgen_default_fused_nn_conv2d_add_multiply_add_5", "attrs": {"num_outputs": "1", "num_inputs": "5", "data_layout": "NCHW", "kernel_layout": "OIHW", "hash": "b662759e5f655fca", "func_name": "tvmgen_default_fused_nn_conv2d_add_multiply_add_5", "out_layout": "", "flatten_data": "0"}, "inputs": [[121, 0, 0], [122, 0, 0], [123, 0, 0], [124, 0, 0], [125, 0, 0]]}, {"op": "null", "name": "p80", "inputs": []}, {"op": "null", "name": "p81", "inputs": []}, {"op": "null", "name": "p82", "inputs": []}, {"op": "null", "name": "p83", "inputs": []}, {"op": "tvm_op", "name": "tvmgen_default_fused_nn_conv2d_transpose_add_multiply_add_nn_leaky_relu_multiply_round_clip_cas_14150951870605584942__2", "attrs": {"num_outputs": "1", "num_inputs": "5", "data_layout": "NCHW", "kernel_layout": "IOHW", "hash": "13a6685da579890f", "func_name": "tvmgen_default_fused_nn_conv2d_transpose_add_multiply_add_nn_leaky_relu_multiply_round_clip_cas_14150951870605584942__2", "out_layout": "", "flatten_data": "0"}, "inputs": [[126, 0, 0], [127, 0, 0], [128, 0, 0], [129, 0, 0], [130, 0, 0]]}, {"op": "tvm_op", "name": "tvmgen_default_fused_cast_divide_concatenate_multiply_round_clip_cast", "attrs": {"num_outputs": "1", "num_inputs": "2", "flatten_data": "0", "hash": "0f6ecf1948dde699", "func_name": "tvmgen_default_fused_cast_divide_concatenate_multiply_round_clip_cast"}, "inputs": [[131, 0, 0], [113, 0, 0]]}, {"op": "tvm_op", "name": "tvmgen_default_fused_cast_divide_13", "attrs": {"num_outputs": "1", "num_inputs": "1", "flatten_data": "0", "hash": "752b8e789ec6e168", "func_name": "tvmgen_default_fused_cast_divide_13"}, "inputs": [[132, 0, 0]]}, {"op": "null", "name": "p84", "inputs": []}, {"op": "null", "name": "p85", "inputs": []}, {"op": "null", "name": "p86", "inputs": []}, {"op": "null", "name": "p87", "inputs": []}, {"op": "tvm_op", "name": "tvmgen_default_fused_nn_conv2d_add_multiply_add_nn_leaky_relu_multiply_round_clip_cast_9", "attrs": {"num_outputs": "1", "num_inputs": "5", "data_layout": "NCHW", "kernel_layout": "OIHW", "hash": "8b1ac666d012227c", "func_name": "tvmgen_default_fused_nn_conv2d_add_multiply_add_nn_leaky_relu_multiply_round_clip_cast_9", "out_layout": "", "flatten_data": "0"}, "inputs": [[133, 0, 0], [134, 0, 0], [135, 0, 0], [136, 0, 0], [137, 0, 0]]}, {"op": "tvm_op", "name": "tvmgen_default_fused_cast_divide_102", "attrs": {"num_outputs": "1", "num_inputs": "1", "flatten_data": "0", "hash": "b625d4075e500039", "func_name": "tvmgen_default_fused_cast_divide_10"}, "inputs": [[138, 0, 0]]}, {"op": "null", "name": "p88", "inputs": []}, {"op": "null", "name": "p89", "inputs": []}, {"op": "null", "name": "p90", "inputs": []}, {"op": "null", "name": "p91", "inputs": []}, {"op": "tvm_op", "name": "tvmgen_default_fused_nn_conv2d_add_multiply_add_6", "attrs": {"num_outputs": "1", "num_inputs": "5", "data_layout": "NCHW", "kernel_layout": "OIHW", "hash": "f8da97555bd7b4bd", "func_name": "tvmgen_default_fused_nn_conv2d_add_multiply_add_6", "out_layout": "", "flatten_data": "0"}, "inputs": [[139, 0, 0], [140, 0, 0], [141, 0, 0], [142, 0, 0], [143, 0, 0]]}, {"op": "null", "name": "p92", "inputs": []}, {"op": "null", "name": "p93", "inputs": []}, {"op": "null", "name": "p94", "inputs": []}, {"op": "null", "name": "p95", "inputs": []}, {"op": "tvm_op", "name": "tvmgen_default_fused_nn_conv2d_transpose_add_multiply_add_nn_leaky_relu_multiply_round_clip_cas_14150951870605584942__3", "attrs": {"num_outputs": "1", "num_inputs": "5", "data_layout": "NCHW", "kernel_layout": "IOHW", "hash": "e9ec8941501f56c1", "func_name": "tvmgen_default_fused_nn_conv2d_transpose_add_multiply_add_nn_leaky_relu_multiply_round_clip_cas_14150951870605584942__3", "out_layout": "", "flatten_data": "0"}, "inputs": [[144, 0, 0], [145, 0, 0], [146, 0, 0], [147, 0, 0], [148, 0, 0]]}, {"op": "tvm_op", "name": "tvmgen_default_fused_cast_divide_concatenate_multiply_round_clip_cast_1", "attrs": {"num_outputs": "1", "num_inputs": "2", "flatten_data": "0", "hash": "114d0c256e641b12", "func_name": "tvmgen_default_fused_cast_divide_concatenate_multiply_round_clip_cast_1"}, "inputs": [[149, 0, 0], [99, 0, 0]]}, {"op": "tvm_op", "name": "tvmgen_default_fused_cast_divide_14", "attrs": {"num_outputs": "1", "num_inputs": "1", "flatten_data": "0", "hash": "381655eee4838c50", "func_name": "tvmgen_default_fused_cast_divide_14"}, "inputs": [[150, 0, 0]]}, {"op": "null", "name": "p96", "inputs": []}, {"op": "null", "name": "p97", "inputs": []}, {"op": "null", "name": "p98", "inputs": []}, {"op": "null", "name": "p99", "inputs": []}, {"op": "tvm_op", "name": "tvmgen_default_fused_nn_conv2d_add_multiply_add_nn_leaky_relu_multiply_round_clip_cast_10", "attrs": {"num_outputs": "1", "num_inputs": "5", "data_layout": "NCHW", "kernel_layout": "OIHW", "hash": "8df1555becdd7d09", "func_name": "tvmgen_default_fused_nn_conv2d_add_multiply_add_nn_leaky_relu_multiply_round_clip_cast_10", "out_layout": "", "flatten_data": "0"}, "inputs": [[151, 0, 0], [152, 0, 0], [153, 0, 0], [154, 0, 0], [155, 0, 0]]}, {"op": "tvm_op", "name": "tvmgen_default_fused_cast_divide_82", "attrs": {"num_outputs": "1", "num_inputs": "1", "flatten_data": "0", "hash": "67262316d98e1e1f", "func_name": "tvmgen_default_fused_cast_divide_8"}, "inputs": [[156, 0, 0]]}, {"op": "null", "name": "p100", "inputs": []}, {"op": "null", "name": "p101", "inputs": []}, {"op": "null", "name": "p102", "inputs": []}, {"op": "null", "name": "p103", "inputs": []}, {"op": "tvm_op", "name": "tvmgen_default_fused_nn_conv2d_add_multiply_add_7", "attrs": {"num_outputs": "1", "num_inputs": "5", "data_layout": "NCHW", "kernel_layout": "OIHW", "hash": "67b92c04ebdb3941", "func_name": "tvmgen_default_fused_nn_conv2d_add_multiply_add_7", "out_layout": "", "flatten_data": "0"}, "inputs": [[157, 0, 0], [158, 0, 0], [159, 0, 0], [160, 0, 0], [161, 0, 0]]}, {"op": "null", "name": "p104", "inputs": []}, {"op": "null", "name": "p105", "inputs": []}, {"op": "null", "name": "p106", "inputs": []}, {"op": "null", "name": "p107", "inputs": []}, {"op": "tvm_op", "name": "tvmgen_default_fused_nn_conv2d_transpose_add_multiply_add_nn_leaky_relu_multiply_round_clip_cas_14150951870605584942__4", "attrs": {"num_outputs": "1", "num_inputs": "5", "data_layout": "NCHW", "kernel_layout": "IOHW", "hash": "205a8a0db87c7659", "func_name": "tvmgen_default_fused_nn_conv2d_transpose_add_multiply_add_nn_leaky_relu_multiply_round_clip_cas_14150951870605584942__4", "out_layout": "", "flatten_data": "0"}, "inputs": [[162, 0, 0], [163, 0, 0], [164, 0, 0], [165, 0, 0], [166, 0, 0]]}, {"op": "tvm_op", "name": "tvmgen_default_fused_cast_divide_concatenate_multiply_round_clip_cast_2", "attrs": {"num_outputs": "1", "num_inputs": "2", "flatten_data": "0", "hash": "20cee8ad9f6f33e0", "func_name": "tvmgen_default_fused_cast_divide_concatenate_multiply_round_clip_cast_2"}, "inputs": [[167, 0, 0], [85, 0, 0]]}, {"op": "tvm_op", "name": "tvmgen_default_fused_cast_divide_15", "attrs": {"num_outputs": "1", "num_inputs": "1", "flatten_data": "0", "hash": "07813549b8c4f156", "func_name": "tvmgen_default_fused_cast_divide_15"}, "inputs": [[168, 0, 0]]}, {"op": "null", "name": "p108", "inputs": []}, {"op": "null", "name": "p109", "inputs": []}, {"op": "null", "name": "p110", "inputs": []}, {"op": "null", "name": "p111", "inputs": []}, {"op": "tvm_op", "name": "tvmgen_default_fused_nn_conv2d_add_multiply_add_nn_leaky_relu_multiply_round_clip_cast_11", "attrs": {"num_outputs": "1", "num_inputs": "5", "data_layout": "NCHW", "kernel_layout": "OIHW", "hash": "1e4cb4ae3537446b", "func_name": "tvmgen_default_fused_nn_conv2d_add_multiply_add_nn_leaky_relu_multiply_round_clip_cast_11", "out_layout": "", "flatten_data": "0"}, "inputs": [[169, 0, 0], [170, 0, 0], [171, 0, 0], [172, 0, 0], [173, 0, 0]]}, {"op": "tvm_op", "name": "tvmgen_default_fused_cast_divide_62", "attrs": {"num_outputs": "1", "num_inputs": "1", "flatten_data": "0", "hash": "124e1fbf92ab5a82", "func_name": "tvmgen_default_fused_cast_divide_6"}, "inputs": [[174, 0, 0]]}, {"op": "null", "name": "p112", "inputs": []}, {"op": "null", "name": "p113", "inputs": []}, {"op": "null", "name": "p114", "inputs": []}, {"op": "null", "name": "p115", "inputs": []}, {"op": "tvm_op", "name": "tvmgen_default_fused_nn_conv2d_add_multiply_add_8", "attrs": {"num_outputs": "1", "num_inputs": "5", "data_layout": "NCHW", "kernel_layout": "OIHW", "hash": "efe980a7db7571fe", "func_name": "tvmgen_default_fused_nn_conv2d_add_multiply_add_8", "out_layout": "", "flatten_data": "0"}, "inputs": [[175, 0, 0], [176, 0, 0], [177, 0, 0], [178, 0, 0], [179, 0, 0]]}, {"op": "null", "name": "p116", "inputs": []}, {"op": "null", "name": "p117", "inputs": []}, {"op": "null", "name": "p118", "inputs": []}, {"op": "null", "name": "p119", "inputs": []}, {"op": "tvm_op", "name": "tvmgen_default_fused_nn_conv2d_transpose_add_multiply_add_nn_leaky_relu_multiply_round_clip_cas_14150951870605584942__5", "attrs": {"num_outputs": "1", "num_inputs": "5", "data_layout": "NCHW", "kernel_layout": "IOHW", "hash": "6be3dd27938895d6", "func_name": "tvmgen_default_fused_nn_conv2d_transpose_add_multiply_add_nn_leaky_relu_multiply_round_clip_cas_14150951870605584942__5", "out_layout": "", "flatten_data": "0"}, "inputs": [[180, 0, 0], [181, 0, 0], [182, 0, 0], [183, 0, 0], [184, 0, 0]]}, {"op": "null", "name": "p120", "inputs": []}, {"op": "null", "name": "p121", "inputs": []}, {"op": "null", "name": "p122", "inputs": []}, {"op": "null", "name": "p123", "inputs": []}, {"op": "tvm_op", "name": "tvmgen_default_fused_nn_conv2d_add_multiply_add_nn_leaky_relu_multiply_round_clip_cast_12", "attrs": {"num_outputs": "1", "num_inputs": "5", "data_layout": "NCHW", "kernel_layout": "OIHW", "hash": "6e3cc0edcb702b7f", "func_name": "tvmgen_default_fused_nn_conv2d_add_multiply_add_nn_leaky_relu_multiply_round_clip_cast_12", "out_layout": "", "flatten_data": "0"}, "inputs": [[37, 0, 0], [186, 0, 0], [187, 0, 0], [188, 0, 0], [189, 0, 0]]}, {"op": "tvm_op", "name": "tvmgen_default_fused_cast_divide_16", "attrs": {"num_outputs": "1", "num_inputs": "1", "flatten_data": "0", "hash": "2671da4b32d0b376", "func_name": "tvmgen_default_fused_cast_divide_16"}, "inputs": [[190, 0, 0]]}, {"op": "null", "name": "p124", "inputs": []}, {"op": "null", "name": "p125", "inputs": []}, {"op": "null", "name": "p126", "inputs": []}, {"op": "null", "name": "p127", "inputs": []}, {"op": "tvm_op", "name": "tvmgen_default_fused_nn_conv2d_add_multiply_add_9", "attrs": {"num_outputs": "1", "num_inputs": "5", "data_layout": "NCHW", "kernel_layout": "OIHW", "hash": "c09ba6cc46ab4e84", "func_name": "tvmgen_default_fused_nn_conv2d_add_multiply_add_9", "out_layout": "", "flatten_data": "0"}, "inputs": [[191, 0, 0], [192, 0, 0], [193, 0, 0], [194, 0, 0], [195, 0, 0]]}, {"op": "null", "name": "p128", "inputs": []}, {"op": "null", "name": "p129", "inputs": []}, {"op": "null", "name": "p130", "inputs": []}, {"op": "null", "name": "p131", "inputs": []}, {"op": "tvm_op", "name": "tvmgen_default_fused_nn_conv2d_transpose_add_multiply_add_nn_leaky_relu_multiply_round_clip_cas_14150951870605584942__6", "attrs": {"num_outputs": "1", "num_inputs": "5", "data_layout": "NCHW", "kernel_layout": "IOHW", "hash": "5ec704c32d6894f0", "func_name": "tvmgen_default_fused_nn_conv2d_transpose_add_multiply_add_nn_leaky_relu_multiply_round_clip_cas_14150951870605584942__6", "out_layout": "", "flatten_data": "0"}, "inputs": [[196, 0, 0], [197, 0, 0], [198, 0, 0], [199, 0, 0], [200, 0, 0]]}, {"op": "tvm_op", "name": "tvmgen_default_fused_cast_divide_111", "attrs": {"num_outputs": "1", "num_inputs": "1", "flatten_data": "0", "hash": "264e358d1dbf32bc", "func_name": "tvmgen_default_fused_cast_divide_1"}, "inputs": [[201, 0, 0]]}, {"op": "null", "name": "p132", "inputs": []}, {"op": "null", "name": "p133", "inputs": []}, {"op": "null", "name": "p134", "inputs": []}, {"op": "null", "name": "p135", "inputs": []}, {"op": "tvm_op", "name": "tvmgen_default_fused_nn_conv2d_add_multiply_add_nn_leaky_relu_multiply_round_clip_cast_13", "attrs": {"num_outputs": "1", "num_inputs": "5", "data_layout": "NCHW", "kernel_layout": "OIHW", "hash": "90bc26627c740592", "func_name": "tvmgen_default_fused_nn_conv2d_add_multiply_add_nn_leaky_relu_multiply_round_clip_cast_13", "out_layout": "", "flatten_data": "0"}, "inputs": [[202, 0, 0], [203, 0, 0], [204, 0, 0], [205, 0, 0], [206, 0, 0]]}, {"op": "tvm_op", "name": "tvmgen_default_fused_cast_divide_63", "attrs": {"num_outputs": "1", "num_inputs": "1", "flatten_data": "0", "hash": "124e1fbf92ab5a82", "func_name": "tvmgen_default_fused_cast_divide_6"}, "inputs": [[207, 0, 0]]}, {"op": "null", "name": "p136", "inputs": []}, {"op": "null", "name": "p137", "inputs": []}, {"op": "null", "name": "p138", "inputs": []}, {"op": "null", "name": "p139", "inputs": []}, {"op": "tvm_op", "name": "tvmgen_default_fused_nn_conv2d_add_multiply_add_81", "attrs": {"num_outputs": "1", "num_inputs": "5", "data_layout": "NCHW", "kernel_layout": "OIHW", "hash": "efe980a7db7571fe", "func_name": "tvmgen_default_fused_nn_conv2d_add_multiply_add_8", "out_layout": "", "flatten_data": "0"}, "inputs": [[208, 0, 0], [209, 0, 0], [210, 0, 0], [211, 0, 0], [212, 0, 0]]}, {"op": "null", "name": "p140", "inputs": []}, {"op": "null", "name": "p141", "inputs": []}, {"op": "null", "name": "p142", "inputs": []}, {"op": "null", "name": "p143", "inputs": []}, {"op": "tvm_op", "name": "tvmgen_default_fused_nn_conv2d_transpose_add_multiply_add_nn_leaky_relu_multiply_round_clip_cas_14150951870605584942__7", "attrs": {"num_outputs": "1", "num_inputs": "5", "data_layout": "NCHW", "kernel_layout": "IOHW", "hash": "b92e0b044f16c90b", "func_name": "tvmgen_default_fused_nn_conv2d_transpose_add_multiply_add_nn_leaky_relu_multiply_round_clip_cas_14150951870605584942__7", "out_layout": "", "flatten_data": "0"}, "inputs": [[213, 0, 0], [214, 0, 0], [215, 0, 0], [216, 0, 0], [217, 0, 0]]}, {"op": "tvm_op", "name": "tvmgen_default_fused_cast_divide_cast_divide_concatenate_multiply_round_clip_cast", "attrs": {"num_outputs": "1", "num_inputs": "2", "flatten_data": "0", "hash": "1fecd4308893ae70", "func_name": "tvmgen_default_fused_cast_divide_cast_divide_concatenate_multiply_round_clip_cast"}, "inputs": [[185, 0, 0], [218, 0, 0]]}, {"op": "tvm_op", "name": "tvmgen_default_fused_cast_divide_17", "attrs": {"num_outputs": "1", "num_inputs": "1", "flatten_data": "0", "hash": "0eeb09c7bc47731a", "func_name": "tvmgen_default_fused_cast_divide_17"}, "inputs": [[219, 0, 0]]}, {"op": "null", "name": "p144", "inputs": []}, {"op": "null", "name": "p145", "inputs": []}, {"op": "null", "name": "p146", "inputs": []}, {"op": "null", "name": "p147", "inputs": []}, {"op": "tvm_op", "name": "tvmgen_default_fused_nn_conv2d_add_multiply_add_nn_leaky_relu_multiply_round_clip_cast_14", "attrs": {"num_outputs": "1", "num_inputs": "5", "data_layout": "NCHW", "kernel_layout": "OIHW", "hash": "933b024926221b95", "func_name": "tvmgen_default_fused_nn_conv2d_add_multiply_add_nn_leaky_relu_multiply_round_clip_cast_14", "out_layout": "", "flatten_data": "0"}, "inputs": [[220, 0, 0], [221, 0, 0], [222, 0, 0], [223, 0, 0], [224, 0, 0]]}, {"op": "tvm_op", "name": "tvmgen_default_fused_cast_divide_18", "attrs": {"num_outputs": "1", "num_inputs": "1", "flatten_data": "0", "hash": "c93fa187c25fefed", "func_name": "tvmgen_default_fused_cast_divide_18"}, "inputs": [[225, 0, 0]]}, {"op": "null", "name": "p148", "inputs": []}, {"op": "null", "name": "p149", "inputs": []}, {"op": "null", "name": "p150", "inputs": []}, {"op": "tvm_op", "name": "tvmgen_default_fused_nn_conv2d_add_add", "attrs": {"num_outputs": "1", "num_inputs": "4", "data_layout": "NCHW", "kernel_layout": "OIHW", "hash": "1b36144dd31325ea", "func_name": "tvmgen_default_fused_nn_conv2d_add_add", "out_layout": "", "flatten_data": "0"}, "inputs": [[226, 0, 0], [227, 0, 0], [228, 0, 0], [229, 0, 0]]}, {"op": "null", "name": "p151", "inputs": []}, {"op": "null", "name": "p152", "inputs": []}, {"op": "tvm_op", "name": "tvmgen_default_fused_nn_conv2d_add_sigmoid", "attrs": {"num_outputs": "1", "num_inputs": "3", "data_layout": "NCHW", "kernel_layout": "OIHW", "hash": "0fa0a8b1c1fd95be", "func_name": "tvmgen_default_fused_nn_conv2d_add_sigmoid", "out_layout": "", "flatten_data": "0"}, "inputs": [[230, 0, 0], [231, 0, 0], [232, 0, 0]]}], "arg_nodes": [0, 1, 2, 3, 4, 7, 8, 9, 10, 14, 15, 16, 17, 20, 21, 22, 23, 27, 28, 29, 30, 33, 34, 35, 36, 40, 41, 42, 43, 46, 47, 48, 49, 51, 52, 53, 54, 57, 58, 59, 60, 63, 64, 65, 66, 68, 69, 70, 71, 74, 75, 76, 77, 80, 81, 82, 83, 88, 89, 90, 91, 94, 95, 96, 97, 102, 103, 104, 105, 108, 109, 110, 111, 116, 117, 118, 119, 122, 123, 124, 125, 127, 128, 129, 130, 134, 135, 136, 137, 140, 141, 142, 143, 145, 146, 147, 148, 152, 153, 154, 155, 158, 159, 160, 161, 163, 164, 165, 166, 170, 171, 172, 173, 176, 177, 178, 179, 181, 182, 183, 184, 186, 187, 188, 189, 192, 193, 194, 195, 197, 198, 199, 200, 203, 204, 205, 206, 209, 210, 211, 212, 214, 215, 216, 217, 221, 222, 223, 224, 227, 228, 229, 231, 232], "heads": [[233, 0, 0]], "attrs": {"dltype": ["list_str", ["float32", "float32", "float32", "float32", "float32", "int8", "float32", "float32", "float32", "float32", "float32", "float32", "int8", "float32", "float32", "float32", "float32", "float32", "int8", "float32", "float32", "float32", "float32", "float32", "float32", "int8", "float32", "float32", "float32", "float32", "float32", "int8", "float32", "float32", "float32", "float32", "float32", "float32", "int8", "float32", "float32", "float32", "float32", "float32", "int8", "float32", "float32", "float32", "float32", "float32", "float32", "float32", "float32", "float32", "float32", "int8", "float32", "float32", "float32", "float32", "float32", "int8", "float32", "float32", "float32", "float32", "float32", "float32", "float32", "float32", "float32", "float32", "int8", "float32", "float32", "float32", "float32", "float32", "int8", "float32", "float32", "float32", "float32", "float32", "int8", "float32", "int8", "float32", "float32", "float32", "float32", "float32", "int8", "float32", "float32", "float32", "float32", "float32", "int8", "float32", "int8", "float32", "float32", "float32", "float32", "float32", "int8", "float32", "float32", "float32", "float32", "float32", "int8", "float32", "int8", "float32", "float32", "float32", "float32", "float32", "int8", "float32", "float32", "float32", "float32", "float32", "float32", "float32", "float32", "float32", "float32", "int8", "int8", "float32", "float32", "float32", "float32", "float32", "int8", "float32", "float32", "float32", "float32", "float32", "float32", "float32", "float32", "float32", "float32", "int8", "int8", "float32", "float32", "float32", "float32", "float32", "int8", "float32", "float32", "float32", "float32", "float32", "float32", "float32", "float32", "float32", "float32", "int8", "int8", "float32", "float32", "float32", "float32", "float32", "int8", "float32", "float32", "float32", "float32", "float32", "float32", "float32", "float32", "float32", "float32", "int8", "float32", "float32", "float32", "float32", "int8", "float32", "float32", "float32", "float32", "float32", "float32", "float32", "float32", "float32", "float32", "int8", "float32", "float32", "float32", "float32", "float32", "int8", "float32", "float32", "float32", "float32", "float32", "float32", "float32", "float32", "float32", "float32", "int8", "int8", "float32", "float32", "float32", "float32", "float32", "int8", "float32", "float32", "float32", "float32", "float32", "float32", "float32", "float32"]], "device_index": ["list_int", [2, 2, 2, 2, 2, 2, 2, 2, 2, 2, 2, 2, 2, 2, 2, 2, 2, 2, 2, 2, 2, 2, 2, 2, 2, 2, 2, 2, 2, 2, 2, 2, 2, 2, 2, 2, 2, 2, 2, 2, 2, 2, 2, 2, 2, 2, 2, 2, 2, 2, 2, 2, 2, 2, 2, 2, 2, 2, 2, 2, 2, 2, 2, 2, 2, 2, 2, 2, 2, 2, 2, 2, 2, 2, 2, 2, 2, 2, 2, 2, 2, 2, 2, 2, 2, 2, 2, 2, 2, 2, 2, 2, 2, 2, 2, 2, 2, 2, 2, 2, 2, 2, 2, 2, 2, 2, 2, 2, 2, 2, 2, 2, 2, 2, 2, 2, 2, 2, 2, 2, 2, 2, 2, 2, 2, 2, 2, 2, 2, 2, 2, 2, 2, 2, 2, 2, 2, 2, 2, 2, 2, 2, 2, 2, 2, 2, 2, 2, 2, 2, 2, 2, 2, 2, 2, 2, 2, 2, 2, 2, 2, 2, 2, 2, 2, 2, 2, 2, 2, 2, 2, 2, 2, 2, 2, 2, 2, 2, 2, 2, 2, 2, 2, 2, 2, 2, 2, 2, 2, 2, 2, 2, 2, 2, 2, 2, 2, 2, 2, 2, 2, 2, 2, 2, 2, 2, 2, 2, 2, 2, 2, 2, 2, 2, 2, 2, 2, 2, 2, 2, 2, 2, 2, 2, 2, 2, 2, 2, 2, 2, 2, 2, 2, 2]], "storage_id": ["list_int", [0, 1, 2, 3, 4, 5, 6, 7, 8, 9, 10, 11, 6, 11, 12, 13, 14, 15, 16, 11, 17, 18, 19, 20, 21, 22, 21, 23, 24, 25, 26, 27, 21, 28, 29, 30, 31, 32, 33, 34, 35, 36, 37, 38, 39, 34, 40, 41, 42, 43, 44, 45, 46, 47, 48, 34, 21, 49, 50, 51, 52, 44, 21, 53, 54, 55, 56, 57, 58, 59, 60, 61, 21, 11, 62, 63, 64, 65, 57, 11, 66, 67, 68, 69, 70, 11, 71, 72, 73, 74, 75, 76, 77, 72, 78, 79, 80, 81, 82, 72, 83, 84, 85, 86, 87, 88, 89, 84, 90, 91, 92, 93, 94, 84, 95, 96, 97, 98, 99, 100, 101, 96, 102, 103, 104, 105, 106, 107, 108, 109, 110, 96, 106, 84, 111, 112, 113, 114, 115, 84, 116, 117, 118, 119, 120, 121, 122, 123, 124, 84, 120, 72, 125, 126, 127, 128, 129, 72, 130, 131, 132, 133, 134, 135, 136, 137, 138, 72, 134, 11, 139, 140, 141, 142, 143, 11, 144, 145, 146, 147, 148, 149, 150, 151, 152, 11, 153, 154, 155, 156, 157, 148, 158, 159, 160, 161, 32, 162, 163, 164, 165, 148, 32, 166, 167, 168, 169, 170, 32, 171, 172, 173, 174, 175, 176, 177, 178, 179, 32, 175, 180, 181, 182, 183, 184, 185, 180, 186, 187, 188, 189, 190, 191, 192]], "shape": ["list_shape", [[1, 3, 256, 256], [64, 3, 3, 3], [1, 64, 1, 1], [1, 64, 1, 1], [1, 64, 1, 1], [1, 64, 256, 256], [1, 64, 256, 256], [64, 64, 3, 3], [1, 64, 1, 1], [1, 64, 1, 1], [1, 64, 1, 1], [1, 64, 256, 256], [1, 64, 128, 128], [1, 64, 128, 128], [32, 64, 3, 3], [1, 32, 1, 1], [1, 32, 1, 1], [1, 32, 1, 1], [1, 32, 128, 128], [1, 32, 128, 128], [32, 32, 3, 3], [1, 32, 1, 1], [1, 32, 1, 1], [1, 32, 1, 1], [1, 32, 128, 128], [1, 32, 64, 64], [1, 32, 64, 64], [16, 32, 3, 3], [1, 16, 1, 1], [1, 16, 1, 1], [1, 16, 1, 1], [1, 16, 64, 64], [1, 16, 64, 64], [16, 16, 3, 3], [1, 16, 1, 1], [1, 16, 1, 1], [1, 16, 1, 1], [1, 16, 64, 64], [1, 16, 32, 32], [1, 16, 32, 32], [16, 16, 3, 3], [1, 16, 1, 1], [1, 16, 1, 1], [1, 16, 1, 1], [1, 16, 32, 32], [1, 16, 32, 32], [16, 16, 3, 3], [1, 16, 1, 1], [1, 16, 1, 1], [1, 16, 1, 1], [1, 16, 32, 32], [16, 16, 3, 3], [1, 16, 1, 1], [1, 16, 1, 1], [1, 16, 1, 1], [1, 16, 64, 64], [1, 16, 64, 64], [32, 16, 3, 3], [1, 32, 1, 1], [1, 32, 1, 1], [1, 32, 1, 1], [1, 32, 64, 64], [1, 32, 64, 64], [32, 32, 3, 3], [1, 32, 1, 1], [1, 32, 1, 1], [1, 32, 1, 1], [1, 32, 64, 64], [32, 32, 3, 3], [1, 32, 1, 1], [1, 32, 1, 1], [1, 32, 1, 1], [1, 32, 128, 128], [1, 32, 128, 128], [128, 32, 3, 3], [1, 128, 1, 1], [1, 128, 1, 1], [1, 128, 1, 1], [1, 128, 128, 128], [1, 128, 128, 128], [128, 128, 3, 3], [1, 128, 1, 1], [1, 128, 1, 1], [1, 128, 1, 1], [1, 128, 128, 128], [1, 128, 128, 128], [1, 128, 64, 64], [1, 128, 64, 64], [256, 128, 3, 3], [1, 256, 1, 1], [1, 256, 1, 1], [1, 256, 1, 1], [1, 256, 64, 64], [1, 256, 64, 64], [256, 256, 3, 3], [1, 256, 1, 1], [1, 256, 1, 1], [1, 256, 1, 1], [1, 256, 64, 64], [1, 256, 64, 64], [1, 256, 32, 32], [1, 256, 32, 32], [512, 256, 3, 3], [1, 512, 1, 1], [1, 512, 1, 1], [1, 512, 1, 1], [1, 512, 32, 32], [1, 512, 32, 32], [512, 512, 3, 3], [1, 512, 1, 1], [1, 512, 1, 1], [1, 512, 1, 1], [1, 512, 32, 32], [1, 512, 32, 32], [1, 512, 16, 16], [1, 512, 16, 16], [1024, 512, 3, 3], [1, 1024, 1, 1], [1, 1024, 1, 1], [1, 1024, 1, 1], [1, 1024, 16, 16], [1, 1024, 16, 16], [1024, 1024, 3, 3], [1, 1024, 1, 1], [1, 1024, 1, 1], [1, 1024, 1, 1], [1, 1024, 16, 16], [1024, 512, 3, 3], [1, 512, 1, 1], [1, 512, 1, 1], [1, 512, 1, 1], [1, 512, 32, 32], [1, 1024, 32, 32], [1, 1024, 32, 32], [512, 1024, 3, 3], [1, 512, 1, 1], [1, 512, 1, 1], [1, 512, 1, 1], [1, 512, 32, 32], [1, 512, 32, 32], [512, 512, 3, 3], [1, 512, 1, 1], [1, 512, 1, 1], [1, 512, 1, 1], [1, 512, 32, 32], [512, 256, 3, 3], [1, 256, 1, 1], [1, 256, 1, 1], [1, 256, 1, 1], [1, 256, 64, 64], [1, 512, 64, 64], [1, 512, 64, 64], [256, 512, 3, 3], [1, 256, 1, 1], [1, 256, 1, 1], [1, 256, 1, 1], [1, 256, 64, 64], [1, 256, 64, 64], [256, 256, 3, 3], [1, 256, 1, 1], [1, 256, 1, 1], [1, 256, 1, 1], [1, 256, 64, 64], [256, 128, 3, 3], [1, 128, 1, 1], [1, 128, 1, 1], [1, 128, 1, 1], [1, 128, 128, 128], [1, 256, 128, 128], [1, 256, 128, 128], [128, 256, 3, 3], [1, 128, 1, 1], [1, 128, 1, 1], [1, 128, 1, 1], [1, 128, 128, 128], [1, 128, 128, 128], [128, 128, 3, 3], [1, 128, 1, 1], [1, 128, 1, 1], [1, 128, 1, 1], [1, 128, 128, 128], [128, 64, 3, 3], [1, 64, 1, 1], [1, 64, 1, 1], [1, 64, 1, 1], [1, 64, 256, 256], [64, 16, 3, 3], [1, 64, 1, 1], [1, 64, 1, 1], [1, 64, 1, 1], [1, 64, 64, 64], [1, 64, 64, 64], [64, 64, 3, 3], [1, 64, 1, 1], [1, 64, 1, 1], [1, 64, 1, 1], [1, 64, 64, 64], [64, 64, 3, 3], [1, 64, 1, 1], [1, 64, 1, 1], [1, 64, 1, 1], [1, 64, 128, 128], [1, 64, 128, 128], [128, 64, 3, 3], [1, 128, 1, 1], [1, 128, 1, 1], [1, 128, 1, 1], [1, 128, 128, 128], [1, 128, 128, 128], [128, 128, 3, 3], [1, 128, 1, 1], [1, 128, 1, 1], [1, 128, 1, 1], [1, 128, 128, 128], [128, 128, 3, 3], [1, 128, 1, 1], [1, 128, 1, 1], [1, 128, 1, 1], [1, 128, 256, 256], [1, 192, 256, 256], [1, 192, 256, 256], [256, 192, 3, 3], [1, 256, 1, 1], [1, 256, 1, 1], [1, 256, 1, 1], [1, 256, 256, 256], [1, 256, 256, 256], [256, 256, 3, 3], [1, 256, 1, 1], [1, 256, 1, 1], [1, 256, 256, 256], [1, 256, 3, 3], [1, 1, 1], [1, 1, 256, 256]]]}, "node_row_ptr": [0, 1, 2, 3, 4, 5, 6, 7, 8, 9, 10, 11, 12, 13, 14, 15, 16, 17, 18, 19, 20, 21, 22, 23, 24, 25, 26, 27, 28, 29, 30, 31, 32, 33, 34, 35, 36, 37, 38, 39, 40, 41, 42, 43, 44, 45, 46, 47, 48, 49, 50, 51, 52, 53, 54, 55, 56, 57, 58, 59, 60, 61, 62, 63, 64, 65, 66, 67, 68, 69, 70, 71, 72, 73, 74, 75, 76, 77, 78, 79, 80, 81, 82, 83, 84, 85, 86, 87, 88, 89, 90, 91, 92, 93, 94, 95, 96, 97, 98, 99, 100, 101, 102, 103, 104, 105, 106, 107, 108, 109, 110, 111, 112, 113, 114, 115, 116, 117, 118, 119, 120, 121, 122, 123, 124, 125, 126, 127, 128, 129, 130, 131, 132, 133, 134, 135, 136, 137, 138, 139, 140, 141, 142, 143, 144, 145, 146, 147, 148, 149, 150, 151, 152, 153, 154, 155, 156, 157, 158, 159, 160, 161, 162, 163, 164, 165, 166, 167, 168, 169, 170, 171, 172, 173, 174, 175, 176, 177, 178, 179, 180, 181, 182, 183, 184, 185, 186, 187, 188, 189, 190, 191, 192, 193, 194, 195, 196, 197, 198, 199, 200, 201, 202, 203, 204, 205, 206, 207, 208, 209, 210, 211, 212, 213, 214, 215, 216, 217, 218, 219, 220, 221, 222, 223, 224, 225, 226, 227, 228, 229, 230, 231, 232, 233, 234], "extra": {"inputs": [0], "outputs": [233]}}