{"nodes": [{"op": "null", "name": "input_39", "attrs": {"num_outputs": "1", "num_inputs": "5", "data_layout": "NCHW", "kernel_layout": "OIHW", "hash": "67b92c04ebdb3941", "func_name": "tvmgen_default_fused_nn_conv2d_add_multiply_add_2", "out_layout": "", "flatten_data": "0"}, "inputs": []}, {"op": "tvm_op", "name": "tvmgen_default_fused_nn_max_pool2d_3", "attrs": {"num_outputs": "1", "out_layout": "", "hash": "6cf9d9884889295b", "func_name": "tvmgen_default_fused_nn_max_pool2d_3", "layout": "NCHW", "flatten_data": "0", "num_inputs": "1"}, "inputs": [[0, 0, 0]]}, {"op": "null", "name": "p28", "inputs": []}, {"op": "null", "name": "p29", "inputs": []}, {"op": "null", "name": "p30", "inputs": []}, {"op": "tvm_op", "name": "tvmgen_default_fused_nn_conv2d_add_add_nn_leaky_relu_3", "attrs": {"num_outputs": "1", "num_inputs": "4", "data_layout": "NCHW", "kernel_layout": "OIHW", "hash": "dec16ca09bbf0bf0", "func_name": "tvmgen_default_fused_nn_conv2d_add_add_nn_leaky_relu_3", "out_layout": "", "flatten_data": "0"}, "inputs": [[1, 0, 0], [2, 0, 0], [3, 0, 0], [4, 0, 0]]}, {"op": "null", "name": "p31", "inputs": []}, {"op": "null", "name": "p32", "inputs": []}, {"op": "null", "name": "p33", "inputs": []}, {"op": "null", "name": "p34", "inputs": []}, {"op": "tvm_op", "name": "tvmgen_default_fused_nn_conv2d_add_multiply_add_3", "attrs": {"num_outputs": "1", "num_inputs": "5", "out_layout": "", "kernel_layout": "OIHW", "hash": "f8da97555bd7b4bd", "func_name": "tvmgen_default_fused_nn_conv2d_add_multiply_add_3", "data_layout": "NCHW", "flatten_data": "0"}, "inputs": [[5, 0, 0], [6, 0, 0], [7, 0, 0], [8, 0, 0], [9, 0, 0]]}, {"op": "tvm_op", "name": "tvmgen_default_fused_nn_max_pool2d_4", "attrs": {"num_outputs": "1", "out_layout": "", "hash": "00a5e85c638e5217", "func_name": "tvmgen_default_fused_nn_max_pool2d_4", "layout": "NCHW", "flatten_data": "0", "num_inputs": "1"}, "inputs": [[10, 0, 0]]}, {"op": "null", "name": "p39", "inputs": []}, {"op": "null", "name": "p40", "inputs": []}, {"op": "null", "name": "p41", "inputs": []}, {"op": "tvm_op", "name": "tvmgen_default_fused_nn_conv2d_add_add_nn_leaky_relu_4", "attrs": {"num_outputs": "1", "num_inputs": "4", "data_layout": "NCHW", "kernel_layout": "OIHW", "hash": "5debef7d4c0ec709", "func_name": "tvmgen_default_fused_nn_conv2d_add_add_nn_leaky_relu_4", "out_layout": "", "flatten_data": "0"}, "inputs": [[11, 0, 0], [12, 0, 0], [13, 0, 0], [14, 0, 0]]}, {"op": "null", "name": "p42", "inputs": []}, {"op": "null", "name": "p43", "inputs": []}, {"op": "null", "name": "p44", "inputs": []}, {"op": "null", "name": "p45", "inputs": []}, {"op": "tvm_op", "name": "tvmgen_default_fused_nn_conv2d_add_multiply_add_4", "attrs": {"num_outputs": "1", "num_inputs": "5", "data_layout": "NCHW", "kernel_layout": "OIHW", "hash": "b662759e5f655fca", "func_name": "tvmgen_default_fused_nn_conv2d_add_multiply_add_4", "out_layout": "", "flatten_data": "0"}, "inputs": [[15, 0, 0], [16, 0, 0], [17, 0, 0], [18, 0, 0], [19, 0, 0]]}, {"op": "null", "name": "p46", "inputs": []}, {"op": "null", "name": "p47", "inputs": []}, {"op": "null", "name": "p48", "inputs": []}, {"op": "null", "name": "p49", "inputs": []}, {"op": "tvm_op", "name": "tvmgen_default_fused_nn_conv2d_transpose_add_multiply_add_nn_leaky_relu_1", "attrs": {"num_outputs": "1", "num_inputs": "5", "data_layout": "NCHW", "kernel_layout": "IOHW", "hash": "e7ab89f60ff3a977", "func_name": "tvmgen_default_fused_nn_conv2d_transpose_add_multiply_add_nn_leaky_relu_1", "out_layout": "", "flatten_data": "0"}, "inputs": [[20, 0, 0], [21, 0, 0], [22, 0, 0], [23, 0, 0], [24, 0, 0]]}, {"op": "tvm_op", "name": "tvmgen_default_fused_concatenate", "attrs": {"num_outputs": "1", "num_inputs": "2", "flatten_data": "0", "hash": "959ced0b6372f5f8", "func_name": "tvmgen_default_fused_concatenate"}, "inputs": [[25, 0, 0], [10, 0, 0]]}, {"op": "null", "name": "p50", "inputs": []}, {"op": "null", "name": "p51", "inputs": []}, {"op": "null", "name": "p52", "inputs": []}, {"op": "tvm_op", "name": "tvmgen_default_fused_nn_conv2d_add_add_nn_leaky_relu_5", "attrs": {"num_outputs": "1", "num_inputs": "4", "data_layout": "NCHW", "kernel_layout": "OIHW", "hash": "f69df5e40ca46651", "func_name": "tvmgen_default_fused_nn_conv2d_add_add_nn_leaky_relu_5", "out_layout": "", "flatten_data": "0"}, "inputs": [[26, 0, 0], [27, 0, 0], [28, 0, 0], [29, 0, 0]]}, {"op": "null", "name": "p53", "inputs": []}, {"op": "null", "name": "p54", "inputs": []}, {"op": "null", "name": "p55", "inputs": []}, {"op": "null", "name": "p56", "inputs": []}, {"op": "tvm_op", "name": "tvmgen_default_fused_nn_conv2d_add_multiply_add_31", "attrs": {"num_outputs": "1", "num_inputs": "5", "data_layout": "NCHW", "kernel_layout": "OIHW", "hash": "f8da97555bd7b4bd", "func_name": "tvmgen_default_fused_nn_conv2d_add_multiply_add_3", "out_layout": "", "flatten_data": "0"}, "inputs": [[30, 0, 0], [31, 0, 0], [32, 0, 0], [33, 0, 0], [34, 0, 0]]}, {"op": "null", "name": "p57", "inputs": []}, {"op": "null", "name": "p58", "inputs": []}, {"op": "null", "name": "p59", "inputs": []}, {"op": "null", "name": "p60", "inputs": []}, {"op": "tvm_op", "name": "tvmgen_default_fused_nn_conv2d_transpose_add_multiply_add_nn_leaky_relu_2", "attrs": {"num_outputs": "1", "num_inputs": "5", "data_layout": "NCHW", "kernel_layout": "IOHW", "hash": "1d308a22b335e77b", "func_name": "tvmgen_default_fused_nn_conv2d_transpose_add_multiply_add_nn_leaky_relu_2", "out_layout": "", "flatten_data": "0"}, "inputs": [[35, 0, 0], [36, 0, 0], [37, 0, 0], [38, 0, 0], [39, 0, 0]]}, {"op": "tvm_op", "name": "tvmgen_default_fused_concatenate_1", "attrs": {"num_outputs": "1", "num_inputs": "2", "flatten_data": "0", "hash": "f227f8e2e0c693a0", "func_name": "tvmgen_default_fused_concatenate_1"}, "inputs": [[40, 0, 0], [0, 0, 0]]}], "arg_nodes": [0, 2, 3, 4, 6, 7, 8, 9, 12, 13, 14, 16, 17, 18, 19, 21, 22, 23, 24, 27, 28, 29, 31, 32, 33, 34, 36, 37, 38, 39], "heads": [[41, 0, 0]], "attrs": {"dltype": ["list_str", ["float32", "float32", "float32", "float32", "float32", "float32", "float32", "float32", "float32", "float32", "float32", "float32", "float32", "float32", "float32", "float32", "float32", "float32", "float32", "float32", "float32", "float32", "float32", "float32", "float32", "float32", "float32", "float32", "float32", "float32", "float32", "float32", "float32", "float32", "float32", "float32", "float32", "float32", "float32", "float32", "float32", "float32"]], "device_index": ["list_int", [2, 2, 2, 2, 2, 2, 2, 2, 2, 2, 2, 2, 2, 2, 2, 2, 2, 2, 2, 2, 2, 2, 2, 2, 2, 2, 2, 2, 2, 2, 2, 2, 2, 2, 2, 2, 2, 2, 2, 2, 2, 2]], "storage_id": ["list_int", [14, 28, 33, 34, 35, 36, 37, 38, 39, 40, 28, 45, 46, 47, 48, 9, 49, 50, 51, 52, 45, 53, 54, 55, 56, 9, 45, 57, 58, 59, 9, 60, 61, 62, 63, 64, 65, 66, 67, 68, 9, 64]], "shape": ["list_shape", [[1, 256, 64, 64], [1, 256, 32, 32], [512, 256, 3, 3], [1, 512, 1, 1], [1, 512, 1, 1], [1, 512, 32, 32], [512, 512, 3, 3], [1, 512, 1, 1], [1, 512, 1, 1], [1, 512, 1, 1], [1, 512, 32, 32], [1, 512, 16, 16], [1024, 512, 3, 3], [1, 1024, 1, 1], [1, 1024, 1, 1], [1, 1024, 16, 16], [1024, 1024, 3, 3], [1, 1024, 1, 1], [1, 1024, 1, 1], [1, 1024, 1, 1], [1, 1024, 16, 16], [1024, 512, 3, 3], [1, 512, 1, 1], [1, 512, 1, 1], [1, 512, 1, 1], [1, 512, 32, 32], [1, 1024, 32, 32], [512, 1024, 3, 3], [1, 512, 1, 1], [1, 512, 1, 1], [1, 512, 32, 32], [512, 512, 3, 3], [1, 512, 1, 1], [1, 512, 1, 1], [1, 512, 1, 1], [1, 512, 32, 32], [512, 256, 3, 3], [1, 256, 1, 1], [1, 256, 1, 1], [1, 256, 1, 1], [1, 256, 64, 64], [1, 512, 64, 64]]]}, "node_row_ptr": [0, 1, 2, 3, 4, 5, 6, 7, 8, 9, 10, 11, 12, 13, 14, 15, 16, 17, 18, 19, 20, 21, 22, 23, 24, 25, 26, 27, 28, 29, 30, 31, 32, 33, 34, 35, 36, 37, 38, 39, 40, 41, 42], "extra": {"inputs": [39], "outputs": [85]}}