{"nodes": [{"op": "null", "name": "input_20", "attrs": {"num_outputs": "1", "out_layout": "", "hash": "0b8f56d6e185e11a", "func_name": "tvmgen_default_fused_nn_max_pool2d_1", "layout": "NCHW", "flatten_data": "0", "num_inputs": "1"}, "inputs": []}, {"op": "null", "name": "p14", "inputs": []}, {"op": "null", "name": "p15", "inputs": []}, {"op": "null", "name": "p16", "inputs": []}, {"op": "tvm_op", "name": "tvmgen_default_fused_nn_conv2d_add_add_nn_leaky_relu_2", "attrs": {"num_outputs": "1", "num_inputs": "4", "data_layout": "NCHW", "kernel_layout": "OIHW", "hash": "1732ff96ce26f767", "func_name": "tvmgen_default_fused_nn_conv2d_add_add_nn_leaky_relu_2", "out_layout": "", "flatten_data": "0"}, "inputs": [[0, 0, 0], [1, 0, 0], [2, 0, 0], [3, 0, 0]]}, {"op": "null", "name": "p17", "inputs": []}, {"op": "null", "name": "p18", "inputs": []}, {"op": "null", "name": "p19", "inputs": []}, {"op": "null", "name": "p20", "inputs": []}, {"op": "tvm_op", "name": "tvmgen_default_fused_nn_conv2d_add_multiply_add_2", "attrs": {"num_outputs": "1", "num_inputs": "5", "data_layout": "NCHW", "kernel_layout": "OIHW", "hash": "0e505f02fbbc64e4", "func_name": "tvmgen_default_fused_nn_conv2d_add_multiply_add_2", "out_layout": "", "flatten_data": "0"}, "inputs": [[4, 0, 0], [5, 0, 0], [6, 0, 0], [7, 0, 0], [8, 0, 0]]}, {"op": "null", "name": "p21", "inputs": []}, {"op": "null", "name": "p22", "inputs": []}, {"op": "null", "name": "p23", "inputs": []}, {"op": "tvm_op", "name": "tvmgen_default_fused_nn_conv2d_transpose_add_add_nn_leaky_relu", "attrs": {"num_outputs": "1", "num_inputs": "4", "data_layout": "NCHW", "kernel_layout": "IOHW", "hash": "d0d419c069d2d0d9", "func_name": "tvmgen_default_fused_nn_conv2d_transpose_add_add_nn_leaky_relu", "out_layout": "", "flatten_data": "0"}, "inputs": [[9, 0, 0], [10, 0, 0], [11, 0, 0], [12, 0, 0]]}, {"op": "null", "name": "p24", "inputs": []}, {"op": "null", "name": "p25", "inputs": []}, {"op": "null", "name": "p26", "inputs": []}, {"op": "tvm_op", "name": "tvmgen_default_fused_nn_conv2d_add_add_nn_leaky_relu_3", "attrs": {"num_outputs": "1", "num_inputs": "4", "data_layout": "NCHW", "kernel_layout": "OIHW", "hash": "fc2ce70066fe93b0", "func_name": "tvmgen_default_fused_nn_conv2d_add_add_nn_leaky_relu_3", "out_layout": "", "flatten_data": "0"}, "inputs": [[13, 0, 0], [14, 0, 0], [15, 0, 0], [16, 0, 0]]}, {"op": "null", "name": "p27", "inputs": []}, {"op": "null", "name": "p28", "inputs": []}, {"op": "null", "name": "p29", "inputs": []}, {"op": "null", "name": "p30", "inputs": []}, {"op": "tvm_op", "name": "tvmgen_default_fused_nn_conv2d_add_multiply_add_3", "attrs": {"num_outputs": "1", "num_inputs": "5", "data_layout": "NCHW", "kernel_layout": "OIHW", "hash": "efe980a7db7571fe", "func_name": "tvmgen_default_fused_nn_conv2d_add_multiply_add_3", "out_layout": "", "flatten_data": "0"}, "inputs": [[17, 0, 0], [18, 0, 0], [19, 0, 0], [20, 0, 0], [21, 0, 0]]}, {"op": "tvm_op", "name": "tvmgen_default_fused_nn_max_pool2d_2", "attrs": {"num_outputs": "1", "out_layout": "", "hash": "101671e5f706ed74", "func_name": "tvmgen_default_fused_nn_max_pool2d_2", "layout": "NCHW", "flatten_data": "0", "num_inputs": "1"}, "inputs": [[22, 0, 0]]}, {"op": "null", "name": "p31", "inputs": []}, {"op": "null", "name": "p32", "inputs": []}, {"op": "null", "name": "p33", "inputs": []}, {"op": "tvm_op", "name": "tvmgen_default_fused_nn_conv2d_add_add_nn_leaky_relu_4", "attrs": {"num_outputs": "1", "num_inputs": "4", "data_layout": "NCHW", "kernel_layout": "OIHW", "hash": "bb81fae1932409c4", "func_name": "tvmgen_default_fused_nn_conv2d_add_add_nn_leaky_relu_4", "out_layout": "", "flatten_data": "0"}, "inputs": [[23, 0, 0], [24, 0, 0], [25, 0, 0], [26, 0, 0]]}, {"op": "null", "name": "p34", "inputs": []}, {"op": "null", "name": "p35", "inputs": []}, {"op": "null", "name": "p36", "inputs": []}, {"op": "null", "name": "p37", "inputs": []}, {"op": "tvm_op", "name": "tvmgen_default_fused_nn_conv2d_add_multiply_add_4", "attrs": {"num_outputs": "1", "num_inputs": "5", "data_layout": "NCHW", "kernel_layout": "OIHW", "hash": "67b92c04ebdb3941", "func_name": "tvmgen_default_fused_nn_conv2d_add_multiply_add_4", "out_layout": "", "flatten_data": "0"}, "inputs": [[27, 0, 0], [28, 0, 0], [29, 0, 0], [30, 0, 0], [31, 0, 0]]}, {"op": "tvm_op", "name": "tvmgen_default_fused_nn_max_pool2d_3", "attrs": {"num_outputs": "1", "out_layout": "", "hash": "6cf9d9884889295b", "func_name": "tvmgen_default_fused_nn_max_pool2d_3", "layout": "NCHW", "flatten_data": "0", "num_inputs": "1"}, "inputs": [[32, 0, 0]]}, {"op": "null", "name": "p38", "inputs": []}, {"op": "null", "name": "p39", "inputs": []}, {"op": "null", "name": "p40", "inputs": []}, {"op": "tvm_op", "name": "tvmgen_default_fused_nn_conv2d_add_add_nn_leaky_relu_5", "attrs": {"num_outputs": "1", "num_inputs": "4", "data_layout": "NCHW", "kernel_layout": "OIHW", "hash": "dec16ca09bbf0bf0", "func_name": "tvmgen_default_fused_nn_conv2d_add_add_nn_leaky_relu_5", "out_layout": "", "flatten_data": "0"}, "inputs": [[33, 0, 0], [34, 0, 0], [35, 0, 0], [36, 0, 0]]}, {"op": "null", "name": "p41", "inputs": []}, {"op": "null", "name": "p42", "inputs": []}, {"op": "null", "name": "p43", "inputs": []}, {"op": "null", "name": "p44", "inputs": []}, {"op": "tvm_op", "name": "tvmgen_default_fused_nn_conv2d_add_multiply_add_5", "attrs": {"num_outputs": "1", "num_inputs": "5", "out_layout": "", "kernel_layout": "OIHW", "hash": "f8da97555bd7b4bd", "func_name": "tvmgen_default_fused_nn_conv2d_add_multiply_add_5", "data_layout": "NCHW", "flatten_data": "0"}, "inputs": [[37, 0, 0], [38, 0, 0], [39, 0, 0], [40, 0, 0], [41, 0, 0]]}, {"op": "tvm_op", "name": "tvmgen_default_fused_nn_max_pool2d_4", "attrs": {"num_outputs": "1", "out_layout": "", "hash": "00a5e85c638e5217", "func_name": "tvmgen_default_fused_nn_max_pool2d_4", "layout": "NCHW", "flatten_data": "0", "num_inputs": "1"}, "inputs": [[42, 0, 0]]}, {"op": "null", "name": "p56", "inputs": []}, {"op": "null", "name": "p57", "inputs": []}, {"op": "null", "name": "p58", "inputs": []}, {"op": "tvm_op", "name": "tvmgen_default_fused_nn_conv2d_add_add_nn_leaky_relu_7", "attrs": {"num_outputs": "1", "num_inputs": "4", "data_layout": "NCHW", "kernel_layout": "OIHW", "hash": "5debef7d4c0ec709", "func_name": "tvmgen_default_fused_nn_conv2d_add_add_nn_leaky_relu_7", "out_layout": "", "flatten_data": "0"}, "inputs": [[43, 0, 0], [44, 0, 0], [45, 0, 0], [46, 0, 0]]}, {"op": "null", "name": "p59", "inputs": []}, {"op": "null", "name": "p60", "inputs": []}, {"op": "null", "name": "p61", "inputs": []}, {"op": "null", "name": "p62", "inputs": []}, {"op": "tvm_op", "name": "tvmgen_default_fused_nn_conv2d_add_multiply_add_7", "attrs": {"num_outputs": "1", "num_inputs": "5", "data_layout": "NCHW", "kernel_layout": "OIHW", "hash": "b662759e5f655fca", "func_name": "tvmgen_default_fused_nn_conv2d_add_multiply_add_7", "out_layout": "", "flatten_data": "0"}, "inputs": [[47, 0, 0], [48, 0, 0], [49, 0, 0], [50, 0, 0], [51, 0, 0]]}, {"op": "null", "name": "p63", "inputs": []}, {"op": "null", "name": "p64", "inputs": []}, {"op": "null", "name": "p65", "inputs": []}, {"op": "null", "name": "p66", "inputs": []}, {"op": "tvm_op", "name": "tvmgen_default_fused_nn_conv2d_transpose_add_multiply_add_nn_leaky_relu_1", "attrs": {"num_outputs": "1", "num_inputs": "5", "data_layout": "NCHW", "kernel_layout": "IOHW", "hash": "e7ab89f60ff3a977", "func_name": "tvmgen_default_fused_nn_conv2d_transpose_add_multiply_add_nn_leaky_relu_1", "out_layout": "", "flatten_data": "0"}, "inputs": [[52, 0, 0], [53, 0, 0], [54, 0, 0], [55, 0, 0], [56, 0, 0]]}, {"op": "tvm_op", "name": "tvmgen_default_fused_concatenate", "attrs": {"num_outputs": "1", "num_inputs": "2", "flatten_data": "0", "hash": "959ced0b6372f5f8", "func_name": "tvmgen_default_fused_concatenate"}, "inputs": [[57, 0, 0], [42, 0, 0]]}, {"op": "null", "name": "p67", "inputs": []}, {"op": "null", "name": "p68", "inputs": []}, {"op": "null", "name": "p69", "inputs": []}, {"op": "tvm_op", "name": "tvmgen_default_fused_nn_conv2d_add_add_nn_leaky_relu_8", "attrs": {"num_outputs": "1", "num_inputs": "4", "data_layout": "NCHW", "kernel_layout": "OIHW", "hash": "f69df5e40ca46651", "func_name": "tvmgen_default_fused_nn_conv2d_add_add_nn_leaky_relu_8", "out_layout": "", "flatten_data": "0"}, "inputs": [[58, 0, 0], [59, 0, 0], [60, 0, 0], [61, 0, 0]]}, {"op": "null", "name": "p70", "inputs": []}, {"op": "null", "name": "p71", "inputs": []}, {"op": "null", "name": "p72", "inputs": []}, {"op": "null", "name": "p73", "inputs": []}, {"op": "tvm_op", "name": "tvmgen_default_fused_nn_conv2d_add_multiply_add_51", "attrs": {"num_outputs": "1", "num_inputs": "5", "data_layout": "NCHW", "kernel_layout": "OIHW", "hash": "f8da97555bd7b4bd", "func_name": "tvmgen_default_fused_nn_conv2d_add_multiply_add_5", "out_layout": "", "flatten_data": "0"}, "inputs": [[62, 0, 0], [63, 0, 0], [64, 0, 0], [65, 0, 0], [66, 0, 0]]}, {"op": "null", "name": "p74", "inputs": []}, {"op": "null", "name": "p75", "inputs": []}, {"op": "null", "name": "p76", "inputs": []}, {"op": "null", "name": "p77", "inputs": []}, {"op": "tvm_op", "name": "tvmgen_default_fused_nn_conv2d_transpose_add_multiply_add_nn_leaky_relu_2", "attrs": {"num_outputs": "1", "num_inputs": "5", "data_layout": "NCHW", "kernel_layout": "IOHW", "hash": "1d308a22b335e77b", "func_name": "tvmgen_default_fused_nn_conv2d_transpose_add_multiply_add_nn_leaky_relu_2", "out_layout": "", "flatten_data": "0"}, "inputs": [[67, 0, 0], [68, 0, 0], [69, 0, 0], [70, 0, 0], [71, 0, 0]]}, {"op": "tvm_op", "name": "tvmgen_default_fused_concatenate_1", "attrs": {"num_outputs": "1", "num_inputs": "2", "flatten_data": "0", "hash": "f227f8e2e0c693a0", "func_name": "tvmgen_default_fused_concatenate_1"}, "inputs": [[72, 0, 0], [32, 0, 0]]}, {"op": "null", "name": "p78", "inputs": []}, {"op": "null", "name": "p79", "inputs": []}, {"op": "null", "name": "p80", "inputs": []}, {"op": "tvm_op", "name": "tvmgen_default_fused_nn_conv2d_add_add_nn_leaky_relu_9", "attrs": {"num_outputs": "1", "num_inputs": "4", "data_layout": "NCHW", "kernel_layout": "OIHW", "hash": "baf7829679a87ff2", "func_name": "tvmgen_default_fused_nn_conv2d_add_add_nn_leaky_relu_9", "out_layout": "", "flatten_data": "0"}, "inputs": [[73, 0, 0], [74, 0, 0], [75, 0, 0], [76, 0, 0]]}, {"op": "null", "name": "p81", "inputs": []}, {"op": "null", "name": "p82", "inputs": []}, {"op": "null", "name": "p83", "inputs": []}, {"op": "null", "name": "p84", "inputs": []}, {"op": "tvm_op", "name": "tvmgen_default_fused_nn_conv2d_add_multiply_add_41", "attrs": {"num_outputs": "1", "num_inputs": "5", "data_layout": "NCHW", "kernel_layout": "OIHW", "hash": "67b92c04ebdb3941", "func_name": "tvmgen_default_fused_nn_conv2d_add_multiply_add_4", "out_layout": "", "flatten_data": "0"}, "inputs": [[77, 0, 0], [78, 0, 0], [79, 0, 0], [80, 0, 0], [81, 0, 0]]}, {"op": "null", "name": "p85", "inputs": []}, {"op": "null", "name": "p86", "inputs": []}, {"op": "null", "name": "p87", "inputs": []}, {"op": "null", "name": "p88", "inputs": []}, {"op": "tvm_op", "name": "tvmgen_default_fused_nn_conv2d_transpose_add_multiply_add_nn_leaky_relu_3", "attrs": {"num_outputs": "1", "num_inputs": "5", "data_layout": "NCHW", "kernel_layout": "IOHW", "hash": "22fb79a98a07fc11", "func_name": "tvmgen_default_fused_nn_conv2d_transpose_add_multiply_add_nn_leaky_relu_3", "out_layout": "", "flatten_data": "0"}, "inputs": [[82, 0, 0], [83, 0, 0], [84, 0, 0], [85, 0, 0], [86, 0, 0]]}, {"op": "tvm_op", "name": "tvmgen_default_fused_concatenate_2", "attrs": {"num_outputs": "1", "num_inputs": "2", "flatten_data": "0", "hash": "622b977360816399", "func_name": "tvmgen_default_fused_concatenate_2"}, "inputs": [[87, 0, 0], [22, 0, 0]]}, {"op": "null", "name": "p89", "inputs": []}, {"op": "null", "name": "p90", "inputs": []}, {"op": "null", "name": "p91", "inputs": []}, {"op": "tvm_op", "name": "tvmgen_default_fused_nn_conv2d_add_add_nn_leaky_relu_10", "attrs": {"num_outputs": "1", "num_inputs": "4", "data_layout": "NCHW", "kernel_layout": "OIHW", "hash": "30ea7236af4f2f56", "func_name": "tvmgen_default_fused_nn_conv2d_add_add_nn_leaky_relu_10", "out_layout": "", "flatten_data": "0"}, "inputs": [[88, 0, 0], [89, 0, 0], [90, 0, 0], [91, 0, 0]]}], "arg_nodes": [0, 1, 2, 3, 5, 6, 7, 8, 10, 11, 12, 14, 15, 16, 18, 19, 20, 21, 24, 25, 26, 28, 29, 30, 31, 34, 35, 36, 38, 39, 40, 41, 44, 45, 46, 48, 49, 50, 51, 53, 54, 55, 56, 59, 60, 61, 63, 64, 65, 66, 68, 69, 70, 71, 74, 75, 76, 78, 79, 80, 81, 83, 84, 85, 86, 89, 90, 91], "heads": [[92, 0, 0]], "attrs": {"dltype": ["list_str", ["float32", "float32", "float32", "float32", "float32", "float32", "float32", "float32", "float32", "float32", "float32", "float32", "float32", "float32", "float32", "float32", "float32", "float32", "float32", "float32", "float32", "float32", "float32", "float32", "float32", "float32", "float32", "float32", "float32", "float32", "float32", "float32", "float32", "float32", "float32", "float32", "float32", "float32", "float32", "float32", "float32", "float32", "float32", "float32", "float32", "float32", "float32", "float32", "float32", "float32", "float32", "float32", "float32", "float32", "float32", "float32", "float32", "float32", "float32", "float32", "float32", "float32", "float32", "float32", "float32", "float32", "float32", "float32", "float32", "float32", "float32", "float32", "float32", "float32", "float32", "float32", "float32", "float32", "float32", "float32", "float32", "float32", "float32", "float32", "float32", "float32", "float32", "float32", "float32", "float32", "float32", "float32", "float32"]], "device_index": ["list_int", [2, 2, 2, 2, 2, 2, 2, 2, 2, 2, 2, 2, 2, 2, 2, 2, 2, 2, 2, 2, 2, 2, 2, 2, 2, 2, 2, 2, 2, 2, 2, 2, 2, 2, 2, 2, 2, 2, 2, 2, 2, 2, 2, 2, 2, 2, 2, 2, 2, 2, 2, 2, 2, 2, 2, 2, 2, 2, 2, 2, 2, 2, 2, 2, 2, 2, 2, 2, 2, 2, 2, 2, 2, 2, 2, 2, 2, 2, 2, 2, 2, 2, 2, 2, 2, 2, 2, 2, 2, 2, 2, 2, 2]], "storage_id": ["list_int", [17, 18, 19, 20, 21, 22, 23, 24, 25, 17, 26, 27, 28, 9, 29, 30, 31, 17, 32, 33, 34, 35, 9, 17, 36, 37, 38, 21, 39, 40, 41, 42, 17, 21, 43, 44, 45, 46, 47, 48, 49, 50, 21, 62, 63, 64, 65, 4, 66, 67, 68, 69, 62, 70, 71, 72, 73, 4, 62, 74, 75, 76, 4, 77, 78, 79, 80, 62, 81, 82, 83, 84, 4, 62, 85, 86, 87, 4, 88, 89, 90, 91, 62, 92, 93, 94, 95, 4, 62, 96, 97, 98, 4]], "shape": ["list_shape", [[1, 32, 64, 64], [32, 32, 3, 3], [1, 32, 1, 1], [1, 32, 1, 1], [1, 32, 64, 64], [32, 32, 3, 3], [1, 32, 1, 1], [1, 32, 1, 1], [1, 32, 1, 1], [1, 32, 64, 64], [32, 32, 3, 3], [1, 32, 1, 1], [1, 32, 1, 1], [1, 32, 128, 128], [128, 32, 3, 3], [1, 128, 1, 1], [1, 128, 1, 1], [1, 128, 128, 128], [128, 128, 3, 3], [1, 128, 1, 1], [1, 128, 1, 1], [1, 128, 1, 1], [1, 128, 128, 128], [1, 128, 64, 64], [256, 128, 3, 3], [1, 256, 1, 1], [1, 256, 1, 1], [1, 256, 64, 64], [256, 256, 3, 3], [1, 256, 1, 1], [1, 256, 1, 1], [1, 256, 1, 1], [1, 256, 64, 64], [1, 256, 32, 32], [512, 256, 3, 3], [1, 512, 1, 1], [1, 512, 1, 1], [1, 512, 32, 32], [512, 512, 3, 3], [1, 512, 1, 1], [1, 512, 1, 1], [1, 512, 1, 1], [1, 512, 32, 32], [1, 512, 16, 16], [1024, 512, 3, 3], [1, 1024, 1, 1], [1, 1024, 1, 1], [1, 1024, 16, 16], [1024, 1024, 3, 3], [1, 1024, 1, 1], [1, 1024, 1, 1], [1, 1024, 1, 1], [1, 1024, 16, 16], [1024, 512, 3, 3], [1, 512, 1, 1], [1, 512, 1, 1], [1, 512, 1, 1], [1, 512, 32, 32], [1, 1024, 32, 32], [512, 1024, 3, 3], [1, 512, 1, 1], [1, 512, 1, 1], [1, 512, 32, 32], [512, 512, 3, 3], [1, 512, 1, 1], [1, 512, 1, 1], [1, 512, 1, 1], [1, 512, 32, 32], [512, 256, 3, 3], [1, 256, 1, 1], [1, 256, 1, 1], [1, 256, 1, 1], [1, 256, 64, 64], [1, 512, 64, 64], [256, 512, 3, 3], [1, 256, 1, 1], [1, 256, 1, 1], [1, 256, 64, 64], [256, 256, 3, 3], [1, 256, 1, 1], [1, 256, 1, 1], [1, 256, 1, 1], [1, 256, 64, 64], [256, 128, 3, 3], [1, 128, 1, 1], [1, 128, 1, 1], [1, 128, 1, 1], [1, 128, 128, 128], [1, 256, 128, 128], [128, 256, 3, 3], [1, 128, 1, 1], [1, 128, 1, 1], [1, 128, 128, 128]]]}, "node_row_ptr": [0, 1, 2, 3, 4, 5, 6, 7, 8, 9, 10, 11, 12, 13, 14, 15, 16, 17, 18, 19, 20, 21, 22, 23, 24, 25, 26, 27, 28, 29, 30, 31, 32, 33, 34, 35, 36, 37, 38, 39, 40, 41, 42, 43, 44, 45, 46, 47, 48, 49, 50, 51, 52, 53, 54, 55, 56, 57, 58, 59, 60, 61, 62, 63, 64, 65, 66, 67, 68, 69, 70, 71, 72, 73, 74, 75, 76, 77, 78, 79, 80, 81, 82, 83, 84, 85, 86, 87, 88, 89, 90, 91, 92, 93], "extra": {"inputs": [20], "outputs": [126]}}