{"nodes": [{"op": "null", "name": "input_73", "attrs": {"num_outputs": "1", "num_inputs": "2", "flatten_data": "0", "func_name": "tvmgen_default_fused_cast_divide_concatenate_multiply_round_clip_cast", "hash": "de93b1969d09d560"}, "inputs": []}, {"op": "tvm_op", "name": "tvmgen_default_fused_cast_divide_9", "attrs": {"num_outputs": "1", "num_inputs": "1", "flatten_data": "0", "func_name": "tvmgen_default_fused_cast_divide_9", "hash": "67262316d98e1e1f"}, "inputs": [[0, 0, 0]]}, {"op": "null", "name": "p44", "inputs": []}, {"op": "null", "name": "p45", "inputs": []}, {"op": "null", "name": "p46", "inputs": []}, {"op": "null", "name": "p47", "inputs": []}, {"op": "tvm_op", "name": "tvmgen_default_fused_nn_conv2d_nn_bias_add_multiply_add_nn_leaky_relu_multiply_round_clip_cast_5", "attrs": {"num_outputs": "1", "num_inputs": "5", "flatten_data": "0", "func_name": "tvmgen_default_fused_nn_conv2d_nn_bias_add_multiply_add_nn_leaky_relu_multiply_round_clip_cast_5", "out_layout": "", "kernel_layout": "OIHW", "data_layout": "NCHW", "hash": "384b94073f4fd6f3"}, "inputs": [[1, 0, 0], [2, 0, 0], [3, 0, 0], [4, 0, 0], [5, 0, 0]]}, {"op": "tvm_op", "name": "tvmgen_default_fused_cast_divide_62", "attrs": {"num_outputs": "1", "num_inputs": "1", "flatten_data": "0", "func_name": "tvmgen_default_fused_cast_divide_6", "hash": "6bd59b3449230bf3"}, "inputs": [[6, 0, 0]]}, {"op": "null", "name": "p48", "inputs": []}, {"op": "null", "name": "p49", "inputs": []}, {"op": "null", "name": "p50", "inputs": []}, {"op": "null", "name": "p51", "inputs": []}, {"op": "tvm_op", "name": "tvmgen_default_fused_nn_conv2d_nn_bias_add_multiply_add_1", "attrs": {"num_outputs": "1", "num_inputs": "5", "flatten_data": "0", "func_name": "tvmgen_default_fused_nn_conv2d_nn_bias_add_multiply_add_1", "out_layout": "", "kernel_layout": "OIHW", "data_layout": "NCHW", "hash": "f4738973ef3fa2bd"}, "inputs": [[7, 0, 0], [8, 0, 0], [9, 0, 0], [10, 0, 0], [11, 0, 0]]}, {"op": "null", "name": "p52", "inputs": []}, {"op": "null", "name": "p53", "inputs": []}, {"op": "null", "name": "p54", "inputs": []}, {"op": "null", "name": "p55", "inputs": []}, {"op": "tvm_op", "name": "tvmgen_default_fused_nn_conv2d_transpose_nn_bias_add_multiply_add_nn_leaky_relu_multiply_round__11787854290316248575__1", "attrs": {"num_outputs": "1", "num_inputs": "5", "flatten_data": "0", "func_name": "tvmgen_default_fused_nn_conv2d_transpose_nn_bias_add_multiply_add_nn_leaky_relu_multiply_round__11787854290316248575__1", "out_layout": "", "kernel_layout": "IOHW", "data_layout": "NCHW", "hash": "5d3f5c8d22541d45"}, "inputs": [[12, 0, 0], [13, 0, 0], [14, 0, 0], [15, 0, 0], [16, 0, 0]]}], "arg_nodes": [0, 2, 3, 4, 5, 8, 9, 10, 11, 13, 14, 15, 16], "heads": [[17, 0, 0]], "attrs": {"dltype": ["list_str", ["int8", "float32", "float32", "float32", "float32", "float32", "int8", "float32", "float32", "float32", "float32", "float32", "float32", "float32", "float32", "float32", "float32", "int8"]], "device_index": ["list_int", [1, 1, 1, 1, 1, 1, 1, 1, 1, 1, 1, 1, 1, 1, 1, 1, 1, 1]], "storage_id": ["list_int", [59, 37, 64, 65, 66, 67, 68, 37, 69, 70, 71, 72, 73, 74, 75, 76, 77, 37]], "shape": ["list_shape", [[1, 256, 64, 64], [1, 256, 64, 64], [128, 256, 3, 3], [128], [128, 1, 1], [128, 1, 1], [1, 128, 64, 64], [1, 128, 64, 64], [128, 128, 3, 3], [128], [128, 1, 1], [128, 1, 1], [1, 128, 64, 64], [128, 64, 3, 3], [64], [64, 1, 1], [64, 1, 1], [1, 64, 128, 128]]]}, "node_row_ptr": [0, 1, 2, 3, 4, 5, 6, 7, 8, 9, 10, 11, 12, 13, 14, 15, 16, 17, 18], "extra": {"inputs": [73], "outputs": [90]}}