{"nodes": [{"op": "null", "name": "input_25", "attrs": {"num_outputs": "1", "num_inputs": "5", "flatten_data": "0", "func_name": "tvmgen_default_fused_nn_conv2d_add_multiply_add_multiply_round_clip_cast_1", "out_layout": "", "kernel_layout": "OIHW", "data_layout": "NCHW", "hash": "d1cbc5cea5a46bd8"}, "inputs": []}, {"op": "tvm_op", "name": "tvmgen_default_fused_cast_divide_21", "attrs": {"num_outputs": "1", "num_inputs": "1", "flatten_data": "0", "func_name": "tvmgen_default_fused_cast_divide_2", "hash": "fb6f82e2d6857769"}, "inputs": [[0, 0, 0]]}, {"op": "tvm_op", "name": "tvmgen_default_fused_nn_max_pool2d_multiply_round_clip_cast_1", "attrs": {"num_outputs": "1", "num_inputs": "1", "flatten_data": "0", "func_name": "tvmgen_default_fused_nn_max_pool2d_multiply_round_clip_cast_1", "out_layout": "", "layout": "NCHW", "hash": "9ff1c88704eedebc"}, "inputs": [[1, 0, 0]]}, {"op": "tvm_op", "name": "tvmgen_default_fused_cast_divide_3", "attrs": {"num_outputs": "1", "num_inputs": "1", "flatten_data": "0", "func_name": "tvmgen_default_fused_cast_divide_3", "hash": "243cc904f9bf02df"}, "inputs": [[2, 0, 0]]}, {"op": "null", "name": "p16", "inputs": []}, {"op": "null", "name": "p17", "inputs": []}, {"op": "null", "name": "p18", "inputs": []}, {"op": "null", "name": "p19", "inputs": []}, {"op": "tvm_op", "name": "tvmgen_default_fused_nn_conv2d_add_multiply_add_nn_leaky_relu_multiply_round_clip_cast_2", "attrs": {"num_outputs": "1", "num_inputs": "5", "flatten_data": "0", "func_name": "tvmgen_default_fused_nn_conv2d_add_multiply_add_nn_leaky_relu_multiply_round_clip_cast_2", "out_layout": "", "kernel_layout": "OIHW", "data_layout": "NCHW", "hash": "f544bead7ce209ad"}, "inputs": [[3, 0, 0], [4, 0, 0], [5, 0, 0], [6, 0, 0], [7, 0, 0]]}, {"op": "tvm_op", "name": "tvmgen_default_fused_cast_divide_4", "attrs": {"num_outputs": "1", "num_inputs": "1", "flatten_data": "0", "func_name": "tvmgen_default_fused_cast_divide_4", "hash": "b453805ab30bcbb7"}, "inputs": [[8, 0, 0]]}, {"op": "null", "name": "p20", "inputs": []}, {"op": "null", "name": "p21", "inputs": []}, {"op": "null", "name": "p22", "inputs": []}, {"op": "null", "name": "p23", "inputs": []}, {"op": "tvm_op", "name": "tvmgen_default_fused_nn_conv2d_add_multiply_add_multiply_round_clip_cast_2", "attrs": {"num_outputs": "1", "num_inputs": "5", "flatten_data": "0", "func_name": "tvmgen_default_fused_nn_conv2d_add_multiply_add_multiply_round_clip_cast_2", "out_layout": "", "kernel_layout": "OIHW", "data_layout": "NCHW", "hash": "4505bfd8c02dd1ab"}, "inputs": [[9, 0, 0], [10, 0, 0], [11, 0, 0], [12, 0, 0], [13, 0, 0]]}, {"op": "tvm_op", "name": "tvmgen_default_fused_cast_divide_41", "attrs": {"num_outputs": "1", "num_inputs": "1", "flatten_data": "0", "func_name": "tvmgen_default_fused_cast_divide_4", "hash": "b453805ab30bcbb7"}, "inputs": [[14, 0, 0]]}, {"op": "tvm_op", "name": "tvmgen_default_fused_nn_max_pool2d_multiply_round_clip_cast_2", "attrs": {"num_outputs": "1", "num_inputs": "1", "flatten_data": "0", "func_name": "tvmgen_default_fused_nn_max_pool2d_multiply_round_clip_cast_2", "out_layout": "", "layout": "NCHW", "hash": "f2a97c133febc5f5"}, "inputs": [[15, 0, 0]]}, {"op": "tvm_op", "name": "tvmgen_default_fused_cast_divide_5", "attrs": {"num_outputs": "1", "num_inputs": "1", "flatten_data": "0", "func_name": "tvmgen_default_fused_cast_divide_5", "hash": "e192afb77f1651b1"}, "inputs": [[16, 0, 0]]}, {"op": "null", "name": "p24", "inputs": []}, {"op": "null", "name": "p25", "inputs": []}, {"op": "null", "name": "p26", "inputs": []}, {"op": "null", "name": "p27", "inputs": []}, {"op": "tvm_op", "name": "tvmgen_default_fused_nn_conv2d_add_multiply_add_nn_leaky_relu_multiply_round_clip_cast_3", "attrs": {"num_outputs": "1", "num_inputs": "5", "flatten_data": "0", "func_name": "tvmgen_default_fused_nn_conv2d_add_multiply_add_nn_leaky_relu_multiply_round_clip_cast_3", "out_layout": "", "kernel_layout": "OIHW", "data_layout": "NCHW", "hash": "256f63349132ffbd"}, "inputs": [[17, 0, 0], [18, 0, 0], [19, 0, 0], [20, 0, 0], [21, 0, 0]]}, {"op": "tvm_op", "name": "tvmgen_default_fused_cast_divide_6", "attrs": {"num_outputs": "1", "num_inputs": "1", "flatten_data": "0", "func_name": "tvmgen_default_fused_cast_divide_6", "hash": "c129c06a6c572c9e"}, "inputs": [[22, 0, 0]]}, {"op": "null", "name": "p28", "inputs": []}, {"op": "null", "name": "p29", "inputs": []}, {"op": "null", "name": "p30", "inputs": []}, {"op": "null", "name": "p31", "inputs": []}, {"op": "tvm_op", "name": "tvmgen_default_fused_nn_conv2d_add_multiply_add_multiply_round_clip_cast_3", "attrs": {"num_outputs": "1", "num_inputs": "5", "flatten_data": "0", "func_name": "tvmgen_default_fused_nn_conv2d_add_multiply_add_multiply_round_clip_cast_3", "out_layout": "", "kernel_layout": "OIHW", "data_layout": "NCHW", "hash": "e3e90d4e9e7229a0"}, "inputs": [[23, 0, 0], [24, 0, 0], [25, 0, 0], [26, 0, 0], [27, 0, 0]]}, {"op": "tvm_op", "name": "tvmgen_default_fused_cast_divide_61", "attrs": {"num_outputs": "1", "num_inputs": "1", "flatten_data": "0", "func_name": "tvmgen_default_fused_cast_divide_6", "hash": "c129c06a6c572c9e"}, "inputs": [[28, 0, 0]]}, {"op": "tvm_op", "name": "tvmgen_default_fused_nn_max_pool2d_multiply_round_clip_cast_3", "attrs": {"num_outputs": "1", "num_inputs": "1", "flatten_data": "0", "func_name": "tvmgen_default_fused_nn_max_pool2d_multiply_round_clip_cast_3", "out_layout": "", "layout": "NCHW", "hash": "05d82dde3e837696"}, "inputs": [[29, 0, 0]]}, {"op": "tvm_op", "name": "tvmgen_default_fused_cast_divide_7", "attrs": {"num_outputs": "1", "num_inputs": "1", "flatten_data": "0", "func_name": "tvmgen_default_fused_cast_divide_7", "hash": "6fc4ba3c4bec19c9"}, "inputs": [[30, 0, 0]]}, {"op": "null", "name": "p32", "inputs": []}, {"op": "null", "name": "p33", "inputs": []}, {"op": "null", "name": "p34", "inputs": []}, {"op": "null", "name": "p35", "inputs": []}, {"op": "tvm_op", "name": "tvmgen_default_fused_nn_conv2d_add_multiply_add_nn_leaky_relu_multiply_round_clip_cast_4", "attrs": {"num_outputs": "1", "num_inputs": "5", "flatten_data": "0", "func_name": "tvmgen_default_fused_nn_conv2d_add_multiply_add_nn_leaky_relu_multiply_round_clip_cast_4", "out_layout": "", "kernel_layout": "OIHW", "data_layout": "NCHW", "hash": "1f954ec01d818b69"}, "inputs": [[31, 0, 0], [32, 0, 0], [33, 0, 0], [34, 0, 0], [35, 0, 0]]}, {"op": "tvm_op", "name": "tvmgen_default_fused_cast_divide_8", "attrs": {"num_outputs": "1", "num_inputs": "1", "flatten_data": "0", "func_name": "tvmgen_default_fused_cast_divide_8", "hash": "f3dbb5f88bf2f717"}, "inputs": [[36, 0, 0]]}, {"op": "null", "name": "p36", "inputs": []}, {"op": "null", "name": "p37", "inputs": []}, {"op": "null", "name": "p38", "inputs": []}, {"op": "null", "name": "p39", "inputs": []}, {"op": "tvm_op", "name": "tvmgen_default_fused_nn_conv2d_add_multiply_add", "attrs": {"num_outputs": "1", "num_inputs": "5", "flatten_data": "0", "func_name": "tvmgen_default_fused_nn_conv2d_add_multiply_add", "out_layout": "", "kernel_layout": "OIHW", "data_layout": "NCHW", "hash": "a03d52ea08fb1fca"}, "inputs": [[37, 0, 0], [38, 0, 0], [39, 0, 0], [40, 0, 0], [41, 0, 0]]}, {"op": "null", "name": "p40", "inputs": []}, {"op": "null", "name": "p41", "inputs": []}, {"op": "null", "name": "p42", "inputs": []}, {"op": "null", "name": "p43", "inputs": []}, {"op": "tvm_op", "name": "tvmgen_default_fused_nn_conv2d_transpose_add_multiply_add_nn_leaky_relu_multiply_round_clip_cas_14150951870605584942_", "attrs": {"num_outputs": "1", "num_inputs": "5", "flatten_data": "0", "func_name": "tvmgen_default_fused_nn_conv2d_transpose_add_multiply_add_nn_leaky_relu_multiply_round_clip_cas_14150951870605584942_", "out_layout": "", "kernel_layout": "IOHW", "data_layout": "NCHW", "hash": "5be089a73235426c"}, "inputs": [[42, 0, 0], [43, 0, 0], [44, 0, 0], [45, 0, 0], [46, 0, 0]]}, {"op": "tvm_op", "name": "tvmgen_default_fused_cast_divide_concatenate_multiply_round_clip_cast", "attrs": {"num_outputs": "1", "num_inputs": "2", "flatten_data": "0", "func_name": "tvmgen_default_fused_cast_divide_concatenate_multiply_round_clip_cast", "hash": "94a89f015bdfecd8"}, "inputs": [[47, 0, 0], [29, 0, 0]]}, {"op": "tvm_op", "name": "tvmgen_default_fused_cast_divide_9", "attrs": {"num_outputs": "1", "num_inputs": "1", "flatten_data": "0", "func_name": "tvmgen_default_fused_cast_divide_9", "hash": "0615b8b7451279fa"}, "inputs": [[48, 0, 0]]}, {"op": "null", "name": "p44", "inputs": []}, {"op": "null", "name": "p45", "inputs": []}, {"op": "null", "name": "p46", "inputs": []}, {"op": "null", "name": "p47", "inputs": []}, {"op": "tvm_op", "name": "tvmgen_default_fused_nn_conv2d_add_multiply_add_nn_leaky_relu_multiply_round_clip_cast_5", "attrs": {"num_outputs": "1", "num_inputs": "5", "flatten_data": "0", "func_name": "tvmgen_default_fused_nn_conv2d_add_multiply_add_nn_leaky_relu_multiply_round_clip_cast_5", "out_layout": "", "kernel_layout": "OIHW", "data_layout": "NCHW", "hash": "db33a66f0dd4fc31"}, "inputs": [[49, 0, 0], [50, 0, 0], [51, 0, 0], [52, 0, 0], [53, 0, 0]]}], "arg_nodes": [0, 4, 5, 6, 7, 10, 11, 12, 13, 18, 19, 20, 21, 24, 25, 26, 27, 32, 33, 34, 35, 38, 39, 40, 41, 43, 44, 45, 46, 50, 51, 52, 53], "heads": [[14, 0, 0], [54, 0, 0]], "attrs": {"dltype": ["list_str", ["int8", "float32", "int8", "float32", "float32", "float32", "float32", "float32", "int8", "float32", "float32", "float32", "float32", "float32", "int8", "float32", "int8", "float32", "float32", "float32", "float32", "float32", "int8", "float32", "float32", "float32", "float32", "float32", "int8", "float32", "int8", "float32", "float32", "float32", "float32", "float32", "int8", "float32", "float32", "float32", "float32", "float32", "float32", "float32", "float32", "float32", "float32", "int8", "int8", "float32", "float32", "float32", "float32", "float32", "int8"]], "device_index": ["list_int", [2, 2, 2, 2, 2, 2, 2, 2, 2, 2, 2, 2, 2, 2, 2, 2, 2, 2, 2, 2, 2, 2, 2, 2, 2, 2, 2, 2, 2, 2, 2, 2, 2, 2, 2, 2, 2, 2, 2, 2, 2, 2, 2, 2, 2, 2, 2, 2, 2, 2, 2, 2, 2, 2, 2]], "storage_id": ["list_int", [23, 13, 24, 25, 26, 27, 28, 29, 30, 25, 31, 32, 33, 34, 35, 25, 36, 37, 38, 39, 40, 41, 42, 37, 43, 44, 45, 46, 47, 37, 48, 49, 50, 51, 52, 53, 54, 49, 55, 56, 57, 58, 59, 60, 61, 62, 63, 49, 59, 37, 64, 65, 66, 67, 68]], "shape": ["list_shape", [[1, 32, 64, 64], [1, 32, 64, 64], [1, 32, 32, 32], [1, 32, 32, 32], [64, 32, 3, 3], [1, 64, 1, 1], [1, 64, 1, 1], [1, 64, 1, 1], [1, 64, 32, 32], [1, 64, 32, 32], [64, 64, 3, 3], [1, 64, 1, 1], [1, 64, 1, 1], [1, 64, 1, 1], [1, 64, 32, 32], [1, 64, 32, 32], [1, 64, 16, 16], [1, 64, 16, 16], [128, 64, 3, 3], [1, 128, 1, 1], [1, 128, 1, 1], [1, 128, 1, 1], [1, 128, 16, 16], [1, 128, 16, 16], [128, 128, 3, 3], [1, 128, 1, 1], [1, 128, 1, 1], [1, 128, 1, 1], [1, 128, 16, 16], [1, 128, 16, 16], [1, 128, 8, 8], [1, 128, 8, 8], [256, 128, 3, 3], [1, 256, 1, 1], [1, 256, 1, 1], [1, 256, 1, 1], [1, 256, 8, 8], [1, 256, 8, 8], [256, 256, 3, 3], [1, 256, 1, 1], [1, 256, 1, 1], [1, 256, 1, 1], [1, 256, 8, 8], [256, 128, 3, 3], [1, 128, 1, 1], [1, 128, 1, 1], [1, 128, 1, 1], [1, 128, 16, 16], [1, 256, 16, 16], [1, 256, 16, 16], [128, 256, 3, 3], [1, 128, 1, 1], [1, 128, 1, 1], [1, 128, 1, 1], [1, 128, 16, 16]]]}, "node_row_ptr": [0, 1, 2, 3, 4, 5, 6, 7, 8, 9, 10, 11, 12, 13, 14, 15, 16, 17, 18, 19, 20, 21, 22, 23, 24, 25, 26, 27, 28, 29, 30, 31, 32, 33, 34, 35, 36, 37, 38, 39, 40, 41, 42, 43, 44, 45, 46, 47, 48, 49, 50, 51, 52, 53, 54, 55], "extra": {"inputs": [25], "outputs": [39, 79]}}