{"nodes": [{"op": "null", "name": "input_11", "attrs": {"num_outputs": "1", "num_inputs": "5", "flatten_data": "0", "func_name": "tvmgen_default_fused_nn_conv2d_add_multiply_add_multiply_round_clip_cast", "out_layout": "", "kernel_layout": "OIHW", "data_layout": "NCHW", "hash": "c35c41a655f8a1a2"}, "inputs": []}, {"op": "null", "name": "input_25", "attrs": {"num_outputs": "1", "num_inputs": "5", "flatten_data": "0", "func_name": "tvmgen_default_fused_nn_conv2d_add_multiply_add_multiply_round_clip_cast_1", "out_layout": "", "kernel_layout": "OIHW", "data_layout": "NCHW", "hash": "cbf82f11f3177c85"}, "inputs": []}, {"op": "null", "name": "input_39", "attrs": {"num_outputs": "1", "num_inputs": "5", "flatten_data": "0", "func_name": "tvmgen_default_fused_nn_conv2d_add_multiply_add_multiply_round_clip_cast_2", "out_layout": "", "kernel_layout": "OIHW", "data_layout": "NCHW", "hash": "0fc1d36e3a42d9cc"}, "inputs": []}, {"op": "null", "name": "input_53", "attrs": {"num_outputs": "1", "num_inputs": "5", "flatten_data": "0", "func_name": "tvmgen_default_fused_nn_conv2d_add_multiply_add_multiply_round_clip_cast_3", "out_layout": "", "kernel_layout": "OIHW", "data_layout": "NCHW", "hash": "0cf191d346f9c157"}, "inputs": []}, {"op": "null", "name": "input_55", "attrs": {"num_outputs": "1", "num_inputs": "1", "flatten_data": "0", "func_name": "tvmgen_default_fused_nn_max_pool2d_multiply_round_clip_cast_3", "out_layout": "", "layout": "NCHW", "hash": "7372b946bc54379f"}, "inputs": []}, {"op": "tvm_op", "name": "tvmgen_default_fused_cast_divide1", "attrs": {"num_outputs": "1", "num_inputs": "1", "flatten_data": "0", "func_name": "tvmgen_default_fused_cast_divide", "hash": "85165d63e18469f5"}, "inputs": [[0, 0, 0]]}, {"op": "tvm_op", "name": "tvmgen_default_fused_cast_divide_21", "attrs": {"num_outputs": "1", "num_inputs": "1", "flatten_data": "0", "func_name": "tvmgen_default_fused_cast_divide_2", "hash": "636a5321792fc858"}, "inputs": [[1, 0, 0]]}, {"op": "tvm_op", "name": "tvmgen_default_fused_cast_divide_41", "attrs": {"num_outputs": "1", "num_inputs": "1", "flatten_data": "0", "func_name": "tvmgen_default_fused_cast_divide_4", "hash": "264e358d1dbf32bc"}, "inputs": [[2, 0, 0]]}, {"op": "tvm_op", "name": "tvmgen_default_fused_cast_divide_61", "attrs": {"num_outputs": "1", "num_inputs": "1", "flatten_data": "0", "func_name": "tvmgen_default_fused_cast_divide_6", "hash": "6bd59b3449230bf3"}, "inputs": [[3, 0, 0]]}, {"op": "tvm_op", "name": "tvmgen_default_fused_cast_divide_7", "attrs": {"num_outputs": "1", "num_inputs": "1", "flatten_data": "0", "func_name": "tvmgen_default_fused_cast_divide_7", "hash": "61936ac1605612d0"}, "inputs": [[4, 0, 0]]}, {"op": "null", "name": "p32", "inputs": []}, {"op": "null", "name": "p33", "inputs": []}, {"op": "null", "name": "p34", "inputs": []}, {"op": "null", "name": "p35", "inputs": []}, {"op": "tvm_op", "name": "tvmgen_default_fused_nn_conv2d_add_multiply_add_nn_leaky_relu_multiply_round_clip_cast_4", "attrs": {"num_outputs": "1", "num_inputs": "5", "flatten_data": "0", "func_name": "tvmgen_default_fused_nn_conv2d_add_multiply_add_nn_leaky_relu_multiply_round_clip_cast_4", "out_layout": "", "kernel_layout": "OIHW", "data_layout": "NCHW", "hash": "e5ef6958a1ed9478"}, "inputs": [[9, 0, 0], [10, 0, 0], [11, 0, 0], [12, 0, 0], [13, 0, 0]]}, {"op": "tvm_op", "name": "tvmgen_default_fused_cast_divide_8", "attrs": {"num_outputs": "1", "num_inputs": "1", "flatten_data": "0", "func_name": "tvmgen_default_fused_cast_divide_8", "hash": "eef8dacc5d543f0d"}, "inputs": [[14, 0, 0]]}, {"op": "null", "name": "p36", "inputs": []}, {"op": "null", "name": "p37", "inputs": []}, {"op": "null", "name": "p38", "inputs": []}, {"op": "null", "name": "p39", "inputs": []}, {"op": "tvm_op", "name": "tvmgen_default_fused_nn_conv2d_add_multiply_add", "attrs": {"num_outputs": "1", "num_inputs": "5", "flatten_data": "0", "func_name": "tvmgen_default_fused_nn_conv2d_add_multiply_add", "out_layout": "", "kernel_layout": "OIHW", "data_layout": "NCHW", "hash": "8f709a2d2851a3c9"}, "inputs": [[15, 0, 0], [16, 0, 0], [17, 0, 0], [18, 0, 0], [19, 0, 0]]}, {"op": "null", "name": "p40", "inputs": []}, {"op": "null", "name": "p41", "inputs": []}, {"op": "null", "name": "p42", "inputs": []}, {"op": "null", "name": "p43", "inputs": []}, {"op": "tvm_op", "name": "tvmgen_default_fused_nn_conv2d_transpose_add_multiply_add_nn_leaky_relu_multiply_round_clip_cas_14150951870605584942_", "attrs": {"num_outputs": "1", "num_inputs": "5", "flatten_data": "0", "func_name": "tvmgen_default_fused_nn_conv2d_transpose_add_multiply_add_nn_leaky_relu_multiply_round_clip_cas_14150951870605584942_", "out_layout": "", "kernel_layout": "IOHW", "data_layout": "NCHW", "hash": "943824cf953556fe"}, "inputs": [[20, 0, 0], [21, 0, 0], [22, 0, 0], [23, 0, 0], [24, 0, 0]]}, {"op": "tvm_op", "name": "tvmgen_default_fused_cast_divide_concatenate_multiply_round_clip_cast", "attrs": {"num_outputs": "1", "num_inputs": "2", "flatten_data": "0", "func_name": "tvmgen_default_fused_cast_divide_concatenate_multiply_round_clip_cast", "hash": "de93b1969d09d560"}, "inputs": [[25, 0, 0], [8, 0, 0]]}, {"op": "tvm_op", "name": "tvmgen_default_fused_cast_divide_9", "attrs": {"num_outputs": "1", "num_inputs": "1", "flatten_data": "0", "func_name": "tvmgen_default_fused_cast_divide_9", "hash": "67262316d98e1e1f"}, "inputs": [[26, 0, 0]]}, {"op": "null", "name": "p44", "inputs": []}, {"op": "null", "name": "p45", "inputs": []}, {"op": "null", "name": "p46", "inputs": []}, {"op": "null", "name": "p47", "inputs": []}, {"op": "tvm_op", "name": "tvmgen_default_fused_nn_conv2d_add_multiply_add_nn_leaky_relu_multiply_round_clip_cast_5", "attrs": {"num_outputs": "1", "num_inputs": "5", "flatten_data": "0", "func_name": "tvmgen_default_fused_nn_conv2d_add_multiply_add_nn_leaky_relu_multiply_round_clip_cast_5", "out_layout": "", "kernel_layout": "OIHW", "data_layout": "NCHW", "hash": "b83a6055f3015826"}, "inputs": [[27, 0, 0], [28, 0, 0], [29, 0, 0], [30, 0, 0], [31, 0, 0]]}, {"op": "tvm_op", "name": "tvmgen_default_fused_cast_divide_62", "attrs": {"num_outputs": "1", "num_inputs": "1", "flatten_data": "0", "func_name": "tvmgen_default_fused_cast_divide_6", "hash": "6bd59b3449230bf3"}, "inputs": [[32, 0, 0]]}, {"op": "null", "name": "p48", "inputs": []}, {"op": "null", "name": "p49", "inputs": []}, {"op": "null", "name": "p50", "inputs": []}, {"op": "null", "name": "p51", "inputs": []}, {"op": "tvm_op", "name": "tvmgen_default_fused_nn_conv2d_add_multiply_add_1", "attrs": {"num_outputs": "1", "num_inputs": "5", "flatten_data": "0", "func_name": "tvmgen_default_fused_nn_conv2d_add_multiply_add_1", "out_layout": "", "kernel_layout": "OIHW", "data_layout": "NCHW", "hash": "eef4cb8b0b95c0f6"}, "inputs": [[33, 0, 0], [34, 0, 0], [35, 0, 0], [36, 0, 0], [37, 0, 0]]}, {"op": "null", "name": "p52", "inputs": []}, {"op": "null", "name": "p53", "inputs": []}, {"op": "null", "name": "p54", "inputs": []}, {"op": "null", "name": "p55", "inputs": []}, {"op": "tvm_op", "name": "tvmgen_default_fused_nn_conv2d_transpose_add_multiply_add_nn_leaky_relu_multiply_round_clip_cas_14150951870605584942__1", "attrs": {"num_outputs": "1", "num_inputs": "5", "flatten_data": "0", "func_name": "tvmgen_default_fused_nn_conv2d_transpose_add_multiply_add_nn_leaky_relu_multiply_round_clip_cas_14150951870605584942__1", "out_layout": "", "kernel_layout": "IOHW", "data_layout": "NCHW", "hash": "0f4efe3ce6c3c48c"}, "inputs": [[38, 0, 0], [39, 0, 0], [40, 0, 0], [41, 0, 0], [42, 0, 0]]}, {"op": "tvm_op", "name": "tvmgen_default_fused_cast_divide_concatenate_multiply_round_clip_cast_1", "attrs": {"num_outputs": "1", "num_inputs": "2", "flatten_data": "0", "func_name": "tvmgen_default_fused_cast_divide_concatenate_multiply_round_clip_cast_1", "hash": "9ed233230c188a39"}, "inputs": [[43, 0, 0], [7, 0, 0]]}, {"op": "tvm_op", "name": "tvmgen_default_fused_cast_divide_10", "attrs": {"num_outputs": "1", "num_inputs": "1", "flatten_data": "0", "func_name": "tvmgen_default_fused_cast_divide_10", "hash": "124e1fbf92ab5a82"}, "inputs": [[44, 0, 0]]}, {"op": "null", "name": "p56", "inputs": []}, {"op": "null", "name": "p57", "inputs": []}, {"op": "null", "name": "p58", "inputs": []}, {"op": "null", "name": "p59", "inputs": []}, {"op": "tvm_op", "name": "tvmgen_default_fused_nn_conv2d_add_multiply_add_nn_leaky_relu_multiply_round_clip_cast_6", "attrs": {"num_outputs": "1", "num_inputs": "5", "flatten_data": "0", "func_name": "tvmgen_default_fused_nn_conv2d_add_multiply_add_nn_leaky_relu_multiply_round_clip_cast_6", "out_layout": "", "kernel_layout": "OIHW", "data_layout": "NCHW", "hash": "83b41d6807472e19"}, "inputs": [[45, 0, 0], [46, 0, 0], [47, 0, 0], [48, 0, 0], [49, 0, 0]]}, {"op": "tvm_op", "name": "tvmgen_default_fused_cast_divide_42", "attrs": {"num_outputs": "1", "num_inputs": "1", "flatten_data": "0", "func_name": "tvmgen_default_fused_cast_divide_4", "hash": "264e358d1dbf32bc"}, "inputs": [[50, 0, 0]]}, {"op": "null", "name": "p60", "inputs": []}, {"op": "null", "name": "p61", "inputs": []}, {"op": "null", "name": "p62", "inputs": []}, {"op": "null", "name": "p63", "inputs": []}, {"op": "tvm_op", "name": "tvmgen_default_fused_nn_conv2d_add_multiply_add_2", "attrs": {"num_outputs": "1", "num_inputs": "5", "flatten_data": "0", "func_name": "tvmgen_default_fused_nn_conv2d_add_multiply_add_2", "out_layout": "", "kernel_layout": "OIHW", "data_layout": "NCHW", "hash": "8cb240c20c9a61e5"}, "inputs": [[51, 0, 0], [52, 0, 0], [53, 0, 0], [54, 0, 0], [55, 0, 0]]}, {"op": "null", "name": "p64", "inputs": []}, {"op": "null", "name": "p65", "inputs": []}, {"op": "null", "name": "p66", "inputs": []}, {"op": "null", "name": "p67", "inputs": []}, {"op": "tvm_op", "name": "tvmgen_default_fused_nn_conv2d_transpose_add_multiply_add_nn_leaky_relu_multiply_round_clip_cas_14150951870605584942__2", "attrs": {"num_outputs": "1", "num_inputs": "5", "flatten_data": "0", "func_name": "tvmgen_default_fused_nn_conv2d_transpose_add_multiply_add_nn_leaky_relu_multiply_round_clip_cas_14150951870605584942__2", "out_layout": "", "kernel_layout": "IOHW", "data_layout": "NCHW", "hash": "bb98934acee9f434"}, "inputs": [[56, 0, 0], [57, 0, 0], [58, 0, 0], [59, 0, 0], [60, 0, 0]]}, {"op": "tvm_op", "name": "tvmgen_default_fused_cast_divide_concatenate_multiply_round_clip_cast_2", "attrs": {"num_outputs": "1", "num_inputs": "2", "flatten_data": "0", "func_name": "tvmgen_default_fused_cast_divide_concatenate_multiply_round_clip_cast_2", "hash": "a03ed7b98a017dbc"}, "inputs": [[61, 0, 0], [6, 0, 0]]}, {"op": "tvm_op", "name": "tvmgen_default_fused_cast_divide_11", "attrs": {"num_outputs": "1", "num_inputs": "1", "flatten_data": "0", "func_name": "tvmgen_default_fused_cast_divide_11", "hash": "fa27adaace0bfe80"}, "inputs": [[62, 0, 0]]}, {"op": "null", "name": "p68", "inputs": []}, {"op": "null", "name": "p69", "inputs": []}, {"op": "null", "name": "p70", "inputs": []}, {"op": "null", "name": "p71", "inputs": []}, {"op": "tvm_op", "name": "tvmgen_default_fused_nn_conv2d_add_multiply_add_nn_leaky_relu_multiply_round_clip_cast_7", "attrs": {"num_outputs": "1", "num_inputs": "5", "flatten_data": "0", "func_name": "tvmgen_default_fused_nn_conv2d_add_multiply_add_nn_leaky_relu_multiply_round_clip_cast_7", "out_layout": "", "kernel_layout": "OIHW", "data_layout": "NCHW", "hash": "876289ba0eddfbf6"}, "inputs": [[63, 0, 0], [64, 0, 0], [65, 0, 0], [66, 0, 0], [67, 0, 0]]}, {"op": "tvm_op", "name": "tvmgen_default_fused_cast_divide_22", "attrs": {"num_outputs": "1", "num_inputs": "1", "flatten_data": "0", "func_name": "tvmgen_default_fused_cast_divide_2", "hash": "636a5321792fc858"}, "inputs": [[68, 0, 0]]}, {"op": "null", "name": "p72", "inputs": []}, {"op": "null", "name": "p73", "inputs": []}, {"op": "null", "name": "p74", "inputs": []}, {"op": "null", "name": "p75", "inputs": []}, {"op": "tvm_op", "name": "tvmgen_default_fused_nn_conv2d_add_multiply_add_3", "attrs": {"num_outputs": "1", "num_inputs": "5", "flatten_data": "0", "func_name": "tvmgen_default_fused_nn_conv2d_add_multiply_add_3", "out_layout": "", "kernel_layout": "OIHW", "data_layout": "NCHW", "hash": "afcc3e3243b199b7"}, "inputs": [[69, 0, 0], [70, 0, 0], [71, 0, 0], [72, 0, 0], [73, 0, 0]]}, {"op": "null", "name": "p76", "inputs": []}, {"op": "null", "name": "p77", "inputs": []}, {"op": "null", "name": "p78", "inputs": []}, {"op": "null", "name": "p79", "inputs": []}, {"op": "tvm_op", "name": "tvmgen_default_fused_nn_conv2d_transpose_add_multiply_add_nn_leaky_relu_multiply_round_clip_cas_14150951870605584942__3", "attrs": {"num_outputs": "1", "num_inputs": "5", "flatten_data": "0", "func_name": "tvmgen_default_fused_nn_conv2d_transpose_add_multiply_add_nn_leaky_relu_multiply_round_clip_cas_14150951870605584942__3", "out_layout": "", "kernel_layout": "IOHW", "data_layout": "NCHW", "hash": "f84a06c73561c81f"}, "inputs": [[74, 0, 0], [75, 0, 0], [76, 0, 0], [77, 0, 0], [78, 0, 0]]}, {"op": "tvm_op", "name": "tvmgen_default_fused_cast_divide_concatenate_multiply_round_clip_cast_3", "attrs": {"num_outputs": "1", "num_inputs": "2", "flatten_data": "0", "func_name": "tvmgen_default_fused_cast_divide_concatenate_multiply_round_clip_cast_3", "hash": "b7fdca7755cd2709"}, "inputs": [[79, 0, 0], [5, 0, 0]]}], "arg_nodes": [0, 1, 2, 3, 4, 10, 11, 12, 13, 16, 17, 18, 19, 21, 22, 23, 24, 28, 29, 30, 31, 34, 35, 36, 37, 39, 40, 41, 42, 46, 47, 48, 49, 52, 53, 54, 55, 57, 58, 59, 60, 64, 65, 66, 67, 70, 71, 72, 73, 75, 76, 77, 78], "heads": [[80, 0, 0]], "attrs": {"dltype": ["list_str", ["int8", "int8", "int8", "int8", "int8", "float32", "float32", "float32", "float32", "float32", "float32", "float32", "float32", "float32", "int8", "float32", "float32", "float32", "float32", "float32", "float32", "float32", "float32", "float32", "float32", "int8", "int8", "float32", "float32", "float32", "float32", "float32", "int8", "float32", "float32", "float32", "float32", "float32", "float32", "float32", "float32", "float32", "float32", "int8", "int8", "float32", "float32", "float32", "float32", "float32", "int8", "float32", "float32", "float32", "float32", "float32", "float32", "float32", "float32", "float32", "float32", "int8", "int8", "float32", "float32", "float32", "float32", "float32", "int8", "float32", "float32", "float32", "float32", "float32", "float32", "float32", "float32", "float32", "float32", "int8", "int8"]], "device_index": ["list_int", [2, 2, 2, 2, 2, 2, 2, 2, 2, 2, 2, 2, 2, 2, 2, 2, 2, 2, 2, 2, 2, 2, 2, 2, 2, 2, 2, 2, 2, 2, 2, 2, 2, 2, 2, 2, 2, 2, 2, 2, 2, 2, 2, 2, 2, 2, 2, 2, 2, 2, 2, 2, 2, 2, 2, 2, 2, 2, 2, 2, 2, 2, 2, 2, 2, 2, 2, 2, 2, 2, 2, 2, 2, 2, 2, 2, 2, 2, 2, 2, 2]], "storage_id": ["list_int", [11, 23, 35, 47, 48, 6, 13, 25, 37, 49, 50, 51, 52, 53, 54, 49, 55, 56, 57, 58, 59, 60, 61, 62, 63, 49, 59, 37, 64, 65, 66, 67, 68, 37, 69, 70, 71, 72, 73, 74, 75, 76, 77, 37, 73, 25, 78, 79, 80, 81, 82, 25, 83, 84, 85, 86, 87, 88, 89, 90, 91, 25, 87, 13, 92, 93, 94, 95, 96, 13, 97, 98, 99, 100, 101, 102, 103, 104, 105, 13, 101]], "shape": ["list_shape", [[1, 16, 512, 512], [1, 32, 256, 256], [1, 64, 128, 128], [1, 128, 64, 64], [1, 128, 32, 32], [1, 16, 512, 512], [1, 32, 256, 256], [1, 64, 128, 128], [1, 128, 64, 64], [1, 128, 32, 32], [256, 128, 3, 3], [1, 256, 1, 1], [1, 256, 1, 1], [1, 256, 1, 1], [1, 256, 32, 32], [1, 256, 32, 32], [256, 256, 3, 3], [1, 256, 1, 1], [1, 256, 1, 1], [1, 256, 1, 1], [1, 256, 32, 32], [256, 128, 3, 3], [1, 128, 1, 1], [1, 128, 1, 1], [1, 128, 1, 1], [1, 128, 64, 64], [1, 256, 64, 64], [1, 256, 64, 64], [128, 256, 3, 3], [1, 128, 1, 1], [1, 128, 1, 1], [1, 128, 1, 1], [1, 128, 64, 64], [1, 128, 64, 64], [128, 128, 3, 3], [1, 128, 1, 1], [1, 128, 1, 1], [1, 128, 1, 1], [1, 128, 64, 64], [128, 64, 3, 3], [1, 64, 1, 1], [1, 64, 1, 1], [1, 64, 1, 1], [1, 64, 128, 128], [1, 128, 128, 128], [1, 128, 128, 128], [64, 128, 3, 3], [1, 64, 1, 1], [1, 64, 1, 1], [1, 64, 1, 1], [1, 64, 128, 128], [1, 64, 128, 128], [64, 64, 3, 3], [1, 64, 1, 1], [1, 64, 1, 1], [1, 64, 1, 1], [1, 64, 128, 128], [64, 32, 3, 3], [1, 32, 1, 1], [1, 32, 1, 1], [1, 32, 1, 1], [1, 32, 256, 256], [1, 64, 256, 256], [1, 64, 256, 256], [32, 64, 3, 3], [1, 32, 1, 1], [1, 32, 1, 1], [1, 32, 1, 1], [1, 32, 256, 256], [1, 32, 256, 256], [32, 32, 3, 3], [1, 32, 1, 1], [1, 32, 1, 1], [1, 32, 1, 1], [1, 32, 256, 256], [32, 16, 3, 3], [1, 16, 1, 1], [1, 16, 1, 1], [1, 16, 1, 1], [1, 16, 512, 512], [1, 32, 512, 512]]]}, "node_row_ptr": [0, 1, 2, 3, 4, 5, 6, 7, 8, 9, 10, 11, 12, 13, 14, 15, 16, 17, 18, 19, 20, 21, 22, 23, 24, 25, 26, 27, 28, 29, 30, 31, 32, 33, 34, 35, 36, 37, 38, 39, 40, 41, 42, 43, 44, 45, 46, 47, 48, 49, 50, 51, 52, 53, 54, 55, 56, 57, 58, 59, 60, 61, 62, 63, 64, 65, 66, 67, 68, 69, 70, 71, 72, 73, 74, 75, 76, 77, 78, 79, 80, 81], "extra": {"inputs": [11, 25, 39, 53, 55], "outputs": [127]}}