{"nodes": [{"op": "null", "name": "input_39", "attrs": {"num_outputs": "1", "num_inputs": "5", "flatten_data": "0", "func_name": "tvmgen_default_fused_nn_conv2d_add_multiply_add_multiply_round_clip_cast_2", "out_layout": "", "kernel_layout": "OIHW", "data_layout": "NCHW", "hash": "0fc1d36e3a42d9cc"}, "inputs": []}, {"op": "null", "name": "input_53", "attrs": {"num_outputs": "1", "num_inputs": "5", "flatten_data": "0", "func_name": "tvmgen_default_fused_nn_conv2d_add_multiply_add_multiply_round_clip_cast_3", "out_layout": "", "kernel_layout": "OIHW", "data_layout": "NCHW", "hash": "0cf191d346f9c157"}, "inputs": []}, {"op": "tvm_op", "name": "tvmgen_default_fused_cast_divide_41", "attrs": {"num_outputs": "1", "num_inputs": "1", "flatten_data": "0", "func_name": "tvmgen_default_fused_cast_divide_4", "hash": "264e358d1dbf32bc"}, "inputs": [[0, 0, 0]]}, {"op": "tvm_op", "name": "tvmgen_default_fused_cast_divide_61", "attrs": {"num_outputs": "1", "num_inputs": "1", "flatten_data": "0", "func_name": "tvmgen_default_fused_cast_divide_6", "hash": "6bd59b3449230bf3"}, "inputs": [[1, 0, 0]]}, {"op": "tvm_op", "name": "tvmgen_default_fused_nn_max_pool2d_multiply_round_clip_cast_3", "attrs": {"num_outputs": "1", "num_inputs": "1", "flatten_data": "0", "func_name": "tvmgen_default_fused_nn_max_pool2d_multiply_round_clip_cast_3", "out_layout": "", "layout": "NCHW", "hash": "7372b946bc54379f"}, "inputs": [[3, 0, 0]]}, {"op": "tvm_op", "name": "tvmgen_default_fused_cast_divide_7", "attrs": {"num_outputs": "1", "num_inputs": "1", "flatten_data": "0", "func_name": "tvmgen_default_fused_cast_divide_7", "hash": "61936ac1605612d0"}, "inputs": [[4, 0, 0]]}, {"op": "null", "name": "p32", "inputs": []}, {"op": "null", "name": "p33", "inputs": []}, {"op": "null", "name": "p34", "inputs": []}, {"op": "null", "name": "p35", "inputs": []}, {"op": "tvm_op", "name": "tvmgen_default_fused_nn_conv2d_add_multiply_add_nn_leaky_relu_multiply_round_clip_cast_4", "attrs": {"num_outputs": "1", "num_inputs": "5", "flatten_data": "0", "func_name": "tvmgen_default_fused_nn_conv2d_add_multiply_add_nn_leaky_relu_multiply_round_clip_cast_4", "out_layout": "", "kernel_layout": "OIHW", "data_layout": "NCHW", "hash": "e5ef6958a1ed9478"}, "inputs": [[5, 0, 0], [6, 0, 0], [7, 0, 0], [8, 0, 0], [9, 0, 0]]}, {"op": "tvm_op", "name": "tvmgen_default_fused_cast_divide_8", "attrs": {"num_outputs": "1", "num_inputs": "1", "flatten_data": "0", "func_name": "tvmgen_default_fused_cast_divide_8", "hash": "eef8dacc5d543f0d"}, "inputs": [[10, 0, 0]]}, {"op": "null", "name": "p36", "inputs": []}, {"op": "null", "name": "p37", "inputs": []}, {"op": "null", "name": "p38", "inputs": []}, {"op": "null", "name": "p39", "inputs": []}, {"op": "tvm_op", "name": "tvmgen_default_fused_nn_conv2d_add_multiply_add", "attrs": {"num_outputs": "1", "num_inputs": "5", "flatten_data": "0", "func_name": "tvmgen_default_fused_nn_conv2d_add_multiply_add", "out_layout": "", "kernel_layout": "OIHW", "data_layout": "NCHW", "hash": "8f709a2d2851a3c9"}, "inputs": [[11, 0, 0], [12, 0, 0], [13, 0, 0], [14, 0, 0], [15, 0, 0]]}, {"op": "null", "name": "p40", "inputs": []}, {"op": "null", "name": "p41", "inputs": []}, {"op": "null", "name": "p42", "inputs": []}, {"op": "null", "name": "p43", "inputs": []}, {"op": "tvm_op", "name": "tvmgen_default_fused_nn_conv2d_transpose_add_multiply_add_nn_leaky_relu_multiply_round_clip_cas_14150951870605584942_", "attrs": {"num_outputs": "1", "num_inputs": "5", "flatten_data": "0", "func_name": "tvmgen_default_fused_nn_conv2d_transpose_add_multiply_add_nn_leaky_relu_multiply_round_clip_cas_14150951870605584942_", "out_layout": "", "kernel_layout": "IOHW", "data_layout": "NCHW", "hash": "943824cf953556fe"}, "inputs": [[16, 0, 0], [17, 0, 0], [18, 0, 0], [19, 0, 0], [20, 0, 0]]}, {"op": "tvm_op", "name": "tvmgen_default_fused_cast_divide_concatenate_multiply_round_clip_cast", "attrs": {"num_outputs": "1", "num_inputs": "2", "flatten_data": "0", "func_name": "tvmgen_default_fused_cast_divide_concatenate_multiply_round_clip_cast", "hash": "de93b1969d09d560"}, "inputs": [[21, 0, 0], [3, 0, 0]]}, {"op": "tvm_op", "name": "tvmgen_default_fused_cast_divide_9", "attrs": {"num_outputs": "1", "num_inputs": "1", "flatten_data": "0", "func_name": "tvmgen_default_fused_cast_divide_9", "hash": "67262316d98e1e1f"}, "inputs": [[22, 0, 0]]}, {"op": "null", "name": "p44", "inputs": []}, {"op": "null", "name": "p45", "inputs": []}, {"op": "null", "name": "p46", "inputs": []}, {"op": "null", "name": "p47", "inputs": []}, {"op": "tvm_op", "name": "tvmgen_default_fused_nn_conv2d_add_multiply_add_nn_leaky_relu_multiply_round_clip_cast_5", "attrs": {"num_outputs": "1", "num_inputs": "5", "flatten_data": "0", "func_name": "tvmgen_default_fused_nn_conv2d_add_multiply_add_nn_leaky_relu_multiply_round_clip_cast_5", "out_layout": "", "kernel_layout": "OIHW", "data_layout": "NCHW", "hash": "b83a6055f3015826"}, "inputs": [[23, 0, 0], [24, 0, 0], [25, 0, 0], [26, 0, 0], [27, 0, 0]]}, {"op": "tvm_op", "name": "tvmgen_default_fused_cast_divide_62", "attrs": {"num_outputs": "1", "num_inputs": "1", "flatten_data": "0", "func_name": "tvmgen_default_fused_cast_divide_6", "hash": "6bd59b3449230bf3"}, "inputs": [[28, 0, 0]]}, {"op": "null", "name": "p48", "inputs": []}, {"op": "null", "name": "p49", "inputs": []}, {"op": "null", "name": "p50", "inputs": []}, {"op": "null", "name": "p51", "inputs": []}, {"op": "tvm_op", "name": "tvmgen_default_fused_nn_conv2d_add_multiply_add_1", "attrs": {"num_outputs": "1", "num_inputs": "5", "flatten_data": "0", "func_name": "tvmgen_default_fused_nn_conv2d_add_multiply_add_1", "out_layout": "", "kernel_layout": "OIHW", "data_layout": "NCHW", "hash": "eef4cb8b0b95c0f6"}, "inputs": [[29, 0, 0], [30, 0, 0], [31, 0, 0], [32, 0, 0], [33, 0, 0]]}, {"op": "null", "name": "p52", "inputs": []}, {"op": "null", "name": "p53", "inputs": []}, {"op": "null", "name": "p54", "inputs": []}, {"op": "null", "name": "p55", "inputs": []}, {"op": "tvm_op", "name": "tvmgen_default_fused_nn_conv2d_transpose_add_multiply_add_nn_leaky_relu_multiply_round_clip_cas_14150951870605584942__1", "attrs": {"num_outputs": "1", "num_inputs": "5", "flatten_data": "0", "func_name": "tvmgen_default_fused_nn_conv2d_transpose_add_multiply_add_nn_leaky_relu_multiply_round_clip_cas_14150951870605584942__1", "out_layout": "", "kernel_layout": "IOHW", "data_layout": "NCHW", "hash": "0f4efe3ce6c3c48c"}, "inputs": [[34, 0, 0], [35, 0, 0], [36, 0, 0], [37, 0, 0], [38, 0, 0]]}, {"op": "tvm_op", "name": "tvmgen_default_fused_cast_divide_concatenate_multiply_round_clip_cast_1", "attrs": {"num_outputs": "1", "num_inputs": "2", "flatten_data": "0", "func_name": "tvmgen_default_fused_cast_divide_concatenate_multiply_round_clip_cast_1", "hash": "9ed233230c188a39"}, "inputs": [[39, 0, 0], [2, 0, 0]]}, {"op": "tvm_op", "name": "tvmgen_default_fused_cast_divide_10", "attrs": {"num_outputs": "1", "num_inputs": "1", "flatten_data": "0", "func_name": "tvmgen_default_fused_cast_divide_10", "hash": "124e1fbf92ab5a82"}, "inputs": [[40, 0, 0]]}, {"op": "null", "name": "p56", "inputs": []}, {"op": "null", "name": "p57", "inputs": []}, {"op": "null", "name": "p58", "inputs": []}, {"op": "null", "name": "p59", "inputs": []}, {"op": "tvm_op", "name": "tvmgen_default_fused_nn_conv2d_add_multiply_add_nn_leaky_relu_multiply_round_clip_cast_6", "attrs": {"num_outputs": "1", "num_inputs": "5", "flatten_data": "0", "func_name": "tvmgen_default_fused_nn_conv2d_add_multiply_add_nn_leaky_relu_multiply_round_clip_cast_6", "out_layout": "", "kernel_layout": "OIHW", "data_layout": "NCHW", "hash": "83b41d6807472e19"}, "inputs": [[41, 0, 0], [42, 0, 0], [43, 0, 0], [44, 0, 0], [45, 0, 0]]}], "arg_nodes": [0, 1, 6, 7, 8, 9, 12, 13, 14, 15, 17, 18, 19, 20, 24, 25, 26, 27, 30, 31, 32, 33, 35, 36, 37, 38, 42, 43, 44, 45], "heads": [[46, 0, 0]], "attrs": {"dltype": ["list_str", ["int8", "int8", "float32", "float32", "int8", "float32", "float32", "float32", "float32", "float32", "int8", "float32", "float32", "float32", "float32", "float32", "float32", "float32", "float32", "float32", "float32", "int8", "int8", "float32", "float32", "float32", "float32", "float32", "int8", "float32", "float32", "float32", "float32", "float32", "float32", "float32", "float32", "float32", "float32", "int8", "int8", "float32", "float32", "float32", "float32", "float32", "int8"]], "device_index": ["list_int", [2, 2, 2, 2, 2, 2, 2, 2, 2, 2, 2, 2, 2, 2, 2, 2, 2, 2, 2, 2, 2, 2, 2, 2, 2, 2, 2, 2, 2, 2, 2, 2, 2, 2, 2, 2, 2, 2, 2, 2, 2, 2, 2, 2, 2, 2, 2]], "storage_id": ["list_int", [35, 47, 25, 37, 48, 49, 50, 51, 52, 53, 54, 49, 55, 56, 57, 58, 59, 60, 61, 62, 63, 49, 59, 37, 64, 65, 66, 67, 68, 37, 69, 70, 71, 72, 73, 74, 75, 76, 77, 37, 73, 25, 78, 79, 80, 81, 82]], "shape": ["list_shape", [[1, 64, 128, 128], [1, 128, 64, 64], [1, 64, 128, 128], [1, 128, 64, 64], [1, 128, 32, 32], [1, 128, 32, 32], [256, 128, 3, 3], [1, 256, 1, 1], [1, 256, 1, 1], [1, 256, 1, 1], [1, 256, 32, 32], [1, 256, 32, 32], [256, 256, 3, 3], [1, 256, 1, 1], [1, 256, 1, 1], [1, 256, 1, 1], [1, 256, 32, 32], [256, 128, 3, 3], [1, 128, 1, 1], [1, 128, 1, 1], [1, 128, 1, 1], [1, 128, 64, 64], [1, 256, 64, 64], [1, 256, 64, 64], [128, 256, 3, 3], [1, 128, 1, 1], [1, 128, 1, 1], [1, 128, 1, 1], [1, 128, 64, 64], [1, 128, 64, 64], [128, 128, 3, 3], [1, 128, 1, 1], [1, 128, 1, 1], [1, 128, 1, 1], [1, 128, 64, 64], [128, 64, 3, 3], [1, 64, 1, 1], [1, 64, 1, 1], [1, 64, 1, 1], [1, 64, 128, 128], [1, 128, 128, 128], [1, 128, 128, 128], [64, 128, 3, 3], [1, 64, 1, 1], [1, 64, 1, 1], [1, 64, 1, 1], [1, 64, 128, 128]]]}, "node_row_ptr": [0, 1, 2, 3, 4, 5, 6, 7, 8, 9, 10, 11, 12, 13, 14, 15, 16, 17, 18, 19, 20, 21, 22, 23, 24, 25, 26, 27, 28, 29, 30, 31, 32, 33, 34, 35, 36, 37, 38, 39, 40, 41, 42, 43, 44, 45, 46, 47], "extra": {"inputs": [39, 53], "outputs": [97]}}