{"nodes": [{"op": "null", "name": "input_109", "attrs": {"num_outputs": "1", "num_inputs": "2", "flatten_data": "0", "func_name": "tvmgen_default_fused_cast_divide_concatenate_multiply_round_clip_cast_2", "hash": "a03ed7b98a017dbc"}, "inputs": []}, {"op": "tvm_op", "name": "tvmgen_default_fused_cast_divide_11", "attrs": {"num_outputs": "1", "num_inputs": "1", "flatten_data": "0", "func_name": "tvmgen_default_fused_cast_divide_11", "hash": "fa27adaace0bfe80"}, "inputs": [[0, 0, 0]]}, {"op": "null", "name": "p68", "inputs": []}, {"op": "null", "name": "p69", "inputs": []}, {"op": "null", "name": "p70", "inputs": []}, {"op": "null", "name": "p71", "inputs": []}, {"op": "tvm_op", "name": "tvmgen_default_fused_nn_conv2d_nn_bias_add_multiply_add_nn_leaky_relu_multiply_round_clip_cast_7", "attrs": {"num_outputs": "1", "num_inputs": "5", "flatten_data": "0", "func_name": "tvmgen_default_fused_nn_conv2d_nn_bias_add_multiply_add_nn_leaky_relu_multiply_round_clip_cast_7", "out_layout": "", "kernel_layout": "OIHW", "data_layout": "NCHW", "hash": "667a936f75ece63b"}, "inputs": [[1, 0, 0], [2, 0, 0], [3, 0, 0], [4, 0, 0], [5, 0, 0]]}, {"op": "tvm_op", "name": "tvmgen_default_fused_cast_divide_22", "attrs": {"num_outputs": "1", "num_inputs": "1", "flatten_data": "0", "func_name": "tvmgen_default_fused_cast_divide_2", "hash": "636a5321792fc858"}, "inputs": [[6, 0, 0]]}, {"op": "null", "name": "p72", "inputs": []}, {"op": "null", "name": "p73", "inputs": []}, {"op": "null", "name": "p74", "inputs": []}, {"op": "null", "name": "p75", "inputs": []}, {"op": "tvm_op", "name": "tvmgen_default_fused_nn_conv2d_nn_bias_add_multiply_add_3", "attrs": {"num_outputs": "1", "num_inputs": "5", "flatten_data": "0", "func_name": "tvmgen_default_fused_nn_conv2d_nn_bias_add_multiply_add_3", "out_layout": "", "kernel_layout": "OIHW", "data_layout": "NCHW", "hash": "97be3d2e99c6d7b3"}, "inputs": [[7, 0, 0], [8, 0, 0], [9, 0, 0], [10, 0, 0], [11, 0, 0]]}, {"op": "null", "name": "p76", "inputs": []}, {"op": "null", "name": "p77", "inputs": []}, {"op": "null", "name": "p78", "inputs": []}, {"op": "null", "name": "p79", "inputs": []}, {"op": "tvm_op", "name": "tvmgen_default_fused_nn_conv2d_transpose_nn_bias_add_multiply_add_nn_leaky_relu_multiply_round__11787854290316248575__3", "attrs": {"num_outputs": "1", "num_inputs": "5", "flatten_data": "0", "func_name": "tvmgen_default_fused_nn_conv2d_transpose_nn_bias_add_multiply_add_nn_leaky_relu_multiply_round__11787854290316248575__3", "out_layout": "", "kernel_layout": "IOHW", "data_layout": "NCHW", "hash": "5b3f882af41551db"}, "inputs": [[12, 0, 0], [13, 0, 0], [14, 0, 0], [15, 0, 0], [16, 0, 0]]}], "arg_nodes": [0, 2, 3, 4, 5, 8, 9, 10, 11, 13, 14, 15, 16], "heads": [[17, 0, 0]], "attrs": {"dltype": ["list_str", ["int8", "float32", "float32", "float32", "float32", "float32", "int8", "float32", "float32", "float32", "float32", "float32", "float32", "float32", "float32", "float32", "float32", "int8"]], "device_index": ["list_int", [1, 1, 1, 1, 1, 1, 1, 1, 1, 1, 1, 1, 1, 1, 1, 1, 1, 1]], "storage_id": ["list_int", [87, 13, 92, 93, 94, 95, 96, 13, 97, 98, 99, 100, 101, 102, 103, 104, 105, 13]], "shape": ["list_shape", [[1, 64, 256, 256], [1, 64, 256, 256], [32, 64, 3, 3], [32], [32, 1, 1], [32, 1, 1], [1, 32, 256, 256], [1, 32, 256, 256], [32, 32, 3, 3], [32], [32, 1, 1], [32, 1, 1], [1, 32, 256, 256], [32, 16, 3, 3], [16], [16, 1, 1], [16, 1, 1], [1, 16, 512, 512]]]}, "node_row_ptr": [0, 1, 2, 3, 4, 5, 6, 7, 8, 9, 10, 11, 12, 13, 14, 15, 16, 17, 18], "extra": {"inputs": [109], "outputs": [126]}}