{"nodes": [{"op": "null", "name": "input_5", "attrs": {"num_outputs": "1", "num_inputs": "5", "data_layout": "NCHW", "kernel_layout": "OIHW", "hash": "3796c78dc6f04748", "func_name": "tvmgen_default_fused_nn_conv2d_add_multiply_add_nn_leaky_relu_multiply_round_clip_cast", "out_layout": "", "flatten_data": "0"}, "inputs": []}, {"op": "tvm_op", "name": "tvmgen_default_fused_cast_divide", "attrs": {"num_outputs": "1", "num_inputs": "1", "flatten_data": "0", "hash": "fa27adaace0bfe80", "func_name": "tvmgen_default_fused_cast_divide"}, "inputs": [[0, 0, 0]]}, {"op": "null", "name": "p4", "inputs": []}, {"op": "null", "name": "p5", "inputs": []}, {"op": "null", "name": "p6", "inputs": []}, {"op": "null", "name": "p7", "inputs": []}, {"op": "tvm_op", "name": "tvmgen_default_fused_nn_conv2d_add_multiply_add", "attrs": {"num_outputs": "1", "num_inputs": "5", "data_layout": "NCHW", "kernel_layout": "OIHW", "hash": "f14094ce170e4d7e", "func_name": "tvmgen_default_fused_nn_conv2d_add_multiply_add", "out_layout": "", "flatten_data": "0"}, "inputs": [[1, 0, 0], [2, 0, 0], [3, 0, 0], [4, 0, 0], [5, 0, 0]]}, {"op": "tvm_op", "name": "tvmgen_default_fused_nn_max_pool2d_multiply_round_clip_cast", "attrs": {"num_outputs": "1", "out_layout": "", "hash": "6c7a5728a3b114ee", "func_name": "tvmgen_default_fused_nn_max_pool2d_multiply_round_clip_cast", "layout": "NCHW", "flatten_data": "0", "num_inputs": "1"}, "inputs": [[6, 0, 0]]}, {"op": "tvm_op", "name": "tvmgen_default_fused_cast_divide_1", "attrs": {"num_outputs": "1", "num_inputs": "1", "flatten_data": "0", "hash": "264e358d1dbf32bc", "func_name": "tvmgen_default_fused_cast_divide_1"}, "inputs": [[7, 0, 0]]}, {"op": "null", "name": "p80", "inputs": []}, {"op": "null", "name": "p81", "inputs": []}, {"op": "null", "name": "p82", "inputs": []}, {"op": "null", "name": "p83", "inputs": []}, {"op": "tvm_op", "name": "tvmgen_default_fused_nn_conv2d_add_multiply_add_nn_leaky_relu_multiply_round_clip_cast_8", "attrs": {"num_outputs": "1", "num_inputs": "5", "data_layout": "NCHW", "kernel_layout": "OIHW", "hash": "50431582488a08b8", "func_name": "tvmgen_default_fused_nn_conv2d_add_multiply_add_nn_leaky_relu_multiply_round_clip_cast_8", "out_layout": "", "flatten_data": "0"}, "inputs": [[8, 0, 0], [9, 0, 0], [10, 0, 0], [11, 0, 0], [12, 0, 0]]}], "arg_nodes": [0, 2, 3, 4, 5, 9, 10, 11, 12], "heads": [[7, 0, 0], [13, 0, 0]], "attrs": {"dltype": ["list_str", ["int8", "float32", "float32", "float32", "float32", "float32", "float32", "int8", "float32", "float32", "float32", "float32", "float32", "int8"]], "device_index": ["list_int", [2, 2, 2, 2, 2, 2, 2, 2, 2, 2, 2, 2, 2, 2]], "storage_id": ["list_int", [5, 6, 7, 8, 9, 10, 11, 6, 11, 105, 106, 107, 108, 100]], "shape": ["list_shape", [[1, 64, 256, 256], [1, 64, 256, 256], [64, 64, 3, 3], [1, 64, 1, 1], [1, 64, 1, 1], [1, 64, 1, 1], [1, 64, 256, 256], [1, 64, 128, 128], [1, 64, 128, 128], [32, 64, 3, 3], [1, 32, 1, 1], [1, 32, 1, 1], [1, 32, 1, 1], [1, 32, 128, 128]]]}, "node_row_ptr": [0, 1, 2, 3, 4, 5, 6, 7, 8, 9, 10, 11, 12, 13, 14], "extra": {"inputs": [5], "outputs": [12, 130]}}