{"nodes": [{"op": "null", "name": "input_9", "attrs": {"num_outputs": "1", "num_inputs": "5", "flatten_data": "0", "func_name": "tvmgen_default_fused_nn_conv2d_add_multiply_add", "out_layout": "", "kernel_layout": "OIHW", "data_layout": "NCHW", "hash": "eb263027e15e9ee8"}, "inputs": []}, {"op": "null", "name": "input_19", "attrs": {"num_outputs": "1", "num_inputs": "5", "flatten_data": "0", "func_name": "tvmgen_default_fused_nn_conv2d_add_multiply_add_1", "out_layout": "", "kernel_layout": "OIHW", "data_layout": "NCHW", "hash": "afcc3e3243b199b7"}, "inputs": []}, {"op": "null", "name": "input_29", "attrs": {"num_outputs": "1", "num_inputs": "5", "flatten_data": "0", "func_name": "tvmgen_default_fused_nn_conv2d_add_multiply_add_2", "out_layout": "", "kernel_layout": "OIHW", "data_layout": "NCHW", "hash": "8cb240c20c9a61e5"}, "inputs": []}, {"op": "null", "name": "input_30", "attrs": {"num_outputs": "1", "num_inputs": "1", "flatten_data": "0", "func_name": "tvmgen_default_fused_nn_max_pool2d_2", "out_layout": "", "layout": "NCHW", "hash": "cb616bafe17574b2"}, "inputs": []}, {"op": "null", "name": "p21", "inputs": []}, {"op": "null", "name": "p22", "inputs": []}, {"op": "null", "name": "p23", "inputs": []}, {"op": "tvm_op", "name": "tvmgen_default_fused_nn_conv2d_add_add_nn_leaky_relu_3", "attrs": {"num_outputs": "1", "num_inputs": "4", "flatten_data": "0", "func_name": "tvmgen_default_fused_nn_conv2d_add_add_nn_leaky_relu_3", "out_layout": "", "kernel_layout": "OIHW", "data_layout": "NCHW", "hash": "28c22030fbad6c26"}, "inputs": [[3, 0, 0], [4, 0, 0], [5, 0, 0], [6, 0, 0]]}, {"op": "null", "name": "p24", "inputs": []}, {"op": "null", "name": "p25", "inputs": []}, {"op": "null", "name": "p26", "inputs": []}, {"op": "null", "name": "p27", "inputs": []}, {"op": "tvm_op", "name": "tvmgen_default_fused_nn_conv2d_add_multiply_add_3", "attrs": {"num_outputs": "1", "num_inputs": "5", "flatten_data": "0", "func_name": "tvmgen_default_fused_nn_conv2d_add_multiply_add_3", "out_layout": "", "kernel_layout": "OIHW", "data_layout": "NCHW", "hash": "eef4cb8b0b95c0f6"}, "inputs": [[7, 0, 0], [8, 0, 0], [9, 0, 0], [10, 0, 0], [11, 0, 0]]}, {"op": "tvm_op", "name": "tvmgen_default_fused_nn_max_pool2d_3", "attrs": {"num_outputs": "1", "num_inputs": "1", "flatten_data": "0", "func_name": "tvmgen_default_fused_nn_max_pool2d_3", "out_layout": "", "layout": "NCHW", "hash": "8f41a8f1878e35e5"}, "inputs": [[12, 0, 0]]}, {"op": "null", "name": "p28", "inputs": []}, {"op": "null", "name": "p29", "inputs": []}, {"op": "null", "name": "p30", "inputs": []}, {"op": "tvm_op", "name": "tvmgen_default_fused_nn_conv2d_add_add_nn_leaky_relu_4", "attrs": {"num_outputs": "1", "num_inputs": "4", "flatten_data": "0", "func_name": "tvmgen_default_fused_nn_conv2d_add_add_nn_leaky_relu_4", "out_layout": "", "kernel_layout": "OIHW", "data_layout": "NCHW", "hash": "507c2c1b845a6d33"}, "inputs": [[13, 0, 0], [14, 0, 0], [15, 0, 0], [16, 0, 0]]}, {"op": "null", "name": "p31", "inputs": []}, {"op": "null", "name": "p32", "inputs": []}, {"op": "null", "name": "p33", "inputs": []}, {"op": "null", "name": "p34", "inputs": []}, {"op": "tvm_op", "name": "tvmgen_default_fused_nn_conv2d_add_multiply_add_4", "attrs": {"num_outputs": "1", "num_inputs": "5", "flatten_data": "0", "func_name": "tvmgen_default_fused_nn_conv2d_add_multiply_add_4", "out_layout": "", "kernel_layout": "OIHW", "data_layout": "NCHW", "hash": "8f709a2d2851a3c9"}, "inputs": [[17, 0, 0], [18, 0, 0], [19, 0, 0], [20, 0, 0], [21, 0, 0]]}, {"op": "null", "name": "p35", "inputs": []}, {"op": "null", "name": "p36", "inputs": []}, {"op": "null", "name": "p37", "inputs": []}, {"op": "null", "name": "p38", "inputs": []}, {"op": "tvm_op", "name": "tvmgen_default_fused_nn_conv2d_transpose_add_multiply_add_nn_leaky_relu", "attrs": {"num_outputs": "1", "num_inputs": "5", "flatten_data": "0", "func_name": "tvmgen_default_fused_nn_conv2d_transpose_add_multiply_add_nn_leaky_relu", "out_layout": "", "kernel_layout": "IOHW", "data_layout": "NCHW", "hash": "2b546a346317a518"}, "inputs": [[22, 0, 0], [23, 0, 0], [24, 0, 0], [25, 0, 0], [26, 0, 0]]}, {"op": "tvm_op", "name": "tvmgen_default_fused_concatenate", "attrs": {"num_outputs": "1", "num_inputs": "2", "flatten_data": "0", "func_name": "tvmgen_default_fused_concatenate", "hash": "a0cd721541e9f7e5"}, "inputs": [[27, 0, 0], [12, 0, 0]]}, {"op": "null", "name": "p39", "inputs": []}, {"op": "null", "name": "p40", "inputs": []}, {"op": "null", "name": "p41", "inputs": []}, {"op": "tvm_op", "name": "tvmgen_default_fused_nn_conv2d_add_add_nn_leaky_relu_5", "attrs": {"num_outputs": "1", "num_inputs": "4", "flatten_data": "0", "func_name": "tvmgen_default_fused_nn_conv2d_add_add_nn_leaky_relu_5", "out_layout": "", "kernel_layout": "OIHW", "data_layout": "NCHW", "hash": "02e6e84308b7771f"}, "inputs": [[28, 0, 0], [29, 0, 0], [30, 0, 0], [31, 0, 0]]}, {"op": "null", "name": "p42", "inputs": []}, {"op": "null", "name": "p43", "inputs": []}, {"op": "null", "name": "p44", "inputs": []}, {"op": "null", "name": "p45", "inputs": []}, {"op": "tvm_op", "name": "tvmgen_default_fused_nn_conv2d_add_multiply_add_31", "attrs": {"num_outputs": "1", "num_inputs": "5", "flatten_data": "0", "func_name": "tvmgen_default_fused_nn_conv2d_add_multiply_add_3", "out_layout": "", "kernel_layout": "OIHW", "data_layout": "NCHW", "hash": "eef4cb8b0b95c0f6"}, "inputs": [[32, 0, 0], [33, 0, 0], [34, 0, 0], [35, 0, 0], [36, 0, 0]]}, {"op": "null", "name": "p46", "inputs": []}, {"op": "null", "name": "p47", "inputs": []}, {"op": "null", "name": "p48", "inputs": []}, {"op": "null", "name": "p49", "inputs": []}, {"op": "tvm_op", "name": "tvmgen_default_fused_nn_conv2d_transpose_add_multiply_add_nn_leaky_relu_1", "attrs": {"num_outputs": "1", "num_inputs": "5", "flatten_data": "0", "func_name": "tvmgen_default_fused_nn_conv2d_transpose_add_multiply_add_nn_leaky_relu_1", "out_layout": "", "kernel_layout": "IOHW", "data_layout": "NCHW", "hash": "7c3bb1d0f4348302"}, "inputs": [[37, 0, 0], [38, 0, 0], [39, 0, 0], [40, 0, 0], [41, 0, 0]]}, {"op": "tvm_op", "name": "tvmgen_default_fused_concatenate_1", "attrs": {"num_outputs": "1", "num_inputs": "2", "flatten_data": "0", "func_name": "tvmgen_default_fused_concatenate_1", "hash": "3a8a880cc13869bd"}, "inputs": [[42, 0, 0], [2, 0, 0]]}, {"op": "null", "name": "p50", "inputs": []}, {"op": "null", "name": "p51", "inputs": []}, {"op": "null", "name": "p52", "inputs": []}, {"op": "tvm_op", "name": "tvmgen_default_fused_nn_conv2d_add_add_nn_leaky_relu_6", "attrs": {"num_outputs": "1", "num_inputs": "4", "flatten_data": "0", "func_name": "tvmgen_default_fused_nn_conv2d_add_add_nn_leaky_relu_6", "out_layout": "", "kernel_layout": "OIHW", "data_layout": "NCHW", "hash": "7be6ecb9f8d28f4d"}, "inputs": [[43, 0, 0], [44, 0, 0], [45, 0, 0], [46, 0, 0]]}, {"op": "null", "name": "p53", "inputs": []}, {"op": "null", "name": "p54", "inputs": []}, {"op": "null", "name": "p55", "inputs": []}, {"op": "null", "name": "p56", "inputs": []}, {"op": "tvm_op", "name": "tvmgen_default_fused_nn_conv2d_add_multiply_add_21", "attrs": {"num_outputs": "1", "num_inputs": "5", "flatten_data": "0", "func_name": "tvmgen_default_fused_nn_conv2d_add_multiply_add_2", "out_layout": "", "kernel_layout": "OIHW", "data_layout": "NCHW", "hash": "8cb240c20c9a61e5"}, "inputs": [[47, 0, 0], [48, 0, 0], [49, 0, 0], [50, 0, 0], [51, 0, 0]]}, {"op": "null", "name": "p57", "inputs": []}, {"op": "null", "name": "p58", "inputs": []}, {"op": "null", "name": "p59", "inputs": []}, {"op": "null", "name": "p60", "inputs": []}, {"op": "tvm_op", "name": "tvmgen_default_fused_nn_conv2d_transpose_add_multiply_add_nn_leaky_relu_2", "attrs": {"num_outputs": "1", "num_inputs": "5", "flatten_data": "0", "func_name": "tvmgen_default_fused_nn_conv2d_transpose_add_multiply_add_nn_leaky_relu_2", "out_layout": "", "kernel_layout": "IOHW", "data_layout": "NCHW", "hash": "a19d4dacf72f18f3"}, "inputs": [[52, 0, 0], [53, 0, 0], [54, 0, 0], [55, 0, 0], [56, 0, 0]]}, {"op": "tvm_op", "name": "tvmgen_default_fused_concatenate_2", "attrs": {"num_outputs": "1", "num_inputs": "2", "flatten_data": "0", "func_name": "tvmgen_default_fused_concatenate_2", "hash": "0d688a8f5e75b65e"}, "inputs": [[57, 0, 0], [1, 0, 0]]}, {"op": "null", "name": "p61", "inputs": []}, {"op": "null", "name": "p62", "inputs": []}, {"op": "null", "name": "p63", "inputs": []}, {"op": "tvm_op", "name": "tvmgen_default_fused_nn_conv2d_add_add_nn_leaky_relu_7", "attrs": {"num_outputs": "1", "num_inputs": "4", "flatten_data": "0", "func_name": "tvmgen_default_fused_nn_conv2d_add_add_nn_leaky_relu_7", "out_layout": "", "kernel_layout": "OIHW", "data_layout": "NCHW", "hash": "f81b264d19b9a6be"}, "inputs": [[58, 0, 0], [59, 0, 0], [60, 0, 0], [61, 0, 0]]}, {"op": "null", "name": "p64", "inputs": []}, {"op": "null", "name": "p65", "inputs": []}, {"op": "null", "name": "p66", "inputs": []}, {"op": "null", "name": "p67", "inputs": []}, {"op": "tvm_op", "name": "tvmgen_default_fused_nn_conv2d_add_multiply_add_11", "attrs": {"num_outputs": "1", "num_inputs": "5", "flatten_data": "0", "func_name": "tvmgen_default_fused_nn_conv2d_add_multiply_add_1", "out_layout": "", "kernel_layout": "OIHW", "data_layout": "NCHW", "hash": "afcc3e3243b199b7"}, "inputs": [[62, 0, 0], [63, 0, 0], [64, 0, 0], [65, 0, 0], [66, 0, 0]]}, {"op": "null", "name": "p68", "inputs": []}, {"op": "null", "name": "p69", "inputs": []}, {"op": "null", "name": "p70", "inputs": []}, {"op": "null", "name": "p71", "inputs": []}, {"op": "tvm_op", "name": "tvmgen_default_fused_nn_conv2d_transpose_add_multiply_add_nn_leaky_relu_3", "attrs": {"num_outputs": "1", "num_inputs": "5", "flatten_data": "0", "func_name": "tvmgen_default_fused_nn_conv2d_transpose_add_multiply_add_nn_leaky_relu_3", "out_layout": "", "kernel_layout": "IOHW", "data_layout": "NCHW", "hash": "e2fccacfae4878e3"}, "inputs": [[67, 0, 0], [68, 0, 0], [69, 0, 0], [70, 0, 0], [71, 0, 0]]}, {"op": "tvm_op", "name": "tvmgen_default_fused_concatenate_3", "attrs": {"num_outputs": "1", "num_inputs": "2", "flatten_data": "0", "func_name": "tvmgen_default_fused_concatenate_3", "hash": "88c150325a68c3fc"}, "inputs": [[72, 0, 0], [0, 0, 0]]}, {"op": "null", "name": "p72", "inputs": []}, {"op": "null", "name": "p73", "inputs": []}, {"op": "null", "name": "p74", "inputs": []}, {"op": "tvm_op", "name": "tvmgen_default_fused_nn_conv2d_add_add_nn_leaky_relu_8", "attrs": {"num_outputs": "1", "num_inputs": "4", "flatten_data": "0", "func_name": "tvmgen_default_fused_nn_conv2d_add_add_nn_leaky_relu_8", "out_layout": "", "kernel_layout": "OIHW", "data_layout": "NCHW", "hash": "0258e262c093a80d"}, "inputs": [[73, 0, 0], [74, 0, 0], [75, 0, 0], [76, 0, 0]]}, {"op": "null", "name": "p75", "inputs": []}, {"op": "null", "name": "p76", "inputs": []}, {"op": "null", "name": "p77", "inputs": []}, {"op": "tvm_op", "name": "tvmgen_default_fused_nn_conv2d_add_add", "attrs": {"num_outputs": "1", "num_inputs": "4", "flatten_data": "0", "func_name": "tvmgen_default_fused_nn_conv2d_add_add", "out_layout": "", "kernel_layout": "OIHW", "data_layout": "NCHW", "hash": "b83cfcda2b3569ee"}, "inputs": [[77, 0, 0], [78, 0, 0], [79, 0, 0], [80, 0, 0]]}, {"op": "null", "name": "p78", "inputs": []}, {"op": "null", "name": "p79", "inputs": []}, {"op": "tvm_op", "name": "tvmgen_default_fused_nn_conv2d_add_sigmoid", "attrs": {"num_outputs": "1", "num_inputs": "3", "flatten_data": "0", "func_name": "tvmgen_default_fused_nn_conv2d_add_sigmoid", "out_layout": "", "kernel_layout": "OIHW", "data_layout": "NCHW", "hash": "61cdf1c6242552b1"}, "inputs": [[81, 0, 0], [82, 0, 0], [83, 0, 0]]}], "arg_nodes": [0, 1, 2, 3, 4, 5, 6, 8, 9, 10, 11, 14, 15, 16, 18, 19, 20, 21, 23, 24, 25, 26, 29, 30, 31, 33, 34, 35, 36, 38, 39, 40, 41, 44, 45, 46, 48, 49, 50, 51, 53, 54, 55, 56, 59, 60, 61, 63, 64, 65, 66, 68, 69, 70, 71, 74, 75, 76, 78, 79, 80, 82, 83], "heads": [[84, 0, 0]], "attrs": {"dltype": ["list_str", ["float32", "float32", "float32", "float32", "float32", "float32", "float32", "float32", "float32", "float32", "float32", "float32", "float32", "float32", "float32", "float32", "float32", "float32", "float32", "float32", "float32", "float32", "float32", "float32", "float32", "float32", "float32", "float32", "float32", "float32", "float32", "float32", "float32", "float32", "float32", "float32", "float32", "float32", "float32", "float32", "float32", "float32", "float32", "float32", "float32", "float32", "float32", "float32", "float32", "float32", "float32", "float32", "float32", "float32", "float32", "float32", "float32", "float32", "float32", "float32", "float32", "float32", "float32", "float32", "float32", "float32", "float32", "float32", "float32", "float32", "float32", "float32", "float32", "float32", "float32", "float32", "float32", "float32", "float32", "float32", "float32", "float32", "float32", "float32", "float32"]], "device_index": ["list_int", [2, 2, 2, 2, 2, 2, 2, 2, 2, 2, 2, 2, 2, 2, 2, 2, 2, 2, 2, 2, 2, 2, 2, 2, 2, 2, 2, 2, 2, 2, 2, 2, 2, 2, 2, 2, 2, 2, 2, 2, 2, 2, 2, 2, 2, 2, 2, 2, 2, 2, 2, 2, 2, 2, 2, 2, 2, 2, 2, 2, 2, 2, 2, 2, 2, 2, 2, 2, 2, 2, 2, 2, 2, 2, 2, 2, 2, 2, 2, 2, 2, 2, 2, 2, 2]], "storage_id": ["list_int", [9, 4, 13, 21, 26, 27, 28, 29, 30, 31, 32, 33, 21, 29, 34, 35, 36, 37, 38, 39, 40, 41, 29, 42, 43, 44, 45, 37, 29, 46, 47, 48, 37, 49, 50, 51, 52, 21, 53, 54, 55, 56, 29, 21, 57, 58, 59, 29, 60, 61, 62, 63, 13, 64, 65, 66, 67, 21, 13, 68, 69, 70, 21, 71, 72, 73, 74, 4, 75, 76, 77, 78, 13, 4, 79, 80, 81, 13, 82, 83, 84, 9, 85, 86, 37]], "shape": ["list_shape", [[1, 16, 512, 512], [1, 32, 256, 256], [1, 64, 128, 128], [1, 64, 64, 64], [128, 64, 3, 3], [1, 128, 1, 1], [1, 128, 1, 1], [1, 128, 64, 64], [128, 128, 3, 3], [1, 128, 1, 1], [1, 128, 1, 1], [1, 128, 1, 1], [1, 128, 64, 64], [1, 128, 32, 32], [256, 128, 3, 3], [1, 256, 1, 1], [1, 256, 1, 1], [1, 256, 32, 32], [256, 256, 3, 3], [1, 256, 1, 1], [1, 256, 1, 1], [1, 256, 1, 1], [1, 256, 32, 32], [256, 128, 3, 3], [1, 128, 1, 1], [1, 128, 1, 1], [1, 128, 1, 1], [1, 128, 64, 64], [1, 256, 64, 64], [128, 256, 3, 3], [1, 128, 1, 1], [1, 128, 1, 1], [1, 128, 64, 64], [128, 128, 3, 3], [1, 128, 1, 1], [1, 128, 1, 1], [1, 128, 1, 1], [1, 128, 64, 64], [128, 64, 3, 3], [1, 64, 1, 1], [1, 64, 1, 1], [1, 64, 1, 1], [1, 64, 128, 128], [1, 128, 128, 128], [64, 128, 3, 3], [1, 64, 1, 1], [1, 64, 1, 1], [1, 64, 128, 128], [64, 64, 3, 3], [1, 64, 1, 1], [1, 64, 1, 1], [1, 64, 1, 1], [1, 64, 128, 128], [64, 32, 3, 3], [1, 32, 1, 1], [1, 32, 1, 1], [1, 32, 1, 1], [1, 32, 256, 256], [1, 64, 256, 256], [32, 64, 3, 3], [1, 32, 1, 1], [1, 32, 1, 1], [1, 32, 256, 256], [32, 32, 3, 3], [1, 32, 1, 1], [1, 32, 1, 1], [1, 32, 1, 1], [1, 32, 256, 256], [32, 16, 3, 3], [1, 16, 1, 1], [1, 16, 1, 1], [1, 16, 1, 1], [1, 16, 512, 512], [1, 32, 512, 512], [16, 32, 3, 3], [1, 16, 1, 1], [1, 16, 1, 1], [1, 16, 512, 512], [16, 16, 3, 3], [1, 16, 1, 1], [1, 16, 1, 1], [1, 16, 512, 512], [1, 16, 3, 3], [1, 1, 1], [1, 1, 512, 512]]]}, "node_row_ptr": [0, 1, 2, 3, 4, 5, 6, 7, 8, 9, 10, 11, 12, 13, 14, 15, 16, 17, 18, 19, 20, 21, 22, 23, 24, 25, 26, 27, 28, 29, 30, 31, 32, 33, 34, 35, 36, 37, 38, 39, 40, 41, 42, 43, 44, 45, 46, 47, 48, 49, 50, 51, 52, 53, 54, 55, 56, 57, 58, 59, 60, 61, 62, 63, 64, 65, 66, 67, 68, 69, 70, 71, 72, 73, 74, 75, 76, 77, 78, 79, 80, 81, 82, 83, 84, 85], "extra": {"inputs": [9, 19, 29, 30], "outputs": [84]}}