===before quantize===
#[version = "0.0.5"]
def @main(%input_1: Tensor[(1, 3, 256, 256), float32], %v_param_1: Tensor[(16, 3, 3, 3), float32], %v_param_2: Tensor[(16), float32], %v_param_3: Tensor[(32, 16, 3, 3), float32], %v_param_4: Tensor[(32), float32]) {
  %0 = nn.conv2d(%input_1, %v_param_1, padding=[1, 1, 1, 1], channels=16, kernel_size=[3, 3]);
  %1 = nn.bias_add(%0, %v_param_2);
  %2 = nn.max_pool2d(%1, pool_size=[2, 2], strides=[2, 2], padding=[0, 0, 0, 0]);
  %3 = nn.conv2d(%2, %v_param_3, padding=[1, 1, 1, 1], channels=32, kernel_size=[3, 3]);
  %4 = nn.bias_add(%3, %v_param_4);
  nn.max_pool2d(%4, pool_size=[2, 2], strides=[2, 2], padding=[0, 0, 0, 0])
}

===               ===
===after  quantize===
#[version = "0.0.5"]
def @main(%input_1: Tensor[(1, 3, 256, 256), float32]) -> Tensor[(1, 32, 64, 64), float32] {
  %0 = nn.conv2d(%input_1, meta[relay.Constant][0] /* ty=Tensor[(16, 3, 3, 3), float32] */, padding=[1, 1, 1, 1], channels=16, kernel_size=[3, 3]) /* ty=Tensor[(1, 16, 256, 256), float32] */;
  %1 = annotation.stop_fusion(%0) /* ty=Tensor[(1, 16, 256, 256), float32] */;
  %2 = nn.bias_add(%1, meta[relay.Constant][1] /* ty=Tensor[(16), float32] */) /* ty=Tensor[(1, 16, 256, 256), float32] */;
  %3 = nn.max_pool2d(%2, pool_size=[2, 2], strides=[2, 2], padding=[0, 0, 0, 0]) /* ty=Tensor[(1, 16, 128, 128), float32] */;
  %4 = multiply(%3, 16f /* ty=float32 */) /* ty=Tensor[(1, 16, 128, 128), float32] */;
  %5 = round(%4) /* ty=Tensor[(1, 16, 128, 128), float32] */;
  %6 = clip(%5, a_min=-127f, a_max=127f) /* ty=Tensor[(1, 16, 128, 128), float32] */;
  %7 = cast(%6, dtype="int8") /* ty=Tensor[(1, 16, 128, 128), int8] */;
  %8 = nn.conv2d(%7, meta[relay.Constant][2] /* ty=Tensor[(32, 16, 3, 3), int8] */, padding=[1, 1, 1, 1], channels=32, kernel_size=[3, 3], out_dtype="int32") /* ty=Tensor[(1, 32, 128, 128), int32] */;
  %9 = add(%8, 512 /* ty=int32 */) /* ty=Tensor[(1, 32, 128, 128), int32] */;
  %10 = right_shift(%9, 10 /* ty=int32 */) /* ty=Tensor[(1, 32, 128, 128), int32] */;
  %11 = clip(%10, a_min=-127f, a_max=127f) /* ty=Tensor[(1, 32, 128, 128), int32] */;
  %12 = cast(%11, dtype="int8") /* ty=Tensor[(1, 32, 128, 128), int8] */;
  %13 = annotation.stop_fusion(%12) /* ty=Tensor[(1, 32, 128, 128), int8] */;
  %14 = cast(%13, dtype="float32") /* ty=Tensor[(1, 32, 128, 128), float32] */;
  %15 = multiply(%14, 0.0625f /* ty=float32 */) /* ty=Tensor[(1, 32, 128, 128), float32] */;
  %16 = nn.bias_add(%15, meta[relay.Constant][3] /* ty=Tensor[(32), float32] */) /* ty=Tensor[(1, 32, 128, 128), float32] */;
  nn.max_pool2d(%16, pool_size=[2, 2], strides=[2, 2], padding=[0, 0, 0, 0]) /* ty=Tensor[(1, 32, 64, 64), float32] */
}

#[metadata]
{
  "root": 1, 
  "nodes": [
    {
      "type_key": ""
    }, 
    {
      "type_key": "Map", 
      "keys": [
        "relay.Constant"
      ], 
      "data": [2]
    }, 
    {
      "type_key": "Array", 
      "data": [3, 10, 13, 20]
    }, 
    {
      "type_key": "relay.Constant", 
      "attrs": {
        "_checked_type_": "4", 
        "data": "0", 
        "span": "0"
      }
    }, 
    {
      "type_key": "relay.TensorType", 
      "attrs": {
        "dtype": "float32", 
        "shape": "5", 
        "span": "0"
      }
    }, 
    {
      "type_key": "Array", 
      "data": [6, 7, 8, 9]
    }, 
    {
      "type_key": "IntImm", 
      "attrs": {
        "dtype": "int32", 
        "span": "0", 
        "value": "16"
      }
    }, 
    {
      "type_key": "IntImm", 
      "attrs": {
        "dtype": "int32", 
        "span": "0", 
        "value": "3"
      }
    }, 
    {
      "type_key": "IntImm", 
      "attrs": {
        "dtype": "int32", 
        "span": "0", 
        "value": "3"
      }
    }, 
    {
      "type_key": "IntImm", 
      "attrs": {
        "dtype": "int32", 
        "span": "0", 
        "value": "3"
      }
    }, 
    {
      "type_key": "relay.Constant", 
      "attrs": {
        "_checked_type_": "11", 
        "data": "1", 
        "span": "0"
      }
    }, 
    {
      "type_key": "relay.TensorType", 
      "attrs": {
        "dtype": "float32", 
        "shape": "12", 
        "span": "0"
      }
    }, 
    {
      "type_key": "Array", 
      "data": [6]
    }, 
    {
      "type_key": "relay.Constant", 
      "attrs": {
        "_checked_type_": "14", 
        "data": "2", 
        "span": "0"
      }
    }, 
    {
      "type_key": "relay.TensorType", 
      "attrs": {
        "dtype": "int8", 
        "shape": "15", 
        "span": "0"
      }
    }, 
    {
      "type_key": "Array", 
      "data": [16, 17, 18, 19]
    }, 
    {
      "type_key": "IntImm", 
      "attrs": {
        "dtype": "int32", 
        "span": "0", 
        "value": "32"
      }
    }, 
    {
      "type_key": "IntImm", 
      "attrs": {
        "dtype": "int32", 
        "span": "0", 
        "value": "16"
      }
    }, 
    {
      "type_key": "IntImm", 
      "attrs": {
        "dtype": "int32", 
        "span": "0", 
        "value": "3"
      }
    }, 
    {
      "type_key": "IntImm", 
      "attrs": {
        "dtype": "int32", 
        "span": "0", 
        "value": "3"
      }
    }, 
    {
      "type_key": "relay.Constant", 
      "attrs": {
        "_checked_type_": "21", 
        "data": "3", 
        "span": "0"
      }
    }, 
    {
      "type_key": "relay.TensorType", 
      "attrs": {
        "dtype": "float32", 
        "shape": "22", 
        "span": "0"
      }
    }, 
    {
      "type_key": "Array", 
      "data": [16]
    }
  ], 
  "b64ndarrays": [
    "…", 
    "P6G0lvBAXt0AAAAAAAAAAAEAAAAAAAAAAQAAAAIgAQAQAAAAAAAAAEAAAAAAAAAAAAAAAAAAAAAAAAAAAAAAAAAAAAAAAAAAAAAAAAAAAAAAAAAAAAAAAAAAAAAAAAAAAAAAAAAAAAAAAAAAAAAAAA==", 
    "…", 
    "…"
  ], 
  "attrs": {"tvm_version": "0.8.0"}
}
===               ===
